…
I0602 14:20:01.139108  1854 net.cpp:296] The NetState phase (0) differed from the phase (1) specified by a rule in layer accuracy
I0602 14:20:01.139245  1854 net.cpp:53] Initializing net from parameters: 
name: "CaffeNet"
state {
  phase: TRAIN
  level: 0
  stage: ""
}
layer {
  name: "data"
  type: "Data"
  top: "data"
  top: "label"
  include {
    phase: TRAIN
  }
  transform_param {
    mirror: true
    crop_size: 32
    mean_file: "/home/wanli/cifar10/mean.binaryproto"
  }
  data_param {
    source: "/home/wanli/cifar10/cifar10_train_lmdb"
    batch_size: 256
    backend: LMDB
  }
}
layer {
  name: "conv1"
  type: "Convolution"
  bottom: "data"
  top: "conv1"
  param {
    lr_mult: 1
    decay_mult: 1
  }
  param {
    lr_mult: 2
    decay_mult: 0
  }
  convolution_param {
    num_output: 96
    kernel_size: 3
    stride: 1
    weight_filler {
      type: "gaussian"
      std: 0.01
    }
    bias_filler {
      type: "constant"
      value: 0
    }
  }
}
layer {
  name: "relu1"
  type: "ReLU"
  bottom: "conv1"
  top: "conv1"
}
layer {
  name: "pool1"
  type: "Pooling"
  bottom: "conv1"
  top: "pool1"
  pooling_param {
    pool: MAX
    kernel_size: 3
    stride: 2
  }
}
layer {
  name: "norm1"
  type: "LRN"
  bottom: "pool1"
  top: "norm1"
  lrn_param {
    local_size: 5
    alpha: 0.0001
    beta: 0.75
  }
}
layer {
  name: "conv2"
  type: "Convolution"
  bottom: "norm1"
  top: "conv2"
  param {
    lr_mult: 1
    decay_mult: 1
  }
  param {
    lr_mult: 2
    decay_mult: 0
  }
  convolution_param {
    num_output: 32
    pad: 2
    kernel_size: 5
    group: 2
    weight_filler {
      type: "gaussian"
      std: 0.01
    }
    bias_filler {
      type: "constant"
      value: 1
    }
  }
}
layer {
  name: "relu2"
  type: "ReLU"
  bottom: "conv2"
  top: "conv2"
}
layer {
  name: "pool2"
  type: "Pooling"
  bottom: "conv2"
  top: "pool2"
  pooling_param {
    pool: MAX
    kernel_size: 3
    stride: 2
  }
}
layer {
  name: "norm2"
  type: "LRN"
  bottom: "pool2"
  top: "norm2"
  lrn_param {
    local_size: 5
    alpha: 0.0001
    beta: 0.75
  }
}
layer {
  name: "conv3"
  type: "Convolution"
  bottom: "norm2"
  top: "conv3"
  param {
    lr_mult: 1
    decay_mult: 1
  }
  param {
    lr_mult: 2
    decay_mult: 0
  }
  convolution_param {
    num_output: 48
    pad: 1
    kernel_size: 3
    weight_filler {
      type: "gaussian"
      std: 0.01
    }
    bias_filler {
      type: "constant"
      value: 0
    }
  }
}
layer {
  name: "relu3"
  type: "ReLU"
  bottom: "conv3"
  top: "conv3"
}
layer {
  name: "conv4"
  type: "Convolution"
  bottom: "conv3"
  top: "conv4"
  param {
    lr_mult: 1
    decay_mult: 1
  }
  param {
    lr_mult: 2
    decay_mult: 0
  }
  convolution_param {
    num_output: 48
    pad: 1
    kernel_size: 3
    group: 2
    weight_filler {
      type: "gaussian"
      std: 0.01
    }
    bias_filler {
      type: "constant"
      value: 1
    }
  }
}
layer {
  name: "relu4"
  type: "ReLU"
  bottom: "conv4"
  top: "conv4"
}
layer {
  name: "conv5"
  type: "Convolution"
  bottom: "conv4"
  top: "conv5"
  param {
    lr_mult: 1
    decay_mult: 1
  }
  param {
    lr_mult: 2
    decay_mult: 0
  }
  convolution_param {
    num_output: 32
    pad: 1
    kernel_size: 3
    group: 2
    weight_filler {
      type: "gaussian"
      std: 0.01
    }
    bias_filler {
      type: "constant"
      value: 1
    }
  }
}
layer {
  name: "relu5"
  type: "ReLU"
  bottom: "conv5"
  top: "conv5"
}
layer {
  name: "pool5"
  type: "Pooling"
  bottom: "conv5"
  top: "pool5"
  pooling_param {
    pool: MAX
    kernel_size: 3
    stride: 2
  }
}
layer {
  name: "fc6"
  type: "InnerProduct"
  bottom: "pool5"
  top: "fc6"
  param {
    lr_mult: 1
    decay_mult: 1
  }
  param {
    lr_mult: 2
    decay_mult: 0
  }
  inner_product_param {
    num_output: 1024
    weight_filler {
      type: "gaussian"
      std: 0.005
    }
    bias_filler {
      type: "constant"
      value: 1
    }
  }
}
layer {
  name: "relu6"
  type: "ReLU"
  bottom: "fc6"
  top: "fc6"
}
layer {
  name: "drop6"
  type: "Dropout"
  bottom: "fc6"
  top: "fc6"
  dropout_param {
    dropout_ratio: 0.5
  }
}
layer {
  name: "fc7"
  type: "InnerProduct"
  bottom: "fc6"
  top: "fc7"
  param {
    lr_mult: 1
    decay_mult: 1
  }
  param {
    lr_mult: 2
    decay_mult: 0
  }
  inner_product_param {
    num_output: 1024
    weight_filler {
      type: "gaussian"
      std: 0.005
    }
    bias_filler {
      type: "constant"
      value: 1
    }
  }
}
layer {
  name: "relu7"
  type: "ReLU"
  bottom: "fc7"
  top: "fc7"
}
layer {
  name: "drop7"
  type: "Dropout"
  bottom: "fc7"
  top: "fc7"
  dropout_param {
    dropout_ratio: 0.5
  }
}
layer {
  name: "fc8"
  type: "InnerProduct"
  bottom: "fc7"
  top: "fc8"
  param {
    lr_mult: 1
    decay_mult: 1
  }
  param {
    lr_mult: 2
    decay_mult: 0
  }
  inner_product_param {
    num_output: 10
    weight_filler {
      type: "gaussian"
      std: 0.01
    }
    bias_filler {
      type: "constant"
      value: 0
    }
  }
}
layer {
  name: "loss"
  type: "SoftmaxWithLoss"
  bottom: "fc8"
  bottom: "label"
  top: "loss"
}
I0602 14:20:01.139327  1854 layer_factory.hpp:77] Creating layer data
I0602 14:20:01.139430  1854 db_lmdb.cpp:35] Opened lmdb /home/wanli/cifar10/cifar10_train_lmdb
I0602 14:20:01.139456  1854 net.cpp:86] Creating Layer data
I0602 14:20:01.139464  1854 net.cpp:382] data -> data
I0602 14:20:01.139480  1854 net.cpp:382] data -> label
I0602 14:20:01.139492  1854 data_transformer.cpp:25] Loading mean file from: /home/wanli/cifar10/mean.binaryproto
I0602 14:20:01.141412  1854 data_layer.cpp:45] output data size: 256,3,32,32
I0602 14:20:01.149588  1854 net.cpp:124] Setting up data
I0602 14:20:01.149607  1854 net.cpp:131] Top shape: 256 3 32 32 (786432)
I0602 14:20:01.149612  1854 net.cpp:131] Top shape: 256 (256)
I0602 14:20:01.149616  1854 net.cpp:139] Memory required for data: 3146752
I0602 14:20:01.149623  1854 layer_factory.hpp:77] Creating layer conv1
I0602 14:20:01.149638  1854 net.cpp:86] Creating Layer conv1
I0602 14:20:01.149644  1854 net.cpp:408] conv1 <- data
I0602 14:20:01.149657  1854 net.cpp:382] conv1 -> conv1
I0602 14:20:01.150759  1854 net.cpp:124] Setting up conv1
I0602 14:20:01.150774  1854 net.cpp:131] Top shape: 256 96 30 30 (22118400)
I0602 14:20:01.150779  1854 net.cpp:139] Memory required for data: 91620352
I0602 14:20:01.150796  1854 layer_factory.hpp:77] Creating layer relu1
I0602 14:20:01.150804  1854 net.cpp:86] Creating Layer relu1
I0602 14:20:01.150809  1854 net.cpp:408] relu1 <- conv1
I0602 14:20:01.150813  1854 net.cpp:369] relu1 -> conv1 (in-place)
I0602 14:20:01.150820  1854 net.cpp:124] Setting up relu1
I0602 14:20:01.150840  1854 net.cpp:131] Top shape: 256 96 30 30 (22118400)
I0602 14:20:01.150843  1854 net.cpp:139] Memory required for data: 180093952
I0602 14:20:01.150847  1854 layer_factory.hpp:77] Creating layer pool1
I0602 14:20:01.150852  1854 net.cpp:86] Creating Layer pool1
I0602 14:20:01.150856  1854 net.cpp:408] pool1 <- conv1
I0602 14:20:01.150861  1854 net.cpp:382] pool1 -> pool1
I0602 14:20:01.150902  1854 net.cpp:124] Setting up pool1
I0602 14:20:01.150916  1854 net.cpp:131] Top shape: 256 96 15 15 (5529600)
I0602 14:20:01.150920  1854 net.cpp:139] Memory required for data: 202212352
I0602 14:20:01.150924  1854 layer_factory.hpp:77] Creating layer norm1
I0602 14:20:01.150930  1854 net.cpp:86] Creating Layer norm1
I0602 14:20:01.150934  1854 net.cpp:408] norm1 <- pool1
I0602 14:20:01.150938  1854 net.cpp:382] norm1 -> norm1
I0602 14:20:01.150966  1854 net.cpp:124] Setting up norm1
I0602 14:20:01.150972  1854 net.cpp:131] Top shape: 256 96 15 15 (5529600)
I0602 14:20:01.150975  1854 net.cpp:139] Memory required for data: 224330752
I0602 14:20:01.150979  1854 layer_factory.hpp:77] Creating layer conv2
I0602 14:20:01.150986  1854 net.cpp:86] Creating Layer conv2
I0602 14:20:01.150990  1854 net.cpp:408] conv2 <- norm1
I0602 14:20:01.150995  1854 net.cpp:382] conv2 -> conv2
I0602 14:20:01.152520  1854 net.cpp:124] Setting up conv2
I0602 14:20:01.152534  1854 net.cpp:131] Top shape: 256 32 15 15 (1843200)
I0602 14:20:01.152537  1854 net.cpp:139] Memory required for data: 231703552
I0602 14:20:01.152545  1854 layer_factory.hpp:77] Creating layer relu2
I0602 14:20:01.152551  1854 net.cpp:86] Creating Layer relu2
I0602 14:20:01.152555  1854 net.cpp:408] relu2 <- conv2
I0602 14:20:01.152560  1854 net.cpp:369] relu2 -> conv2 (in-place)
I0602 14:20:01.152566  1854 net.cpp:124] Setting up relu2
I0602 14:20:01.152571  1854 net.cpp:131] Top shape: 256 32 15 15 (1843200)
I0602 14:20:01.152575  1854 net.cpp:139] Memory required for data: 239076352
I0602 14:20:01.152577  1854 layer_factory.hpp:77] Creating layer pool2
I0602 14:20:01.152582  1854 net.cpp:86] Creating Layer pool2
I0602 14:20:01.152585  1854 net.cpp:408] pool2 <- conv2
I0602 14:20:01.152590  1854 net.cpp:382] pool2 -> pool2
I0602 14:20:01.152619  1854 net.cpp:124] Setting up pool2
I0602 14:20:01.152632  1854 net.cpp:131] Top shape: 256 32 7 7 (401408)
I0602 14:20:01.152636  1854 net.cpp:139] Memory required for data: 240681984
I0602 14:20:01.152639  1854 layer_factory.hpp:77] Creating layer norm2
I0602 14:20:01.152645  1854 net.cpp:86] Creating Layer norm2
I0602 14:20:01.152649  1854 net.cpp:408] norm2 <- pool2
I0602 14:20:01.152654  1854 net.cpp:382] norm2 -> norm2
I0602 14:20:01.152679  1854 net.cpp:124] Setting up norm2
I0602 14:20:01.152685  1854 net.cpp:131] Top shape: 256 32 7 7 (401408)
I0602 14:20:01.152688  1854 net.cpp:139] Memory required for data: 242287616
I0602 14:20:01.152691  1854 layer_factory.hpp:77] Creating layer conv3
I0602 14:20:01.152699  1854 net.cpp:86] Creating Layer conv3
I0602 14:20:01.152703  1854 net.cpp:408] conv3 <- norm2
I0602 14:20:01.152707  1854 net.cpp:382] conv3 -> conv3
I0602 14:20:01.153717  1854 net.cpp:124] Setting up conv3
I0602 14:20:01.153734  1854 net.cpp:131] Top shape: 256 48 7 7 (602112)
I0602 14:20:01.153738  1854 net.cpp:139] Memory required for data: 244696064
I0602 14:20:01.153745  1854 layer_factory.hpp:77] Creating layer relu3
I0602 14:20:01.153751  1854 net.cpp:86] Creating Layer relu3
I0602 14:20:01.153756  1854 net.cpp:408] relu3 <- conv3
I0602 14:20:01.153760  1854 net.cpp:369] relu3 -> conv3 (in-place)
I0602 14:20:01.153766  1854 net.cpp:124] Setting up relu3
I0602 14:20:01.153770  1854 net.cpp:131] Top shape: 256 48 7 7 (602112)
I0602 14:20:01.153774  1854 net.cpp:139] Memory required for data: 247104512
I0602 14:20:01.153777  1854 layer_factory.hpp:77] Creating layer conv4
I0602 14:20:01.153784  1854 net.cpp:86] Creating Layer conv4
I0602 14:20:01.153787  1854 net.cpp:408] conv4 <- conv3
I0602 14:20:01.153794  1854 net.cpp:382] conv4 -> conv4
I0602 14:20:01.154044  1854 net.cpp:124] Setting up conv4
I0602 14:20:01.154052  1854 net.cpp:131] Top shape: 256 48 7 7 (602112)
I0602 14:20:01.154057  1854 net.cpp:139] Memory required for data: 249512960
I0602 14:20:01.154069  1854 layer_factory.hpp:77] Creating layer relu4
I0602 14:20:01.154074  1854 net.cpp:86] Creating Layer relu4
I0602 14:20:01.154078  1854 net.cpp:408] relu4 <- conv4
I0602 14:20:01.154083  1854 net.cpp:369] relu4 -> conv4 (in-place)
I0602 14:20:01.154098  1854 net.cpp:124] Setting up relu4
I0602 14:20:01.154101  1854 net.cpp:131] Top shape: 256 48 7 7 (602112)
I0602 14:20:01.154110  1854 net.cpp:139] Memory required for data: 251921408
I0602 14:20:01.154114  1854 layer_factory.hpp:77] Creating layer conv5
I0602 14:20:01.154120  1854 net.cpp:86] Creating Layer conv5
I0602 14:20:01.154129  1854 net.cpp:408] conv5 <- conv4
I0602 14:20:01.154134  1854 net.cpp:382] conv5 -> conv5
I0602 14:20:01.154355  1854 net.cpp:124] Setting up conv5
I0602 14:20:01.154362  1854 net.cpp:131] Top shape: 256 32 7 7 (401408)
I0602 14:20:01.154366  1854 net.cpp:139] Memory required for data: 253527040
I0602 14:20:01.154372  1854 layer_factory.hpp:77] Creating layer relu5
I0602 14:20:01.154377  1854 net.cpp:86] Creating Layer relu5
I0602 14:20:01.154381  1854 net.cpp:408] relu5 <- conv5
I0602 14:20:01.154386  1854 net.cpp:369] relu5 -> conv5 (in-place)
I0602 14:20:01.154391  1854 net.cpp:124] Setting up relu5
I0602 14:20:01.154394  1854 net.cpp:131] Top shape: 256 32 7 7 (401408)
I0602 14:20:01.154398  1854 net.cpp:139] Memory required for data: 255132672
I0602 14:20:01.154402  1854 layer_factory.hpp:77] Creating layer pool5
I0602 14:20:01.154405  1854 net.cpp:86] Creating Layer pool5
I0602 14:20:01.154408  1854 net.cpp:408] pool5 <- conv5
I0602 14:20:01.154413  1854 net.cpp:382] pool5 -> pool5
I0602 14:20:01.154440  1854 net.cpp:124] Setting up pool5
I0602 14:20:01.154446  1854 net.cpp:131] Top shape: 256 32 3 3 (73728)
I0602 14:20:01.154449  1854 net.cpp:139] Memory required for data: 255427584
I0602 14:20:01.154453  1854 layer_factory.hpp:77] Creating layer fc6
I0602 14:20:01.154461  1854 net.cpp:86] Creating Layer fc6
I0602 14:20:01.154465  1854 net.cpp:408] fc6 <- pool5
I0602 14:20:01.154470  1854 net.cpp:382] fc6 -> fc6
I0602 14:20:01.157897  1854 net.cpp:124] Setting up fc6
I0602 14:20:01.157910  1854 net.cpp:131] Top shape: 256 1024 (262144)
I0602 14:20:01.157913  1854 net.cpp:139] Memory required for data: 256476160
I0602 14:20:01.157919  1854 layer_factory.hpp:77] Creating layer relu6
I0602 14:20:01.157925  1854 net.cpp:86] Creating Layer relu6
I0602 14:20:01.157929  1854 net.cpp:408] relu6 <- fc6
I0602 14:20:01.157934  1854 net.cpp:369] relu6 -> fc6 (in-place)
I0602 14:20:01.157939  1854 net.cpp:124] Setting up relu6
I0602 14:20:01.157944  1854 net.cpp:131] Top shape: 256 1024 (262144)
I0602 14:20:01.157948  1854 net.cpp:139] Memory required for data: 257524736
I0602 14:20:01.157950  1854 layer_factory.hpp:77] Creating layer drop6
I0602 14:20:01.157955  1854 net.cpp:86] Creating Layer drop6
I0602 14:20:01.157959  1854 net.cpp:408] drop6 <- fc6
I0602 14:20:01.157963  1854 net.cpp:369] drop6 -> fc6 (in-place)
I0602 14:20:01.157979  1854 net.cpp:124] Setting up drop6
I0602 14:20:01.157984  1854 net.cpp:131] Top shape: 256 1024 (262144)
I0602 14:20:01.157989  1854 net.cpp:139] Memory required for data: 258573312
I0602 14:20:01.157991  1854 layer_factory.hpp:77] Creating layer fc7
I0602 14:20:01.157996  1854 net.cpp:86] Creating Layer fc7
I0602 14:20:01.158000  1854 net.cpp:408] fc7 <- fc6
I0602 14:20:01.158005  1854 net.cpp:382] fc7 -> fc7
I0602 14:20:01.168524  1854 net.cpp:124] Setting up fc7
I0602 14:20:01.168542  1854 net.cpp:131] Top shape: 256 1024 (262144)
I0602 14:20:01.168546  1854 net.cpp:139] Memory required for data: 259621888
I0602 14:20:01.168553  1854 layer_factory.hpp:77] Creating layer relu7
I0602 14:20:01.168560  1854 net.cpp:86] Creating Layer relu7
I0602 14:20:01.168565  1854 net.cpp:408] relu7 <- fc7
I0602 14:20:01.168570  1854 net.cpp:369] relu7 -> fc7 (in-place)
I0602 14:20:01.168576  1854 net.cpp:124] Setting up relu7
I0602 14:20:01.168581  1854 net.cpp:131] Top shape: 256 1024 (262144)
I0602 14:20:01.168583  1854 net.cpp:139] Memory required for data: 260670464
I0602 14:20:01.168586  1854 layer_factory.hpp:77] Creating layer drop7
I0602 14:20:01.168592  1854 net.cpp:86] Creating Layer drop7
I0602 14:20:01.168596  1854 net.cpp:408] drop7 <- fc7
I0602 14:20:01.168599  1854 net.cpp:369] drop7 -> fc7 (in-place)
I0602 14:20:01.168622  1854 net.cpp:124] Setting up drop7
I0602 14:20:01.168633  1854 net.cpp:131] Top shape: 256 1024 (262144)
I0602 14:20:01.168644  1854 net.cpp:139] Memory required for data: 261719040
I0602 14:20:01.168648  1854 layer_factory.hpp:77] Creating layer fc8
I0602 14:20:01.168653  1854 net.cpp:86] Creating Layer fc8
I0602 14:20:01.168658  1854 net.cpp:408] fc8 <- fc7
I0602 14:20:01.168668  1854 net.cpp:382] fc8 -> fc8
I0602 14:20:01.168833  1854 net.cpp:124] Setting up fc8
I0602 14:20:01.168838  1854 net.cpp:131] Top shape: 256 10 (2560)
I0602 14:20:01.168843  1854 net.cpp:139] Memory required for data: 261729280
I0602 14:20:01.168848  1854 layer_factory.hpp:77] Creating layer loss
I0602 14:20:01.168853  1854 net.cpp:86] Creating Layer loss
I0602 14:20:01.168856  1854 net.cpp:408] loss <- fc8
I0602 14:20:01.168861  1854 net.cpp:408] loss <- label
I0602 14:20:01.168867  1854 net.cpp:382] loss -> loss
I0602 14:20:01.168875  1854 layer_factory.hpp:77] Creating layer loss
…
I0602 14:20:01.169447  1854 net.cpp:296] The NetState phase (1) differed from the phase (0) specified by a rule in layer data
I0602 14:20:01.169595  1854 net.cpp:53] Initializing net from parameters: 
name: "CaffeNet"
state {
  phase: TEST
}
layer {
  name: "data"
  type: "Data"
  top: "data"
  top: "label"
  include {
    phase: TEST
  }
  transform_param {
    mirror: false
    crop_size: 32
    mean_file: "/home/wanli/cifar10/mean.binaryproto"
  }
  data_param {
    source: "/home/wanli/cifar10/cifar10_test_lmdb"
    batch_size: 50
    backend: LMDB
  }
}
layer {
  name: "conv1"
  type: "Convolution"
  bottom: "data"
  top: "conv1"
  param {
    lr_mult: 1
    decay_mult: 1
  }
  param {
    lr_mult: 2
    decay_mult: 0
  }
  convolution_param {
    num_output: 96
    kernel_size: 3
    stride: 1
    weight_filler {
      type: "gaussian"
      std: 0.01
    }
    bias_filler {
      type: "constant"
      value: 0
    }
  }
}
layer {
  name: "relu1"
  type: "ReLU"
  bottom: "conv1"
  top: "conv1"
}
layer {
  name: "pool1"
  type: "Pooling"
  bottom: "conv1"
  top: "pool1"
  pooling_param {
    pool: MAX
    kernel_size: 3
    stride: 2
  }
}
layer {
  name: "norm1"
  type: "LRN"
  bottom: "pool1"
  top: "norm1"
  lrn_param {
    local_size: 5
    alpha: 0.0001
    beta: 0.75
  }
}
layer {
  name: "conv2"
  type: "Convolution"
  bottom: "norm1"
  top: "conv2"
  param {
    lr_mult: 1
    decay_mult: 1
  }
  param {
    lr_mult: 2
    decay_mult: 0
  }
  convolution_param {
    num_output: 32
    pad: 2
    kernel_size: 5
    group: 2
    weight_filler {
      type: "gaussian"
      std: 0.01
    }
    bias_filler {
      type: "constant"
      value: 1
    }
  }
}
layer {
  name: "relu2"
  type: "ReLU"
  bottom: "conv2"
  top: "conv2"
}
layer {
  name: "pool2"
  type: "Pooling"
  bottom: "conv2"
  top: "pool2"
  pooling_param {
    pool: MAX
    kernel_size: 3
    stride: 2
  }
}
layer {
  name: "norm2"
  type: "LRN"
  bottom: "pool2"
  top: "norm2"
  lrn_param {
    local_size: 5
    alpha: 0.0001
    beta: 0.75
  }
}
layer {
  name: "conv3"
  type: "Convolution"
  bottom: "norm2"
  top: "conv3"
  param {
    lr_mult: 1
    decay_mult: 1
  }
  param {
    lr_mult: 2
    decay_mult: 0
  }
  convolution_param {
    num_output: 48
    pad: 1
    kernel_size: 3
    weight_filler {
      type: "gaussian"
      std: 0.01
    }
    bias_filler {
      type: "constant"
      value: 0
    }
  }
}
layer {
  name: "relu3"
  type: "ReLU"
  bottom: "conv3"
  top: "conv3"
}
layer {
  name: "conv4"
  type: "Convolution"
  bottom: "conv3"
  top: "conv4"
  param {
    lr_mult: 1
    decay_mult: 1
  }
  param {
    lr_mult: 2
    decay_mult: 0
  }
  convolution_param {
    num_output: 48
    pad: 1
    kernel_size: 3
    group: 2
    weight_filler {
      type: "gaussian"
      std: 0.01
    }
    bias_filler {
      type: "constant"
      value: 1
    }
  }
}
layer {
  name: "relu4"
  type: "ReLU"
  bottom: "conv4"
  top: "conv4"
}
layer {
  name: "conv5"
  type: "Convolution"
  bottom: "conv4"
  top: "conv5"
  param {
    lr_mult: 1
    decay_mult: 1
  }
  param {
    lr_mult: 2
    decay_mult: 0
  }
  convolution_param {
    num_output: 32
    pad: 1
    kernel_size: 3
    group: 2
    weight_filler {
      type: "gaussian"
      std: 0.01
    }
    bias_filler {
      type: "constant"
      value: 1
    }
  }
}
layer {
  name: "relu5"
  type: "ReLU"
  bottom: "conv5"
  top: "conv5"
}
layer {
  name: "pool5"
  type: "Pooling"
  bottom: "conv5"
  top: "pool5"
  pooling_param {
    pool: MAX
    kernel_size: 3
    stride: 2
  }
}
layer {
  name: "fc6"
  type: "InnerProduct"
  bottom: "pool5"
  top: "fc6"
  param {
    lr_mult: 1
    decay_mult: 1
  }
  param {
    lr_mult: 2
    decay_mult: 0
  }
  inner_product_param {
    num_output: 1024
    weight_filler {
      type: "gaussian"
      std: 0.005
    }
    bias_filler {
      type: "constant"
      value: 1
    }
  }
}
layer {
  name: "relu6"
  type: "ReLU"
  bottom: "fc6"
  top: "fc6"
}
layer {
  name: "drop6"
  type: "Dropout"
  bottom: "fc6"
  top: "fc6"
  dropout_param {
    dropout_ratio: 0.5
  }
}
layer {
  name: "fc7"
  type: "InnerProduct"
  bottom: "fc6"
  top: "fc7"
  param {
    lr_mult: 1
    decay_mult: 1
  }
  param {
    lr_mult: 2
    decay_mult: 0
  }
  inner_product_param {
    num_output: 1024
    weight_filler {
      type: "gaussian"
      std: 0.005
    }
    bias_filler {
      type: "constant"
      value: 1
    }
  }
}
layer {
  name: "relu7"
  type: "ReLU"
  bottom: "fc7"
  top: "fc7"
}
layer {
  name: "drop7"
  type: "Dropout"
  bottom: "fc7"
  top: "fc7"
  dropout_param {
    dropout_ratio: 0.5
  }
}
layer {
  name: "fc8"
  type: "InnerProduct"
  bottom: "fc7"
  top: "fc8"
  param {
    lr_mult: 1
    decay_mult: 1
  }
  param {
    lr_mult: 2
    decay_mult: 0
  }
  inner_product_param {
    num_output: 10
    weight_filler {
      type: "gaussian"
      std: 0.01
    }
    bias_filler {
      type: "constant"
      value: 0
    }
  }
}
layer {
  name: "accuracy"
  type: "Accuracy"
  bottom: "fc8"
  bottom: "label"
  top: "accuracy"
  include {
    phase: TEST
  }
}
layer {
  name: "loss"
  type: "SoftmaxWithLoss"
  bottom: "fc8"
  bottom: "label"
  top: "loss"
}
I0602 14:20:01.169685  1854 layer_factory.hpp:77] Creating layer data
I0602 14:20:01.169735  1854 db_lmdb.cpp:35] Opened lmdb /home/wanli/cifar10/cifar10_test_lmdb
I0602 14:20:01.169750  1854 net.cpp:86] Creating Layer data
I0602 14:20:01.169756  1854 net.cpp:382] data -> data
I0602 14:20:01.169764  1854 net.cpp:382] data -> label
I0602 14:20:01.169771  1854 data_transformer.cpp:25] Loading mean file from: /home/wanli/cifar10/mean.binaryproto
I0602 14:20:01.169888  1854 data_layer.cpp:45] output data size: 50,3,32,32
I0602 14:20:01.171519  1854 net.cpp:124] Setting up data
I0602 14:20:01.171548  1854 net.cpp:131] Top shape: 50 3 32 32 (153600)
I0602 14:20:01.171553  1854 net.cpp:131] Top shape: 50 (50)
I0602 14:20:01.171556  1854 net.cpp:139] Memory required for data: 614600
I0602 14:20:01.171561  1854 layer_factory.hpp:77] Creating layer label_data_1_split
I0602 14:20:01.171569  1854 net.cpp:86] Creating Layer label_data_1_split
I0602 14:20:01.171573  1854 net.cpp:408] label_data_1_split <- label
I0602 14:20:01.171578  1854 net.cpp:382] label_data_1_split -> label_data_1_split_0
I0602 14:20:01.171586  1854 net.cpp:382] label_data_1_split -> label_data_1_split_1
I0602 14:20:01.171627  1854 net.cpp:124] Setting up label_data_1_split
I0602 14:20:01.171633  1854 net.cpp:131] Top shape: 50 (50)
I0602 14:20:01.171636  1854 net.cpp:131] Top shape: 50 (50)
I0602 14:20:01.171639  1854 net.cpp:139] Memory required for data: 615000
I0602 14:20:01.171643  1854 layer_factory.hpp:77] Creating layer conv1
I0602 14:20:01.171653  1854 net.cpp:86] Creating Layer conv1
I0602 14:20:01.171656  1854 net.cpp:408] conv1 <- data
I0602 14:20:01.171663  1854 net.cpp:382] conv1 -> conv1
I0602 14:20:01.171947  1854 net.cpp:124] Setting up conv1
I0602 14:20:01.171955  1854 net.cpp:131] Top shape: 50 96 30 30 (4320000)
I0602 14:20:01.171959  1854 net.cpp:139] Memory required for data: 17895000
I0602 14:20:01.171968  1854 layer_factory.hpp:77] Creating layer relu1
I0602 14:20:01.171974  1854 net.cpp:86] Creating Layer relu1
I0602 14:20:01.171978  1854 net.cpp:408] relu1 <- conv1
I0602 14:20:01.171983  1854 net.cpp:369] relu1 -> conv1 (in-place)
I0602 14:20:01.171988  1854 net.cpp:124] Setting up relu1
I0602 14:20:01.171993  1854 net.cpp:131] Top shape: 50 96 30 30 (4320000)
I0602 14:20:01.171996  1854 net.cpp:139] Memory required for data: 35175000
I0602 14:20:01.171999  1854 layer_factory.hpp:77] Creating layer pool1
I0602 14:20:01.172005  1854 net.cpp:86] Creating Layer pool1
I0602 14:20:01.172008  1854 net.cpp:408] pool1 <- conv1
I0602 14:20:01.172013  1854 net.cpp:382] pool1 -> pool1
I0602 14:20:01.172049  1854 net.cpp:124] Setting up pool1
I0602 14:20:01.172055  1854 net.cpp:131] Top shape: 50 96 15 15 (1080000)
I0602 14:20:01.172060  1854 net.cpp:139] Memory required for data: 39495000
I0602 14:20:01.172062  1854 layer_factory.hpp:77] Creating layer norm1
I0602 14:20:01.172068  1854 net.cpp:86] Creating Layer norm1
I0602 14:20:01.172073  1854 net.cpp:408] norm1 <- pool1
I0602 14:20:01.172078  1854 net.cpp:382] norm1 -> norm1
I0602 14:20:01.172582  1854 net.cpp:124] Setting up norm1
I0602 14:20:01.172590  1854 net.cpp:131] Top shape: 50 96 15 15 (1080000)
I0602 14:20:01.172593  1854 net.cpp:139] Memory required for data: 43815000
I0602 14:20:01.172596  1854 layer_factory.hpp:77] Creating layer conv2
I0602 14:20:01.172605  1854 net.cpp:86] Creating Layer conv2
I0602 14:20:01.172612  1854 net.cpp:408] conv2 <- norm1
I0602 14:20:01.172623  1854 net.cpp:382] conv2 -> conv2
I0602 14:20:01.173220  1854 net.cpp:124] Setting up conv2
I0602 14:20:01.173229  1854 net.cpp:131] Top shape: 50 32 15 15 (360000)
I0602 14:20:01.173233  1854 net.cpp:139] Memory required for data: 45255000
I0602 14:20:01.173241  1854 layer_factory.hpp:77] Creating layer relu2
I0602 14:20:01.173246  1854 net.cpp:86] Creating Layer relu2
I0602 14:20:01.173252  1854 net.cpp:408] relu2 <- conv2
I0602 14:20:01.173257  1854 net.cpp:369] relu2 -> conv2 (in-place)
I0602 14:20:01.173264  1854 net.cpp:124] Setting up relu2
I0602 14:20:01.173274  1854 net.cpp:131] Top shape: 50 32 15 15 (360000)
I0602 14:20:01.173276  1854 net.cpp:139] Memory required for data: 46695000
I0602 14:20:01.173280  1854 layer_factory.hpp:77] Creating layer pool2
I0602 14:20:01.173286  1854 net.cpp:86] Creating Layer pool2
I0602 14:20:01.173290  1854 net.cpp:408] pool2 <- conv2
I0602 14:20:01.173295  1854 net.cpp:382] pool2 -> pool2
I0602 14:20:01.173400  1854 net.cpp:124] Setting up pool2
I0602 14:20:01.173408  1854 net.cpp:131] Top shape: 50 32 7 7 (78400)
I0602 14:20:01.173411  1854 net.cpp:139] Memory required for data: 47008600
I0602 14:20:01.173420  1854 layer_factory.hpp:77] Creating layer norm2
I0602 14:20:01.173430  1854 net.cpp:86] Creating Layer norm2
I0602 14:20:01.173435  1854 net.cpp:408] norm2 <- pool2
I0602 14:20:01.173439  1854 net.cpp:382] norm2 -> norm2
I0602 14:20:01.173475  1854 net.cpp:124] Setting up norm2
I0602 14:20:01.173485  1854 net.cpp:131] Top shape: 50 32 7 7 (78400)
I0602 14:20:01.173496  1854 net.cpp:139] Memory required for data: 47322200
I0602 14:20:01.173499  1854 layer_factory.hpp:77] Creating layer conv3
I0602 14:20:01.173507  1854 net.cpp:86] Creating Layer conv3
I0602 14:20:01.173511  1854 net.cpp:408] conv3 <- norm2
I0602 14:20:01.173517  1854 net.cpp:382] conv3 -> conv3
I0602 14:20:01.173825  1854 net.cpp:124] Setting up conv3
I0602 14:20:01.173835  1854 net.cpp:131] Top shape: 50 48 7 7 (117600)
I0602 14:20:01.173837  1854 net.cpp:139] Memory required for data: 47792600
I0602 14:20:01.173856  1854 layer_factory.hpp:77] Creating layer relu3
I0602 14:20:01.173861  1854 net.cpp:86] Creating Layer relu3
I0602 14:20:01.173866  1854 net.cpp:408] relu3 <- conv3
I0602 14:20:01.173874  1854 net.cpp:369] relu3 -> conv3 (in-place)
I0602 14:20:01.173880  1854 net.cpp:124] Setting up relu3
I0602 14:20:01.173885  1854 net.cpp:131] Top shape: 50 48 7 7 (117600)
I0602 14:20:01.173889  1854 net.cpp:139] Memory required for data: 48263000
I0602 14:20:01.173892  1854 layer_factory.hpp:77] Creating layer conv4
I0602 14:20:01.173899  1854 net.cpp:86] Creating Layer conv4
I0602 14:20:01.173903  1854 net.cpp:408] conv4 <- conv3
I0602 14:20:01.173908  1854 net.cpp:382] conv4 -> conv4
I0602 14:20:01.174181  1854 net.cpp:124] Setting up conv4
I0602 14:20:01.174190  1854 net.cpp:131] Top shape: 50 48 7 7 (117600)
I0602 14:20:01.174193  1854 net.cpp:139] Memory required for data: 48733400
I0602 14:20:01.174199  1854 layer_factory.hpp:77] Creating layer relu4
I0602 14:20:01.174203  1854 net.cpp:86] Creating Layer relu4
I0602 14:20:01.174207  1854 net.cpp:408] relu4 <- conv4
I0602 14:20:01.174212  1854 net.cpp:369] relu4 -> conv4 (in-place)
I0602 14:20:01.174223  1854 net.cpp:124] Setting up relu4
I0602 14:20:01.174227  1854 net.cpp:131] Top shape: 50 48 7 7 (117600)
I0602 14:20:01.174232  1854 net.cpp:139] Memory required for data: 49203800
I0602 14:20:01.174235  1854 layer_factory.hpp:77] Creating layer conv5
I0602 14:20:01.174242  1854 net.cpp:86] Creating Layer conv5
I0602 14:20:01.174245  1854 net.cpp:408] conv5 <- conv4
I0602 14:20:01.174260  1854 net.cpp:382] conv5 -> conv5
I0602 14:20:01.174496  1854 net.cpp:124] Setting up conv5
I0602 14:20:01.174530  1854 net.cpp:131] Top shape: 50 32 7 7 (78400)
I0602 14:20:01.174536  1854 net.cpp:139] Memory required for data: 49517400
I0602 14:20:01.174546  1854 layer_factory.hpp:77] Creating layer relu5
I0602 14:20:01.174551  1854 net.cpp:86] Creating Layer relu5
I0602 14:20:01.174554  1854 net.cpp:408] relu5 <- conv5
I0602 14:20:01.174571  1854 net.cpp:369] relu5 -> conv5 (in-place)
I0602 14:20:01.174582  1854 net.cpp:124] Setting up relu5
I0602 14:20:01.174587  1854 net.cpp:131] Top shape: 50 32 7 7 (78400)
I0602 14:20:01.174590  1854 net.cpp:139] Memory required for data: 49831000
I0602 14:20:01.174594  1854 layer_factory.hpp:77] Creating layer pool5
I0602 14:20:01.174600  1854 net.cpp:86] Creating Layer pool5
I0602 14:20:01.174604  1854 net.cpp:408] pool5 <- conv5
I0602 14:20:01.174609  1854 net.cpp:382] pool5 -> pool5
I0602 14:20:01.174641  1854 net.cpp:124] Setting up pool5
I0602 14:20:01.174649  1854 net.cpp:131] Top shape: 50 32 3 3 (14400)
I0602 14:20:01.174651  1854 net.cpp:139] Memory required for data: 49888600
I0602 14:20:01.174655  1854 layer_factory.hpp:77] Creating layer fc6
I0602 14:20:01.174662  1854 net.cpp:86] Creating Layer fc6
I0602 14:20:01.174666  1854 net.cpp:408] fc6 <- pool5
I0602 14:20:01.174672  1854 net.cpp:382] fc6 -> fc6
I0602 14:20:01.178252  1854 net.cpp:124] Setting up fc6
I0602 14:20:01.178266  1854 net.cpp:131] Top shape: 50 1024 (51200)
I0602 14:20:01.178268  1854 net.cpp:139] Memory required for data: 50093400
I0602 14:20:01.178275  1854 layer_factory.hpp:77] Creating layer relu6
I0602 14:20:01.178282  1854 net.cpp:86] Creating Layer relu6
I0602 14:20:01.178285  1854 net.cpp:408] relu6 <- fc6
I0602 14:20:01.178292  1854 net.cpp:369] relu6 -> fc6 (in-place)
I0602 14:20:01.178297  1854 net.cpp:124] Setting up relu6
I0602 14:20:01.178302  1854 net.cpp:131] Top shape: 50 1024 (51200)
I0602 14:20:01.178304  1854 net.cpp:139] Memory required for data: 50298200
I0602 14:20:01.178308  1854 layer_factory.hpp:77] Creating layer drop6
I0602 14:20:01.178313  1854 net.cpp:86] Creating Layer drop6
I0602 14:20:01.178316  1854 net.cpp:408] drop6 <- fc6
I0602 14:20:01.178320  1854 net.cpp:369] drop6 -> fc6 (in-place)
I0602 14:20:01.178403  1854 net.cpp:124] Setting up drop6
I0602 14:20:01.178409  1854 net.cpp:131] Top shape: 50 1024 (51200)
I0602 14:20:01.178412  1854 net.cpp:139] Memory required for data: 50503000
I0602 14:20:01.178416  1854 layer_factory.hpp:77] Creating layer fc7
I0602 14:20:01.178422  1854 net.cpp:86] Creating Layer fc7
I0602 14:20:01.178426  1854 net.cpp:408] fc7 <- fc6
I0602 14:20:01.178431  1854 net.cpp:382] fc7 -> fc7
I0602 14:20:01.189465  1854 net.cpp:124] Setting up fc7
I0602 14:20:01.189479  1854 net.cpp:131] Top shape: 50 1024 (51200)
I0602 14:20:01.189482  1854 net.cpp:139] Memory required for data: 50707800
I0602 14:20:01.189488  1854 layer_factory.hpp:77] Creating layer relu7
I0602 14:20:01.189494  1854 net.cpp:86] Creating Layer relu7
I0602 14:20:01.189498  1854 net.cpp:408] relu7 <- fc7
I0602 14:20:01.189503  1854 net.cpp:369] relu7 -> fc7 (in-place)
I0602 14:20:01.189509  1854 net.cpp:124] Setting up relu7
I0602 14:20:01.189513  1854 net.cpp:131] Top shape: 50 1024 (51200)
I0602 14:20:01.189517  1854 net.cpp:139] Memory required for data: 50912600
I0602 14:20:01.189520  1854 layer_factory.hpp:77] Creating layer drop7
I0602 14:20:01.189524  1854 net.cpp:86] Creating Layer drop7
I0602 14:20:01.189528  1854 net.cpp:408] drop7 <- fc7
I0602 14:20:01.189532  1854 net.cpp:369] drop7 -> fc7 (in-place)
I0602 14:20:01.189550  1854 net.cpp:124] Setting up drop7
I0602 14:20:01.189555  1854 net.cpp:131] Top shape: 50 1024 (51200)
I0602 14:20:01.189558  1854 net.cpp:139] Memory required for data: 51117400
I0602 14:20:01.189561  1854 layer_factory.hpp:77] Creating layer fc8
I0602 14:20:01.189568  1854 net.cpp:86] Creating Layer fc8
I0602 14:20:01.189570  1854 net.cpp:408] fc8 <- fc7
I0602 14:20:01.189575  1854 net.cpp:382] fc8 -> fc8
I0602 14:20:01.189748  1854 net.cpp:124] Setting up fc8
I0602 14:20:01.189754  1854 net.cpp:131] Top shape: 50 10 (500)
I0602 14:20:01.189756  1854 net.cpp:139] Memory required for data: 51119400
I0602 14:20:01.189762  1854 layer_factory.hpp:77] Creating layer fc8_fc8_0_split
I0602 14:20:01.189767  1854 net.cpp:86] Creating Layer fc8_fc8_0_split
I0602 14:20:01.189771  1854 net.cpp:408] fc8_fc8_0_split <- fc8
I0602 14:20:01.189780  1854 net.cpp:382] fc8_fc8_0_split -> fc8_fc8_0_split_0
I0602 14:20:01.189792  1854 net.cpp:382] fc8_fc8_0_split -> fc8_fc8_0_split_1
I0602 14:20:01.189821  1854 net.cpp:124] Setting up fc8_fc8_0_split
I0602 14:20:01.189826  1854 net.cpp:131] Top shape: 50 10 (500)
I0602 14:20:01.189829  1854 net.cpp:131] Top shape: 50 10 (500)
I0602 14:20:01.189832  1854 net.cpp:139] Memory required for data: 51123400
I0602 14:20:01.189836  1854 layer_factory.hpp:77] Creating layer accuracy
I0602 14:20:01.189841  1854 net.cpp:86] Creating Layer accuracy
I0602 14:20:01.189844  1854 net.cpp:408] accuracy <- fc8_fc8_0_split_0
I0602 14:20:01.189849  1854 net.cpp:408] accuracy <- label_data_1_split_0
I0602 14:20:01.189854  1854 net.cpp:382] accuracy -> accuracy
…
