…
I0410 20:03:38.519197 25951 net.cpp:296] The NetState phase (0) differed from the phase (1) specified by a rule in layer loss3/top-5
I0410 20:03:38.521126 25951 net.cpp:53] Initializing net from parameters: 
name: "GoogleNet"
state {
  phase: TRAIN
  level: 0
  stage: ""
}
layer {
  name: "data"
  type: "Data"
  top: "data"
  top: "label"
  include {
    phase: TRAIN
  }
  transform_param {
    mirror: true
    crop_size: 224
    mean_file: "/home/jungmo/Documents/autonomous/caffe/db/mean.binaryproto"
  }
  data_param {
    source: "/home/jungmo/Documents/autonomous/caffe/db/train_imageData_lmDB"
    batch_size: 50
    backend: LMDB
  }
}
layer {
  name: "conv1/7x7_s2"
  type: "Convolution"
  bottom: "data"
  top: "conv1/7x7_s2"
  param {
    lr_mult: 1
    decay_mult: 1
  }
  param {
    lr_mult: 2
    decay_mult: 0
  }
  convolution_param {
    num_output: 64
    pad: 3
    kernel_size: 7
    stride: 2
    weight_filler {
      type: "xavier"
    }
    bias_filler {
      type: "constant"
      value: 0.2
    }
  }
}
layer {
  name: "conv1/relu_7x7"
  type: "ReLU"
  bottom: "conv1/7x7_s2"
  top: "conv1/7x7_s2"
}
layer {
  name: "pool1/3x3_s2"
  type: "Pooling"
  bottom: "conv1/7x7_s2"
  top: "pool1/3x3_s2"
  pooling_param {
    pool: MAX
    kernel_size: 3
    stride: 2
  }
}
layer {
  name: "pool1/norm1"
  type: "LRN"
  bottom: "pool1/3x3_s2"
  top: "pool1/norm1"
  lrn_param {
    local_size: 5
    alpha: 0.0001
    beta: 0.75
  }
}
layer {
  name: "conv2/3x3_reduce"
  type: "Convolution"
  bottom: "pool1/norm1"
  top: "conv2/3x3_reduce"
  param {
    lr_mult: 1
    decay_mult: 1
  }
  param {
    lr_mult: 2
    decay_mult: 0
  }
  convolution_param {
    num_output: 64
    kernel_size: 1
    weight_filler {
      type: "xavier"
    }
    bias_filler {
      type: "constant"
      value: 0.2
    }
  }
}
layer {
  name: "conv2/relu_3x3_reduce"
  type: "ReLU"
  bottom: "conv2/3x3_reduce"
  top: "conv2/3x3_reduce"
}
layer {
  name: "conv2/3x3"
  type: "Convolution"
  bottom: "conv2/3x3_reduce"
  top: "conv2/3x3"
  param {
    lr_mult: 1
    decay_mult: 1
  }
  param {
    lr_mult: 2
    decay_mult: 0
  }
  convolution_param {
    num_output: 192
    pad: 1
    kernel_size: 3
    weight_filler {
      type: "xavier"
    }
    bias_filler {
      type: "constant"
      value: 0.2
    }
  }
}
layer {
  name: "conv2/relu_3x3"
  type: "ReLU"
  bottom: "conv2/3x3"
  top: "conv2/3x3"
}
layer {
  name: "conv2/norm2"
  type: "LRN"
  bottom: "conv2/3x3"
  top: "conv2/norm2"
  lrn_param {
    local_size: 5
    alpha: 0.0001
    beta: 0.75
  }
}
layer {
  name: "pool2/3x3_s2"
  type: "Pooling"
  bottom: "conv2/norm2"
  top: "pool2/3x3_s2"
  pooling_param {
    pool: MAX
    kernel_size: 3
    stride: 2
  }
}
layer {
  name: "inception_3a/1x1"
  type: "Convolution"
  bottom: "pool2/3x3_s2"
  top: "inception_3a/1x1"
  param {
    lr_mult: 1
    decay_mult: 1
  }
  param {
    lr_mult: 2
    decay_mult: 0
  }
  convolution_param {
    num_output: 64
    kernel_size: 1
    weight_filler {
      type: "xavier"
    }
    bias_filler {
      type: "constant"
      value: 0.2
    }
  }
}
layer {
  name: "inception_3a/relu_1x1"
  type: "ReLU"
  bottom: "inception_3a/1x1"
  top: "inception_3a/1x1"
}
layer {
  name: "inception_3a/3x3_reduce"
  type: "Convolution"
  bottom: "pool2/3x3_s2"
  top: "inception_3a/3x3_reduce"
  param {
    lr_mult: 1
    decay_mult: 1
  }
  param {
    lr_mult: 2
    decay_mult: 0
  }
  convolution_param {
    num_output: 96
    kernel_size: 1
    weight_filler {
      type: "xavier"
    }
    bias_filler {
      type: "constant"
      value: 0.2
    }
  }
}
layer {
  name: "inception_3a/relu_3x3_reduce"
  type: "ReLU"
  bottom: "inception_3a/3x3_reduce"
  top: "inception_3a/3x3_reduce"
}
layer {
  name: "inception_3a/3x3"
  type: "Convolution"
  bottom: "inception_3a/3x3_reduce"
  top: "inception_3a/3x3"
  param {
    lr_mult: 1
    decay_mult: 1
  }
  param {
    lr_mult: 2
    decay_mult: 0
  }
  convolution_param {
    num_output: 128
    pad: 1
    kernel_size: 3
    weight_filler {
      type: "xavier"
    }
    bias_filler {
      type: "constant"
      value: 0.2
    }
  }
}
layer {
  name: "inception_3a/relu_3x3"
  type: "ReLU"
  bottom: "inception_3a/3x3"
  top: "inception_3a/3x3"
}
layer {
  name: "inception_3a/5x5_reduce"
  type: "Convolution"
  bottom: "pool2/3x3_s2"
  top: "inception_3a/5x5_reduce"
  param {
    lr_mult: 1
    decay_mult: 1
  }
  param {
    lr_mult: 2
    decay_mult: 0
  }
  convolution_param {
    num_output: 16
    kernel_size: 1
    weight_filler {
      type: "xavier"
    }
    bias_filler {
      type: "constant"
      value: 0.2
    }
  }
}
layer {
  name: "inception_3a/relu_5x5_reduce"
  type: "ReLU"
  bottom: "inception_3a/5x5_reduce"
  top: "inception_3a/5x5_reduce"
}
layer {
  name: "inception_3a/5x5"
  type: "Convolution"
  bottom: "inception_3a/5x5_reduce"
  top: "inception_3a/5x5"
  param {
    lr_mult: 1
    decay_mult: 1
  }
  param {
    lr_mult: 2
    decay_mult: 0
  }
  convolution_param {
    num_output: 32
    pad: 2
    kernel_size: 5
    weight_filler {
      type: "xavier"
    }
    bias_filler {
      type: "constant"
      value: 0.2
    }
  }
}
layer {
  name: "inception_3a/relu_5x5"
  type: "ReLU"
  bottom: "inception_3a/5x5"
  top: "inception_3a/5x5"
}
layer {
  name: "inception_3a/pool"
  type: "Pooling"
  bottom: "pool2/3x3_s2"
  top: "inception_3a/pool"
  pooling_param {
    pool: MAX
    kernel_size: 3
    stride: 1
    pad: 1
  }
}
layer {
  name: "inception_3a/pool_proj"
  type: "Convolution"
  bottom: "inception_3a/pool"
  top: "inception_3a/pool_proj"
  param {
    lr_mult: 1
    decay_mult: 1
  }
  param {
    lr_mult: 2
    decay_mult: 0
  }
  convolution_param {
    num_output: 32
    kernel_size: 1
    weight_filler {
      type: "xavier"
    }
    bias_filler {
      type: "constant"
      value: 0.2
    }
  }
}
layer {
  name: "inception_3a/relu_pool_proj"
  type: "ReLU"
  bottom: "inception_3a/pool_proj"
  top: "inception_3a/pool_proj"
}
layer {
  name: "inception_3a/output"
  type: "Concat"
  bottom: "inception_3a/1x1"
  bottom: "inception_3a/3x3"
  bottom: "inception_3a/5x5"
  bottom: "inception_3a/pool_proj"
  top: "inception_3a/output"
}
layer {
  name: "inception_3b/1x1"
  type: "Convolution"
  bottom: "inception_3a/output"
  top: "inception_3b/1x1"
  param {
    lr_mult: 1
    decay_mult: 1
  }
  param {
    lr_mult: 2
    decay_mult: 0
  }
  convolution_param {
    num_output: 128
    kernel_size: 1
    weight_filler {
      type: "xavier"
    }
    bias_filler {
      type: "constant"
      value: 0.2
    }
  }
}
layer {
  name: "inception_3b/relu_1x1"
  type: "ReLU"
  bottom: "inception_3b/1x1"
  top: "inception_3b/1x1"
}
layer {
  name: "inception_3b/3x3_reduce"
  type: "Convolution"
  bottom: "inception_3a/output"
  top: "inception_3b/3x3_reduce"
  param {
    lr_mult: 1
    decay_mult: 1
  }
  param {
    lr_mult: 2
    decay_mult: 0
  }
  convolution_param {
    num_output: 128
    kernel_size: 1
    weight_filler {
      type: "xavier"
    }
    bias_filler {
      type: "constant"
      value: 0.2
    }
  }
}
layer {
  name: "inception_3b/relu_3x3_reduce"
  type: "ReLU"
  bottom: "inception_3b/3x3_reduce"
  top: "inception_3b/3x3_reduce"
}
layer {
  name: "inception_3b/3x3"
  type: "Convolution"
  bottom: "inception_3b/3x3_reduce"
  top: "inception_3b/3x3"
  param {
    lr_mult: 1
    decay_mult: 1
  }
  param {
    lr_mult: 2
    decay_mult: 0
  }
  convolution_param {
    num_output: 192
    pad: 1
    kernel_size: 3
    weight_filler {
      type: "xavier"
    }
    bias_filler {
      type: "constant"
      value: 0.2
    }
  }
}
layer {
  name: "inception_3b/relu_3x3"
  type: "ReLU"
  bottom: "inception_3b/3x3"
  top: "inception_3b/3x3"
}
layer {
  name: "inception_3b/5x5_reduce"
  type: "Convolution"
  bottom: "inception_3a/output"
  top: "inception_3b/5x5_reduce"
  param {
    lr_mult: 1
    decay_mult: 1
  }
  param {
    lr_mult: 2
    decay_mult: 0
  }
  convolution_param {
    num_output: 32
    kernel_size: 1
    weight_filler {
      type: "xavier"
    }
    bias_filler {
      type: "constant"
      value: 0.2
    }
  }
}
layer {
  name: "inception_3b/relu_5x5_reduce"
  type: "ReLU"
  bottom: "inception_3b/5x5_reduce"
  top: "inception_3b/5x5_reduce"
}
layer {
  name: "inception_3b/5x5"
  type: "Convolution"
  bottom: "inception_3b/5x5_reduce"
  top: "inception_3b/5x5"
  param {
    lr_mult: 1
    decay_mult: 1
  }
  param {
    lr_mult: 2
    decay_mult: 0
  }
  convolution_param {
    num_output: 96
    pad: 2
    kernel_size: 5
    weight_filler {
      type: "xavier"
    }
    bias_filler {
      type: "constant"
      value: 0.2
    }
  }
}
layer {
  name: "inception_3b/relu_5x5"
  type: "ReLU"
  bottom: "inception_3b/5x5"
  top: "inception_3b/5x5"
}
layer {
  name: "inception_3b/pool"
  type: "Pooling"
  bottom: "inception_3a/output"
  top: "inception_3b/pool"
  pooling_param {
    pool: MAX
    kernel_size: 3
    stride: 1
    pad: 1
  }
}
layer {
  name: "inception_3b/pool_proj"
  type: "Convolution"
  bottom: "inception_3b/pool"
  top: "inception_3b/pool_proj"
  param {
    lr_mult: 1
    decay_mult: 1
  }
  param {
    lr_mult: 2
    decay_mult: 0
  }
  convolution_param {
    num_output: 64
    kernel_size: 1
    weight_filler {
      type: "xavier"
    }
    bias_filler {
      type: "constant"
      value: 0.2
    }
  }
}
layer {
  name: "inception_3b/relu_pool_proj"
  type: "ReLU"
  bottom: "inception_3b/pool_proj"
  top: "inception_3b/pool_proj"
}
layer {
  name: "inception_3b/output"
  type: "Concat"
  bottom: "inception_3b/1x1"
  bottom: "inception_3b/3x3"
  bottom: "inception_3b/5x5"
  bottom: "inception_3b/pool_proj"
  top: "inception_3b/output"
}
layer {
  name: "pool3/3x3_s2"
  type: "Pooling"
  bottom: "inception_3b/output"
  top: "pool3/3x3_s2"
  pooling_param {
    pool: MAX
    kernel_size: 3
    stride: 2
  }
}
layer {
  name: "inception_4a/1x1"
  type: "Convolution"
  bottom: "pool3/3x3_s2"
  top: "inception_4a/1x1"
  param {
    lr_mult: 1
    decay_mult: 1
  }
  param {
    lr_mult: 2
    decay_mult: 0
  }
  convolution_param {
    num_output: 192
    kernel_size: 1
    weight_filler {
      type: "xavier"
    }
    bias_filler {
      type: "constant"
      value: 0.2
    }
  }
}
layer {
  name: "inception_4a/relu_1x1"
  type: "ReLU"
  bottom: "inception_4a/1x1"
  top: "inception_4a/1x1"
}
layer {
  name: "inception_4a/3x3_reduce"
  type: "Convolution"
  bottom: "pool3/3x3_s2"
  top: "inception_4a/3x3_reduce"
  param {
    lr_mult: 1
    decay_mult: 1
  }
  param {
    lr_mult: 2
    decay_mult: 0
  }
  convolution_param {
    num_output: 96
    kernel_size: 1
    weight_filler {
      type: "xavier"
    }
    bias_filler {
      type: "constant"
      value: 0.2
    }
  }
}
layer {
  name: "inception_4a/relu_3x3_reduce"
  type: "ReLU"
  bottom: "inception_4a/3x3_reduce"
  top: "inception_4a/3x3_reduce"
}
layer {
  name: "inception_4a/3x3"
  type: "Convolution"
  bottom: "inception_4a/3x3_reduce"
  top: "inception_4a/3x3"
  param {
    lr_mult: 1
    decay_mult: 1
  }
  param {
    lr_mult: 2
    decay_mult: 0
  }
  convolution_param {
    num_output: 208
    pad: 1
    kernel_size: 3
    weight_filler {
      type: "xavier"
    }
    bias_filler {
      type: "constant"
      value: 0.2
    }
  }
}
layer {
  name: "inception_4a/relu_3x3"
  type: "ReLU"
  bottom: "inception_4a/3x3"
  top: "inception_4a/3x3"
}
layer {
  name: "inception_4a/5x5_reduce"
  type: "Convolution"
  bottom: "pool3/3x3_s2"
  top: "inception_4a/5x5_reduce"
  param {
    lr_mult: 1
    decay_mult: 1
  }
  param {
    lr_mult: 2
    decay_mult: 0
  }
  convolution_param {
    num_output: 16
    kernel_size: 1
    weight_filler {
      type: "xavier"
    }
    bias_filler {
      type: "constant"
      value: 0.2
    }
  }
}
layer {
  name: "inception_4a/relu_5x5_reduce"
  type: "ReLU"
  bottom: "inception_4a/5x5_reduce"
  top: "inception_4a/5x5_reduce"
}
layer {
  name: "inception_4a/5x5"
  type: "Convolution"
  bottom: "inception_4a/5x5_reduce"
  top: "inception_4a/5x5"
  param {
    lr_mult: 1
    decay_mult: 1
  }
  param {
    lr_mult: 2
    decay_mult: 0
  }
  convolution_param {
    num_output: 48
    pad: 2
    kernel_size: 5
    weight_filler {
      type: "xavier"
    }
    bias_filler {
      type: "constant"
      value: 0.2
    }
  }
}
layer {
  name: "inception_4a/relu_5x5"
  type: "ReLU"
  bottom: "inception_4a/5x5"
  top: "inception_4a/5x5"
}
layer {
  name: "inception_4a/pool"
  type: "Pooling"
  bottom: "pool3/3x3_s2"
  top: "inception_4a/pool"
  pooling_param {
    pool: MAX
    kernel_size: 3
    stride: 1
    pad: 1
  }
}
layer {
  name: "inception_4a/pool_proj"
  type: "Convolution"
  bottom: "inception_4a/pool"
  top: "inception_4a/pool_proj"
  param {
    lr_mult: 1
    decay_mult: 1
  }
  param {
    lr_mult: 2
    decay_mult: 0
  }
  convolution_param {
    num_output: 64
    kernel_size: 1
    weight_filler {
      type: "xavier"
    }
    bias_filler {
      type: "constant"
      value: 0.2
    }
  }
}
layer {
  name: "inception_4a/relu_pool_proj"
  type: "ReLU"
  bottom: "inception_4a/pool_proj"
  top: "inception_4a/pool_proj"
}
layer {
  name: "inception_4a/output"
  type: "Concat"
  bottom: "inception_4a/1x1"
  bottom: "inception_4a/3x3"
  bottom: "inception_4a/5x5"
  bottom: "inception_4a/pool_proj"
  top: "inception_4a/output"
}
layer {
  name: "loss1/ave_pool"
  type: "Pooling"
  bottom: "inception_4a/output"
  top: "loss1/ave_pool"
  pooling_param {
    pool: AVE
    kernel_size: 5
    stride: 3
  }
}
layer {
  name: "loss1/conv"
  type: "Convolution"
  bottom: "loss1/ave_pool"
  top: "loss1/conv"
  param {
    lr_mult: 1
    decay_mult: 1
  }
  param {
    lr_mult: 2
    decay_mult: 0
  }
  convolution_param {
    num_output: 128
    kernel_size: 1
    weight_filler {
      type: "xavier"
    }
    bias_filler {
      type: "constant"
      value: 0.2
    }
  }
}
layer {
  name: "loss1/relu_conv"
  type: "ReLU"
  bottom: "loss1/conv"
  top: "loss1/conv"
}
layer {
  name: "loss1/fc"
  type: "InnerProduct"
  bottom: "loss1/conv"
  top: "loss1/fc"
  param {
    lr_mult: 1
    decay_mult: 1
  }
  param {
    lr_mult: 2
    decay_mult: 0
  }
  inner_product_param {
    num_output: 1024
    weight_filler {
      type: "xavier"
    }
    bias_filler {
      type: "constant"
      value: 0.2
    }
  }
}
layer {
  name: "loss1/relu_fc"
  type: "ReLU"
  bottom: "loss1/fc"
  top: "loss1/fc"
}
layer {
  name: "loss1/drop_fc"
  type: "Dropout"
  bottom: "loss1/fc"
  top: "loss1/fc"
  dropout_param {
    dropout_ratio: 0.7
  }
}
layer {
  name: "loss1/classifier-bird"
  type: "InnerProduct"
  bottom: "loss1/fc"
  top: "loss1/classifier"
  param {
    lr_mult: 1
    decay_mult: 1
  }
  param {
    lr_mult: 2
    decay_mult: 0
  }
  inner_product_param {
    num_output: 4
    weight_filler {
      type: "xavier"
    }
    bias_filler {
      type: "constant"
      value: 0
    }
  }
}
layer {
  name: "loss1/loss"
  type: "SoftmaxWithLoss"
  bottom: "loss1/classifier"
  bottom: "label"
  top: "loss1/loss1"
  loss_weight: 0.3
}
layer {
  name: "inception_4b/1x1"
  type: "Convolution"
  bottom: "inception_4a/output"
  top: "inception_4b/1x1"
  param {
    lr_mult: 1
    decay_mult: 1
  }
  param {
    lr_mult: 2
    decay_mult: 0
  }
  convolution_param {
    num_output: 160
    kernel_size: 1
    weight_filler {
      type: "xavier"
    }
    bias_filler {
      type: "constant"
      value: 0.2
    }
  }
}
layer {
  name: "inception_4b/relu_1x1"
  type: "ReLU"
  bottom: "inception_4b/1x1"
  top: "inception_4b/1x1"
}
layer {
  name: "inception_4b/3x3_reduce"
  type: "Convolution"
  bottom: "inception_4a/output"
  top: "inception_4b/3x3_reduce"
  param {
    lr_mult: 1
    decay_mult: 1
  }
  param {
    lr_mult: 2
    decay_mult: 0
  }
  convolution_param {
    num_output: 112
    kernel_size: 1
    weight_filler {
      type: "xavier"
    }
    bias_filler {
      type: "constant"
      value: 0.2
    }
  }
}
layer {
  name: "inception_4b/relu_3x3_reduce"
  type: "ReLU"
  bottom: "inception_4b/3x3_reduce"
  top: "inception_4b/3x3_reduce"
}
layer {
  name: "inception_4b/3x3"
  type: "Convolution"
  bottom: "inception_4b/3x3_reduce"
  top: "inception_4b/3x3"
  param {
    lr_mult: 1
    decay_mult: 1
  }
  param {
    lr_mult: 2
    decay_mult: 0
  }
  convolution_param {
    num_output: 224
    pad: 1
    kernel_size: 3
    weight_filler {
      type: "xavier"
    }
    bias_filler {
      type: "constant"
      value: 0.2
    }
  }
}
layer {
  name: "inception_4b/relu_3x3"
  type: "ReLU"
  bottom: "inception_4b/3x3"
  top: "inception_4b/3x3"
}
layer {
  name: "inception_4b/5x5_reduce"
  type: "Convolution"
  bottom: "inception_4a/output"
  top: "inception_4b/5x5_reduce"
  param {
    lr_mult: 1
    decay_mult: 1
  }
  param {
    lr_mult: 2
    decay_mult: 0
  }
  convolution_param {
    num_output: 24
    kernel_size: 1
    weight_filler {
      type: "xavier"
    }
    bias_filler {
      type: "constant"
      value: 0.2
    }
  }
}
layer {
  name: "inception_4b/relu_5x5_reduce"
  type: "ReLU"
  bottom: "inception_4b/5x5_reduce"
  top: "inception_4b/5x5_reduce"
}
layer {
  name: "inception_4b/5x5"
  type: "Convolution"
  bottom: "inception_4b/5x5_reduce"
  top: "inception_4b/5x5"
  param {
    lr_mult: 1
    decay_mult: 1
  }
  param {
    lr_mult: 2
    decay_mult: 0
  }
  convolution_param {
    num_output: 64
    pad: 2
    kernel_size: 5
    weight_filler {
      type: "xavier"
    }
    bias_filler {
      type: "constant"
      value: 0.2
    }
  }
}
layer {
  name: "inception_4b/relu_5x5"
  type: "ReLU"
  bottom: "inception_4b/5x5"
  top: "inception_4b/5x5"
}
layer {
  name: "inception_4b/pool"
  type: "Pooling"
  bottom: "inception_4a/output"
  top: "inception_4b/pool"
  pooling_param {
    pool: MAX
    kernel_size: 3
    stride: 1
    pad: 1
  }
}
layer {
  name: "inception_4b/pool_proj"
  type: "Convolution"
  bottom: "inception_4b/pool"
  top: "inception_4b/pool_proj"
  param {
    lr_mult: 1
    decay_mult: 1
  }
  param {
    lr_mult: 2
    decay_mult: 0
  }
  convolution_param {
    num_output: 64
    kernel_size: 1
    weight_filler {
      type: "xavier"
    }
    bias_filler {
      type: "constant"
      value: 0.2
    }
  }
}
layer {
  name: "inception_4b/relu_pool_proj"
  type: "ReLU"
  bottom: "inception_4b/pool_proj"
  top: "inception_4b/pool_proj"
}
layer {
  name: "inception_4b/output"
  type: "Concat"
  bottom: "inception_4b/1x1"
  bottom: "inception_4b/3x3"
  bottom: "inception_4b/5x5"
  bottom: "inception_4b/pool_proj"
  top: "inception_4b/output"
}
layer {
  name: "inception_4c/1x1"
  type: "Convolution"
  bottom: "inception_4b/output"
  top: "inception_4c/1x1"
  param {
    lr_mult: 1
    decay_mult: 1
  }
  param {
    lr_mult: 2
    decay_mult: 0
  }
  convolution_param {
    num_output: 128
    kernel_size: 1
    weight_filler {
      type: "xavier"
    }
    bias_filler {
      type: "constant"
      value: 0.2
    }
  }
}
layer {
  name: "inception_4c/relu_1x1"
  type: "ReLU"
  bottom: "inception_4c/1x1"
  top: "inception_4c/1x1"
}
layer {
  name: "inception_4c/3x3_reduce"
  type: "Convolution"
  bottom: "inception_4b/output"
  top: "inception_4c/3x3_reduce"
  param {
    lr_mult: 1
    decay_mult: 1
  }
  param {
    lr_mult: 2
    decay_mult: 0
  }
  convolution_param {
    num_output: 128
    kernel_size: 1
    weight_filler {
      type: "xavier"
    }
    bias_filler {
      type: "constant"
      value: 0.2
    }
  }
}
layer {
  name: "inception_4c/relu_3x3_reduce"
  type: "ReLU"
  bottom: "inception_4c/3x3_reduce"
  top: "inception_4c/3x3_reduce"
}
layer {
  name: "inception_4c/3x3"
  type: "Convolution"
  bottom: "inception_4c/3x3_reduce"
  top: "inception_4c/3x3"
  param {
    lr_mult: 1
    decay_mult: 1
  }
  param {
    lr_mult: 2
    decay_mult: 0
  }
  convolution_param {
    num_output: 256
    pad: 1
    kernel_size: 3
    weight_filler {
      type: "xavier"
    }
    bias_filler {
      type: "constant"
      value: 0.2
    }
  }
}
layer {
  name: "inception_4c/relu_3x3"
  type: "ReLU"
  bottom: "inception_4c/3x3"
  top: "inception_4c/3x3"
}
layer {
  name: "inception_4c/5x5_reduce"
  type: "Convolution"
  bottom: "inception_4b/output"
  top: "inception_4c/5x5_reduce"
  param {
    lr_mult: 1
    decay_mult: 1
  }
  param {
    lr_mult: 2
    decay_mult: 0
  }
  convolution_param {
    num_output: 24
    kernel_size: 1
    weight_filler {
      type: "xavier"
    }
    bias_filler {
      type: "constant"
      value: 0.2
    }
  }
}
layer {
  name: "inception_4c/relu_5x5_reduce"
  type: "ReLU"
  bottom: "inception_4c/5x5_reduce"
  top: "inception_4c/5x5_reduce"
}
layer {
  name: "inception_4c/5x5"
  type: "Convolution"
  bottom: "inception_4c/5x5_reduce"
  top: "inception_4c/5x5"
  param {
    lr_mult: 1
    decay_mult: 1
  }
  param {
    lr_mult: 2
    decay_mult: 0
  }
  convolution_param {
    num_output: 64
    pad: 2
    kernel_size: 5
    weight_filler {
      type: "xavier"
    }
    bias_filler {
      type: "constant"
      value: 0.2
    }
  }
}
layer {
  name: "inception_4c/relu_5x5"
  type: "ReLU"
  bottom: "inception_4c/5x5"
  top: "inception_4c/5x5"
}
layer {
  name: "inception_4c/pool"
  type: "Pooling"
  bottom: "inception_4b/output"
  top: "inception_4c/pool"
  pooling_param {
    pool: MAX
    kernel_size: 3
    stride: 1
    pad: 1
  }
}
layer {
  name: "inception_4c/pool_proj"
  type: "Convolution"
  bottom: "inception_4c/pool"
  top: "inception_4c/pool_proj"
  param {
    lr_mult: 1
    decay_mult: 1
  }
  param {
    lr_mult: 2
    decay_mult: 0
  }
  convolution_param {
    num_output: 64
    kernel_size: 1
    weight_filler {
      type: "xavier"
    }
    bias_filler {
      type: "constant"
      value: 0.2
    }
  }
}
layer {
  name: "inception_4c/relu_pool_proj"
  type: "ReLU"
  bottom: "inception_4c/pool_proj"
  top: "inception_4c/pool_proj"
}
layer {
  name: "inception_4c/output"
  type: "Concat"
  bottom: "inception_4c/1x1"
  bottom: "inception_4c/3x3"
  bottom: "inception_4c/5x5"
  bottom: "inception_4c/pool_proj"
  top: "inception_4c/output"
}
layer {
  name: "inception_4d/1x1"
  type: "Convolution"
  bottom: "inception_4c/output"
  top: "inception_4d/1x1"
  param {
    lr_mult: 1
    decay_mult: 1
  }
  param {
    lr_mult: 2
    decay_mult: 0
  }
  convolution_param {
    num_output: 112
    kernel_size: 1
    weight_filler {
      type: "xavier"
    }
    bias_filler {
      type: "constant"
      value: 0.2
    }
  }
}
layer {
  name: "inception_4d/relu_1x1"
  type: "ReLU"
  bottom: "inception_4d/1x1"
  top: "inception_4d/1x1"
}
layer {
  name: "inception_4d/3x3_reduce"
  type: "Convolution"
  bottom: "inception_4c/output"
  top: "inception_4d/3x3_reduce"
  param {
    lr_mult: 1
    decay_mult: 1
  }
  param {
    lr_mult: 2
    decay_mult: 0
  }
  convolution_param {
    num_output: 144
    kernel_size: 1
    weight_filler {
      type: "xavier"
    }
    bias_filler {
      type: "constant"
      value: 0.2
    }
  }
}
layer {
  name: "inception_4d/relu_3x3_reduce"
  type: "ReLU"
  bottom: "inception_4d/3x3_reduce"
  top: "inception_4d/3x3_reduce"
}
layer {
  name: "inception_4d/3x3"
  type: "Convolution"
  bottom: "inception_4d/3x3_reduce"
  top: "inception_4d/3x3"
  param {
    lr_mult: 1
    decay_mult: 1
  }
  param {
    lr_mult: 2
    decay_mult: 0
  }
  convolution_param {
    num_output: 288
    pad: 1
    kernel_size: 3
    weight_filler {
      type: "xavier"
    }
    bias_filler {
      type: "constant"
      value: 0.2
    }
  }
}
layer {
  name: "inception_4d/relu_3x3"
  type: "ReLU"
  bottom: "inception_4d/3x3"
  top: "inception_4d/3x3"
}
layer {
  name: "inception_4d/5x5_reduce"
  type: "Convolution"
  bottom: "inception_4c/output"
  top: "inception_4d/5x5_reduce"
  param {
    lr_mult: 1
    decay_mult: 1
  }
  param {
    lr_mult: 2
    decay_mult: 0
  }
  convolution_param {
    num_output: 32
    kernel_size: 1
    weight_filler {
      type: "xavier"
    }
    bias_filler {
      type: "constant"
      value: 0.2
    }
  }
}
layer {
  name: "inception_4d/relu_5x5_reduce"
  type: "ReLU"
  bottom: "inception_4d/5x5_reduce"
  top: "inception_4d/5x5_reduce"
}
layer {
  name: "inception_4d/5x5"
  type: "Convolution"
  bottom: "inception_4d/5x5_reduce"
  top: "inception_4d/5x5"
  param {
    lr_mult: 1
    decay_mult: 1
  }
  param {
    lr_mult: 2
    decay_mult: 0
  }
  convolution_param {
    num_output: 64
    pad: 2
    kernel_size: 5
    weight_filler {
      type: "xavier"
    }
    bias_filler {
      type: "constant"
      value: 0.2
    }
  }
}
layer {
  name: "inception_4d/relu_5x5"
  type: "ReLU"
  bottom: "inception_4d/5x5"
  top: "inception_4d/5x5"
}
layer {
  name: "inception_4d/pool"
  type: "Pooling"
  bottom: "inception_4c/output"
  top: "inception_4d/pool"
  pooling_param {
    pool: MAX
    kernel_size: 3
    stride: 1
    pad: 1
  }
}
layer {
  name: "inception_4d/pool_proj"
  type: "Convolution"
  bottom: "inception_4d/pool"
  top: "inception_4d/pool_proj"
  param {
    lr_mult: 1
    decay_mult: 1
  }
  param {
    lr_mult: 2
    decay_mult: 0
  }
  convolution_param {
    num_output: 64
    kernel_size: 1
    weight_filler {
      type: "xavier"
    }
    bias_filler {
      type: "constant"
      value: 0.2
    }
  }
}
layer {
  name: "inception_4d/relu_pool_proj"
  type: "ReLU"
  bottom: "inception_4d/pool_proj"
  top: "inception_4d/pool_proj"
}
layer {
  name: "inception_4d/output"
  type: "Concat"
  bottom: "inception_4d/1x1"
  bottom: "inception_4d/3x3"
  bottom: "inception_4d/5x5"
  bottom: "inception_4d/pool_proj"
  top: "inception_4d/output"
}
layer {
  name: "loss2/ave_pool"
  type: "Pooling"
  bottom: "inception_4d/output"
  top: "loss2/ave_pool"
  pooling_param {
    pool: AVE
    kernel_size: 5
    stride: 3
  }
}
layer {
  name: "loss2/conv"
  type: "Convolution"
  bottom: "loss2/ave_pool"
  top: "loss2/conv"
  param {
    lr_mult: 1
    decay_mult: 1
  }
  param {
    lr_mult: 2
    decay_mult: 0
  }
  convolution_param {
    num_output: 128
    kernel_size: 1
    weight_filler {
      type: "xavier"
    }
    bias_filler {
      type: "constant"
      value: 0.2
    }
  }
}
layer {
  name: "loss2/relu_conv"
  type: "ReLU"
  bottom: "loss2/conv"
  top: "loss2/conv"
}
layer {
  name: "loss2/fc"
  type: "InnerProduct"
  bottom: "loss2/conv"
  top: "loss2/fc"
  param {
    lr_mult: 1
    decay_mult: 1
  }
  param {
    lr_mult: 2
    decay_mult: 0
  }
  inner_product_param {
    num_output: 1024
    weight_filler {
      type: "xavier"
    }
    bias_filler {
      type: "constant"
      value: 0.2
    }
  }
}
layer {
  name: "loss2/relu_fc"
  type: "ReLU"
  bottom: "loss2/fc"
  top: "loss2/fc"
}
layer {
  name: "loss2/drop_fc"
  type: "Dropout"
  bottom: "loss2/fc"
  top: "loss2/fc"
  dropout_param {
    dropout_ratio: 0.7
  }
}
layer {
  name: "loss2/classifier-bird"
  type: "InnerProduct"
  bottom: "loss2/fc"
  top: "loss2/classifier"
  param {
    lr_mult: 1
    decay_mult: 1
  }
  param {
    lr_mult: 2
    decay_mult: 0
  }
  inner_product_param {
    num_output: 4
    weight_filler {
      type: "xavier"
    }
    bias_filler {
      type: "constant"
      value: 0
    }
  }
}
layer {
  name: "loss2/loss"
  type: "SoftmaxWithLoss"
  bottom: "loss2/classifier"
  bottom: "label"
  top: "loss2/loss1"
  loss_weight: 0.3
}
layer {
  name: "inception_4e/1x1"
  type: "Convolution"
  bottom: "inception_4d/output"
  top: "inception_4e/1x1"
  param {
    lr_mult: 1
    decay_mult: 1
  }
  param {
    lr_mult: 2
    decay_mult: 0
  }
  convolution_param {
    num_output: 256
    kernel_size: 1
    weight_filler {
      type: "xavier"
    }
    bias_filler {
      type: "constant"
      value: 0.2
    }
  }
}
layer {
  name: "inception_4e/relu_1x1"
  type: "ReLU"
  bottom: "inception_4e/1x1"
  top: "inception_4e/1x1"
}
layer {
  name: "inception_4e/3x3_reduce"
  type: "Convolution"
  bottom: "inception_4d/output"
  top: "inception_4e/3x3_reduce"
  param {
    lr_mult: 1
    decay_mult: 1
  }
  param {
    lr_mult: 2
    decay_mult: 0
  }
  convolution_param {
    num_output: 160
    kernel_size: 1
    weight_filler {
      type: "xavier"
    }
    bias_filler {
      type: "constant"
      value: 0.2
    }
  }
}
layer {
  name: "inception_4e/relu_3x3_reduce"
  type: "ReLU"
  bottom: "inception_4e/3x3_reduce"
  top: "inception_4e/3x3_reduce"
}
layer {
  name: "inception_4e/3x3"
  type: "Convolution"
  bottom: "inception_4e/3x3_reduce"
  top: "inception_4e/3x3"
  param {
    lr_mult: 1
    decay_mult: 1
  }
  param {
    lr_mult: 2
    decay_mult: 0
  }
  convolution_param {
    num_output: 320
    pad: 1
    kernel_size: 3
    weight_filler {
      type: "xavier"
    }
    bias_filler {
      type: "constant"
      value: 0.2
    }
  }
}
layer {
  name: "inception_4e/relu_3x3"
  type: "ReLU"
  bottom: "inception_4e/3x3"
  top: "inception_4e/3x3"
}
layer {
  name: "inception_4e/5x5_reduce"
  type: "Convolution"
  bottom: "inception_4d/output"
  top: "inception_4e/5x5_reduce"
  param {
    lr_mult: 1
    decay_mult: 1
  }
  param {
    lr_mult: 2
    decay_mult: 0
  }
  convolution_param {
    num_output: 32
    kernel_size: 1
    weight_filler {
      type: "xavier"
    }
    bias_filler {
      type: "constant"
      value: 0.2
    }
  }
}
layer {
  name: "inception_4e/relu_5x5_reduce"
  type: "ReLU"
  bottom: "inception_4e/5x5_reduce"
  top: "inception_4e/5x5_reduce"
}
layer {
  name: "inception_4e/5x5"
  type: "Convolution"
  bottom: "inception_4e/5x5_reduce"
  top: "inception_4e/5x5"
  param {
    lr_mult: 1
    decay_mult: 1
  }
  param {
    lr_mult: 2
    decay_mult: 0
  }
  convolution_param {
    num_output: 128
    pad: 2
    kernel_size: 5
    weight_filler {
      type: "xavier"
    }
    bias_filler {
      type: "constant"
      value: 0.2
    }
  }
}
layer {
  name: "inception_4e/relu_5x5"
  type: "ReLU"
  bottom: "inception_4e/5x5"
  top: "inception_4e/5x5"
}
layer {
  name: "inception_4e/pool"
  type: "Pooling"
  bottom: "inception_4d/output"
  top: "inception_4e/p
I0410 20:03:38.527346 25951 layer_factory.hpp:77] Creating layer data
I0410 20:03:38.527556 25951 db_lmdb.cpp:35] Opened lmdb /home/jungmo/Documents/autonomous/caffe/db/train_imageData_lmDB
I0410 20:03:38.527618 25951 net.cpp:86] Creating Layer data
I0410 20:03:38.527636 25951 net.cpp:382] data -> data
I0410 20:03:38.527678 25951 net.cpp:382] data -> label
I0410 20:03:38.527701 25951 data_transformer.cpp:25] Loading mean file from: /home/jungmo/Documents/autonomous/caffe/db/mean.binaryproto
I0410 20:03:38.533208 25951 data_layer.cpp:45] output data size: 50,3,224,224
I0410 20:03:38.620514 25951 net.cpp:124] Setting up data
I0410 20:03:38.620553 25951 net.cpp:131] Top shape: 50 3 224 224 (7526400)
I0410 20:03:38.620561 25951 net.cpp:131] Top shape: 50 (50)
I0410 20:03:38.620564 25951 net.cpp:139] Memory required for data: 30105800
I0410 20:03:38.620578 25951 layer_factory.hpp:77] Creating layer label_data_1_split
I0410 20:03:38.620599 25951 net.cpp:86] Creating Layer label_data_1_split
I0410 20:03:38.620607 25951 net.cpp:408] label_data_1_split <- label
I0410 20:03:38.620653 25951 net.cpp:382] label_data_1_split -> label_data_1_split_0
I0410 20:03:38.620669 25951 net.cpp:382] label_data_1_split -> label_data_1_split_1
I0410 20:03:38.620681 25951 net.cpp:382] label_data_1_split -> label_data_1_split_2
I0410 20:03:38.620762 25951 net.cpp:124] Setting up label_data_1_split
I0410 20:03:38.620772 25951 net.cpp:131] Top shape: 50 (50)
I0410 20:03:38.620779 25951 net.cpp:131] Top shape: 50 (50)
I0410 20:03:38.620786 25951 net.cpp:131] Top shape: 50 (50)
I0410 20:03:38.620792 25951 net.cpp:139] Memory required for data: 30106400
I0410 20:03:38.620800 25951 layer_factory.hpp:77] Creating layer conv1/7x7_s2
I0410 20:03:38.620822 25951 net.cpp:86] Creating Layer conv1/7x7_s2
I0410 20:03:38.620829 25951 net.cpp:408] conv1/7x7_s2 <- data
I0410 20:03:38.620838 25951 net.cpp:382] conv1/7x7_s2 -> conv1/7x7_s2
I0410 20:03:38.622264 25951 net.cpp:124] Setting up conv1/7x7_s2
I0410 20:03:38.622283 25951 net.cpp:131] Top shape: 50 64 112 112 (40140800)
I0410 20:03:38.622292 25951 net.cpp:139] Memory required for data: 190669600
I0410 20:03:38.622316 25951 layer_factory.hpp:77] Creating layer conv1/relu_7x7
I0410 20:03:38.622328 25951 net.cpp:86] Creating Layer conv1/relu_7x7
I0410 20:03:38.622334 25951 net.cpp:408] conv1/relu_7x7 <- conv1/7x7_s2
I0410 20:03:38.622344 25951 net.cpp:369] conv1/relu_7x7 -> conv1/7x7_s2 (in-place)
I0410 20:03:38.622354 25951 net.cpp:124] Setting up conv1/relu_7x7
I0410 20:03:38.622361 25951 net.cpp:131] Top shape: 50 64 112 112 (40140800)
I0410 20:03:38.622366 25951 net.cpp:139] Memory required for data: 351232800
I0410 20:03:38.622373 25951 layer_factory.hpp:77] Creating layer pool1/3x3_s2
I0410 20:03:38.622385 25951 net.cpp:86] Creating Layer pool1/3x3_s2
I0410 20:03:38.622390 25951 net.cpp:408] pool1/3x3_s2 <- conv1/7x7_s2
I0410 20:03:38.622397 25951 net.cpp:382] pool1/3x3_s2 -> pool1/3x3_s2
I0410 20:03:38.622457 25951 net.cpp:124] Setting up pool1/3x3_s2
I0410 20:03:38.622467 25951 net.cpp:131] Top shape: 50 64 56 56 (10035200)
I0410 20:03:38.622473 25951 net.cpp:139] Memory required for data: 391373600
I0410 20:03:38.622479 25951 layer_factory.hpp:77] Creating layer pool1/norm1
I0410 20:03:38.622490 25951 net.cpp:86] Creating Layer pool1/norm1
I0410 20:03:38.622496 25951 net.cpp:408] pool1/norm1 <- pool1/3x3_s2
I0410 20:03:38.622505 25951 net.cpp:382] pool1/norm1 -> pool1/norm1
I0410 20:03:38.627143 25951 net.cpp:124] Setting up pool1/norm1
I0410 20:03:38.627171 25951 net.cpp:131] Top shape: 50 64 56 56 (10035200)
I0410 20:03:38.627177 25951 net.cpp:139] Memory required for data: 431514400
I0410 20:03:38.627184 25951 layer_factory.hpp:77] Creating layer conv2/3x3_reduce
I0410 20:03:38.627213 25951 net.cpp:86] Creating Layer conv2/3x3_reduce
I0410 20:03:38.627220 25951 net.cpp:408] conv2/3x3_reduce <- pool1/norm1
I0410 20:03:38.627230 25951 net.cpp:382] conv2/3x3_reduce -> conv2/3x3_reduce
I0410 20:03:38.628556 25951 net.cpp:124] Setting up conv2/3x3_reduce
I0410 20:03:38.628576 25951 net.cpp:131] Top shape: 50 64 56 56 (10035200)
I0410 20:03:38.628582 25951 net.cpp:139] Memory required for data: 471655200
I0410 20:03:38.628595 25951 layer_factory.hpp:77] Creating layer conv2/relu_3x3_reduce
I0410 20:03:38.628605 25951 net.cpp:86] Creating Layer conv2/relu_3x3_reduce
I0410 20:03:38.628612 25951 net.cpp:408] conv2/relu_3x3_reduce <- conv2/3x3_reduce
I0410 20:03:38.628620 25951 net.cpp:369] conv2/relu_3x3_reduce -> conv2/3x3_reduce (in-place)
I0410 20:03:38.628629 25951 net.cpp:124] Setting up conv2/relu_3x3_reduce
I0410 20:03:38.628636 25951 net.cpp:131] Top shape: 50 64 56 56 (10035200)
I0410 20:03:38.628641 25951 net.cpp:139] Memory required for data: 511796000
I0410 20:03:38.628648 25951 layer_factory.hpp:77] Creating layer conv2/3x3
I0410 20:03:38.628662 25951 net.cpp:86] Creating Layer conv2/3x3
I0410 20:03:38.628669 25951 net.cpp:408] conv2/3x3 <- conv2/3x3_reduce
I0410 20:03:38.628676 25951 net.cpp:382] conv2/3x3 -> conv2/3x3
I0410 20:03:38.629751 25951 net.cpp:124] Setting up conv2/3x3
I0410 20:03:38.629763 25951 net.cpp:131] Top shape: 50 192 56 56 (30105600)
I0410 20:03:38.629786 25951 net.cpp:139] Memory required for data: 632218400
I0410 20:03:38.629798 25951 layer_factory.hpp:77] Creating layer conv2/relu_3x3
I0410 20:03:38.629807 25951 net.cpp:86] Creating Layer conv2/relu_3x3
I0410 20:03:38.629813 25951 net.cpp:408] conv2/relu_3x3 <- conv2/3x3
I0410 20:03:38.629822 25951 net.cpp:369] conv2/relu_3x3 -> conv2/3x3 (in-place)
I0410 20:03:38.629829 25951 net.cpp:124] Setting up conv2/relu_3x3
I0410 20:03:38.629837 25951 net.cpp:131] Top shape: 50 192 56 56 (30105600)
I0410 20:03:38.629843 25951 net.cpp:139] Memory required for data: 752640800
I0410 20:03:38.629848 25951 layer_factory.hpp:77] Creating layer conv2/norm2
I0410 20:03:38.629856 25951 net.cpp:86] Creating Layer conv2/norm2
I0410 20:03:38.629863 25951 net.cpp:408] conv2/norm2 <- conv2/3x3
I0410 20:03:38.629869 25951 net.cpp:382] conv2/norm2 -> conv2/norm2
I0410 20:03:38.629910 25951 net.cpp:124] Setting up conv2/norm2
I0410 20:03:38.629918 25951 net.cpp:131] Top shape: 50 192 56 56 (30105600)
I0410 20:03:38.629925 25951 net.cpp:139] Memory required for data: 873063200
I0410 20:03:38.629930 25951 layer_factory.hpp:77] Creating layer pool2/3x3_s2
I0410 20:03:38.629937 25951 net.cpp:86] Creating Layer pool2/3x3_s2
I0410 20:03:38.629943 25951 net.cpp:408] pool2/3x3_s2 <- conv2/norm2
I0410 20:03:38.629951 25951 net.cpp:382] pool2/3x3_s2 -> pool2/3x3_s2
I0410 20:03:38.629989 25951 net.cpp:124] Setting up pool2/3x3_s2
I0410 20:03:38.629998 25951 net.cpp:131] Top shape: 50 192 28 28 (7526400)
I0410 20:03:38.630003 25951 net.cpp:139] Memory required for data: 903168800
I0410 20:03:38.630009 25951 layer_factory.hpp:77] Creating layer pool2/3x3_s2_pool2/3x3_s2_0_split
I0410 20:03:38.630018 25951 net.cpp:86] Creating Layer pool2/3x3_s2_pool2/3x3_s2_0_split
I0410 20:03:38.630024 25951 net.cpp:408] pool2/3x3_s2_pool2/3x3_s2_0_split <- pool2/3x3_s2
I0410 20:03:38.630033 25951 net.cpp:382] pool2/3x3_s2_pool2/3x3_s2_0_split -> pool2/3x3_s2_pool2/3x3_s2_0_split_0
I0410 20:03:38.630043 25951 net.cpp:382] pool2/3x3_s2_pool2/3x3_s2_0_split -> pool2/3x3_s2_pool2/3x3_s2_0_split_1
I0410 20:03:38.630053 25951 net.cpp:382] pool2/3x3_s2_pool2/3x3_s2_0_split -> pool2/3x3_s2_pool2/3x3_s2_0_split_2
I0410 20:03:38.630060 25951 net.cpp:382] pool2/3x3_s2_pool2/3x3_s2_0_split -> pool2/3x3_s2_pool2/3x3_s2_0_split_3
I0410 20:03:38.630120 25951 net.cpp:124] Setting up pool2/3x3_s2_pool2/3x3_s2_0_split
I0410 20:03:38.630129 25951 net.cpp:131] Top shape: 50 192 28 28 (7526400)
I0410 20:03:38.630136 25951 net.cpp:131] Top shape: 50 192 28 28 (7526400)
I0410 20:03:38.630142 25951 net.cpp:131] Top shape: 50 192 28 28 (7526400)
I0410 20:03:38.630148 25951 net.cpp:131] Top shape: 50 192 28 28 (7526400)
I0410 20:03:38.630154 25951 net.cpp:139] Memory required for data: 1023591200
I0410 20:03:38.630159 25951 layer_factory.hpp:77] Creating layer inception_3a/1x1
I0410 20:03:38.630170 25951 net.cpp:86] Creating Layer inception_3a/1x1
I0410 20:03:38.630177 25951 net.cpp:408] inception_3a/1x1 <- pool2/3x3_s2_pool2/3x3_s2_0_split_0
I0410 20:03:38.630187 25951 net.cpp:382] inception_3a/1x1 -> inception_3a/1x1
I0410 20:03:38.631507 25951 net.cpp:124] Setting up inception_3a/1x1
I0410 20:03:38.631526 25951 net.cpp:131] Top shape: 50 64 28 28 (2508800)
I0410 20:03:38.631532 25951 net.cpp:139] Memory required for data: 1033626400
I0410 20:03:38.631543 25951 layer_factory.hpp:77] Creating layer inception_3a/relu_1x1
I0410 20:03:38.631552 25951 net.cpp:86] Creating Layer inception_3a/relu_1x1
I0410 20:03:38.631559 25951 net.cpp:408] inception_3a/relu_1x1 <- inception_3a/1x1
I0410 20:03:38.631567 25951 net.cpp:369] inception_3a/relu_1x1 -> inception_3a/1x1 (in-place)
I0410 20:03:38.631578 25951 net.cpp:124] Setting up inception_3a/relu_1x1
I0410 20:03:38.631584 25951 net.cpp:131] Top shape: 50 64 28 28 (2508800)
I0410 20:03:38.631589 25951 net.cpp:139] Memory required for data: 1043661600
I0410 20:03:38.631595 25951 layer_factory.hpp:77] Creating layer inception_3a/3x3_reduce
I0410 20:03:38.631608 25951 net.cpp:86] Creating Layer inception_3a/3x3_reduce
I0410 20:03:38.631613 25951 net.cpp:408] inception_3a/3x3_reduce <- pool2/3x3_s2_pool2/3x3_s2_0_split_1
I0410 20:03:38.631638 25951 net.cpp:382] inception_3a/3x3_reduce -> inception_3a/3x3_reduce
I0410 20:03:38.633008 25951 net.cpp:124] Setting up inception_3a/3x3_reduce
I0410 20:03:38.633028 25951 net.cpp:131] Top shape: 50 96 28 28 (3763200)
I0410 20:03:38.633033 25951 net.cpp:139] Memory required for data: 1058714400
I0410 20:03:38.633046 25951 layer_factory.hpp:77] Creating layer inception_3a/relu_3x3_reduce
I0410 20:03:38.633059 25951 net.cpp:86] Creating Layer inception_3a/relu_3x3_reduce
I0410 20:03:38.633066 25951 net.cpp:408] inception_3a/relu_3x3_reduce <- inception_3a/3x3_reduce
I0410 20:03:38.633074 25951 net.cpp:369] inception_3a/relu_3x3_reduce -> inception_3a/3x3_reduce (in-place)
I0410 20:03:38.633085 25951 net.cpp:124] Setting up inception_3a/relu_3x3_reduce
I0410 20:03:38.633091 25951 net.cpp:131] Top shape: 50 96 28 28 (3763200)
I0410 20:03:38.633097 25951 net.cpp:139] Memory required for data: 1073767200
I0410 20:03:38.633102 25951 layer_factory.hpp:77] Creating layer inception_3a/3x3
I0410 20:03:38.633114 25951 net.cpp:86] Creating Layer inception_3a/3x3
I0410 20:03:38.633119 25951 net.cpp:408] inception_3a/3x3 <- inception_3a/3x3_reduce
I0410 20:03:38.633129 25951 net.cpp:382] inception_3a/3x3 -> inception_3a/3x3
I0410 20:03:38.634202 25951 net.cpp:124] Setting up inception_3a/3x3
I0410 20:03:38.634213 25951 net.cpp:131] Top shape: 50 128 28 28 (5017600)
I0410 20:03:38.634218 25951 net.cpp:139] Memory required for data: 1093837600
I0410 20:03:38.634227 25951 layer_factory.hpp:77] Creating layer inception_3a/relu_3x3
I0410 20:03:38.634235 25951 net.cpp:86] Creating Layer inception_3a/relu_3x3
I0410 20:03:38.634241 25951 net.cpp:408] inception_3a/relu_3x3 <- inception_3a/3x3
I0410 20:03:38.634249 25951 net.cpp:369] inception_3a/relu_3x3 -> inception_3a/3x3 (in-place)
I0410 20:03:38.634259 25951 net.cpp:124] Setting up inception_3a/relu_3x3
I0410 20:03:38.634266 25951 net.cpp:131] Top shape: 50 128 28 28 (5017600)
I0410 20:03:38.634272 25951 net.cpp:139] Memory required for data: 1113908000
I0410 20:03:38.634277 25951 layer_factory.hpp:77] Creating layer inception_3a/5x5_reduce
I0410 20:03:38.634290 25951 net.cpp:86] Creating Layer inception_3a/5x5_reduce
I0410 20:03:38.634296 25951 net.cpp:408] inception_3a/5x5_reduce <- pool2/3x3_s2_pool2/3x3_s2_0_split_2
I0410 20:03:38.634305 25951 net.cpp:382] inception_3a/5x5_reduce -> inception_3a/5x5_reduce
I0410 20:03:38.634579 25951 net.cpp:124] Setting up inception_3a/5x5_reduce
I0410 20:03:38.634590 25951 net.cpp:131] Top shape: 50 16 28 28 (627200)
I0410 20:03:38.634595 25951 net.cpp:139] Memory required for data: 1116416800
I0410 20:03:38.634604 25951 layer_factory.hpp:77] Creating layer inception_3a/relu_5x5_reduce
I0410 20:03:38.634613 25951 net.cpp:86] Creating Layer inception_3a/relu_5x5_reduce
I0410 20:03:38.634619 25951 net.cpp:408] inception_3a/relu_5x5_reduce <- inception_3a/5x5_reduce
I0410 20:03:38.634627 25951 net.cpp:369] inception_3a/relu_5x5_reduce -> inception_3a/5x5_reduce (in-place)
I0410 20:03:38.634637 25951 net.cpp:124] Setting up inception_3a/relu_5x5_reduce
I0410 20:03:38.634644 25951 net.cpp:131] Top shape: 50 16 28 28 (627200)
I0410 20:03:38.634650 25951 net.cpp:139] Memory required for data: 1118925600
I0410 20:03:38.634655 25951 layer_factory.hpp:77] Creating layer inception_3a/5x5
I0410 20:03:38.634665 25951 net.cpp:86] Creating Layer inception_3a/5x5
I0410 20:03:38.634672 25951 net.cpp:408] inception_3a/5x5 <- inception_3a/5x5_reduce
I0410 20:03:38.634681 25951 net.cpp:382] inception_3a/5x5 -> inception_3a/5x5
I0410 20:03:38.635017 25951 net.cpp:124] Setting up inception_3a/5x5
I0410 20:03:38.635028 25951 net.cpp:131] Top shape: 50 32 28 28 (1254400)
I0410 20:03:38.635033 25951 net.cpp:139] Memory required for data: 1123943200
I0410 20:03:38.635051 25951 layer_factory.hpp:77] Creating layer inception_3a/relu_5x5
I0410 20:03:38.635059 25951 net.cpp:86] Creating Layer inception_3a/relu_5x5
I0410 20:03:38.635066 25951 net.cpp:408] inception_3a/relu_5x5 <- inception_3a/5x5
I0410 20:03:38.635087 25951 net.cpp:369] inception_3a/relu_5x5 -> inception_3a/5x5 (in-place)
I0410 20:03:38.635098 25951 net.cpp:124] Setting up inception_3a/relu_5x5
I0410 20:03:38.635107 25951 net.cpp:131] Top shape: 50 32 28 28 (1254400)
I0410 20:03:38.635112 25951 net.cpp:139] Memory required for data: 1128960800
I0410 20:03:38.635116 25951 layer_factory.hpp:77] Creating layer inception_3a/pool
I0410 20:03:38.635126 25951 net.cpp:86] Creating Layer inception_3a/pool
I0410 20:03:38.635133 25951 net.cpp:408] inception_3a/pool <- pool2/3x3_s2_pool2/3x3_s2_0_split_3
I0410 20:03:38.635141 25951 net.cpp:382] inception_3a/pool -> inception_3a/pool
I0410 20:03:38.635185 25951 net.cpp:124] Setting up inception_3a/pool
I0410 20:03:38.635195 25951 net.cpp:131] Top shape: 50 192 28 28 (7526400)
I0410 20:03:38.635200 25951 net.cpp:139] Memory required for data: 1159066400
I0410 20:03:38.635205 25951 layer_factory.hpp:77] Creating layer inception_3a/pool_proj
I0410 20:03:38.635216 25951 net.cpp:86] Creating Layer inception_3a/pool_proj
I0410 20:03:38.635231 25951 net.cpp:408] inception_3a/pool_proj <- inception_3a/pool
I0410 20:03:38.635239 25951 net.cpp:382] inception_3a/pool_proj -> inception_3a/pool_proj
I0410 20:03:38.635527 25951 net.cpp:124] Setting up inception_3a/pool_proj
I0410 20:03:38.635537 25951 net.cpp:131] Top shape: 50 32 28 28 (1254400)
I0410 20:03:38.635543 25951 net.cpp:139] Memory required for data: 1164084000
I0410 20:03:38.635556 25951 layer_factory.hpp:77] Creating layer inception_3a/relu_pool_proj
I0410 20:03:38.635565 25951 net.cpp:86] Creating Layer inception_3a/relu_pool_proj
I0410 20:03:38.635571 25951 net.cpp:408] inception_3a/relu_pool_proj <- inception_3a/pool_proj
I0410 20:03:38.635578 25951 net.cpp:369] inception_3a/relu_pool_proj -> inception_3a/pool_proj (in-place)
I0410 20:03:38.635587 25951 net.cpp:124] Setting up inception_3a/relu_pool_proj
I0410 20:03:38.635594 25951 net.cpp:131] Top shape: 50 32 28 28 (1254400)
I0410 20:03:38.635599 25951 net.cpp:139] Memory required for data: 1169101600
I0410 20:03:38.635606 25951 layer_factory.hpp:77] Creating layer inception_3a/output
I0410 20:03:38.635614 25951 net.cpp:86] Creating Layer inception_3a/output
I0410 20:03:38.635619 25951 net.cpp:408] inception_3a/output <- inception_3a/1x1
I0410 20:03:38.635627 25951 net.cpp:408] inception_3a/output <- inception_3a/3x3
I0410 20:03:38.635635 25951 net.cpp:408] inception_3a/output <- inception_3a/5x5
I0410 20:03:38.635640 25951 net.cpp:408] inception_3a/output <- inception_3a/pool_proj
I0410 20:03:38.635648 25951 net.cpp:382] inception_3a/output -> inception_3a/output
I0410 20:03:38.635676 25951 net.cpp:124] Setting up inception_3a/output
I0410 20:03:38.635685 25951 net.cpp:131] Top shape: 50 256 28 28 (10035200)
I0410 20:03:38.635691 25951 net.cpp:139] Memory required for data: 1209242400
I0410 20:03:38.635696 25951 layer_factory.hpp:77] Creating layer inception_3a/output_inception_3a/output_0_split
I0410 20:03:38.635705 25951 net.cpp:86] Creating Layer inception_3a/output_inception_3a/output_0_split
I0410 20:03:38.635712 25951 net.cpp:408] inception_3a/output_inception_3a/output_0_split <- inception_3a/output
I0410 20:03:38.635720 25951 net.cpp:382] inception_3a/output_inception_3a/output_0_split -> inception_3a/output_inception_3a/output_0_split_0
I0410 20:03:38.635730 25951 net.cpp:382] inception_3a/output_inception_3a/output_0_split -> inception_3a/output_inception_3a/output_0_split_1
I0410 20:03:38.635740 25951 net.cpp:382] inception_3a/output_inception_3a/output_0_split -> inception_3a/output_inception_3a/output_0_split_2
I0410 20:03:38.635751 25951 net.cpp:382] inception_3a/output_inception_3a/output_0_split -> inception_3a/output_inception_3a/output_0_split_3
I0410 20:03:38.635809 25951 net.cpp:124] Setting up inception_3a/output_inception_3a/output_0_split
I0410 20:03:38.635818 25951 net.cpp:131] Top shape: 50 256 28 28 (10035200)
I0410 20:03:38.635825 25951 net.cpp:131] Top shape: 50 256 28 28 (10035200)
I0410 20:03:38.635833 25951 net.cpp:131] Top shape: 50 256 28 28 (10035200)
I0410 20:03:38.635849 25951 net.cpp:131] Top shape: 50 256 28 28 (10035200)
I0410 20:03:38.635855 25951 net.cpp:139] Memory required for data: 1369805600
I0410 20:03:38.635860 25951 layer_factory.hpp:77] Creating layer inception_3b/1x1
I0410 20:03:38.635874 25951 net.cpp:86] Creating Layer inception_3b/1x1
I0410 20:03:38.635879 25951 net.cpp:408] inception_3b/1x1 <- inception_3a/output_inception_3a/output_0_split_0
I0410 20:03:38.635887 25951 net.cpp:382] inception_3b/1x1 -> inception_3b/1x1
I0410 20:03:38.636365 25951 net.cpp:124] Setting up inception_3b/1x1
I0410 20:03:38.636378 25951 net.cpp:131] Top shape: 50 128 28 28 (5017600)
I0410 20:03:38.636382 25951 net.cpp:139] Memory required for data: 1389876000
I0410 20:03:38.636391 25951 layer_factory.hpp:77] Creating layer inception_3b/relu_1x1
I0410 20:03:38.636399 25951 net.cpp:86] Creating Layer inception_3b/relu_1x1
I0410 20:03:38.636406 25951 net.cpp:408] inception_3b/relu_1x1 <- inception_3b/1x1
I0410 20:03:38.636414 25951 net.cpp:369] inception_3b/relu_1x1 -> inception_3b/1x1 (in-place)
I0410 20:03:38.636422 25951 net.cpp:124] Setting up inception_3b/relu_1x1
I0410 20:03:38.636428 25951 net.cpp:131] Top shape: 50 128 28 28 (5017600)
I0410 20:03:38.636435 25951 net.cpp:139] Memory required for data: 1409946400
I0410 20:03:38.636440 25951 layer_factory.hpp:77] Creating layer inception_3b/3x3_reduce
I0410 20:03:38.636451 25951 net.cpp:86] Creating Layer inception_3b/3x3_reduce
I0410 20:03:38.636456 25951 net.cpp:408] inception_3b/3x3_reduce <- inception_3a/output_inception_3a/output_0_split_1
I0410 20:03:38.636466 25951 net.cpp:382] inception_3b/3x3_reduce -> inception_3b/3x3_reduce
I0410 20:03:38.636945 25951 net.cpp:124] Setting up inception_3b/3x3_reduce
I0410 20:03:38.636955 25951 net.cpp:131] Top shape: 50 128 28 28 (5017600)
I0410 20:03:38.636960 25951 net.cpp:139] Memory required for data: 1430016800
I0410 20:03:38.636970 25951 layer_factory.hpp:77] Creating layer inception_3b/relu_3x3_reduce
I0410 20:03:38.636977 25951 net.cpp:86] Creating Layer inception_3b/relu_3x3_reduce
I0410 20:03:38.636983 25951 net.cpp:408] inception_3b/relu_3x3_reduce <- inception_3b/3x3_reduce
I0410 20:03:38.636992 25951 net.cpp:369] inception_3b/relu_3x3_reduce -> inception_3b/3x3_reduce (in-place)
I0410 20:03:38.637002 25951 net.cpp:124] Setting up inception_3b/relu_3x3_reduce
I0410 20:03:38.637009 25951 net.cpp:131] Top shape: 50 128 28 28 (5017600)
I0410 20:03:38.637014 25951 net.cpp:139] Memory required for data: 1450087200
I0410 20:03:38.637019 25951 layer_factory.hpp:77] Creating layer inception_3b/3x3
I0410 20:03:38.637038 25951 net.cpp:86] Creating Layer inception_3b/3x3
I0410 20:03:38.637044 25951 net.cpp:408] inception_3b/3x3 <- inception_3b/3x3_reduce
I0410 20:03:38.637053 25951 net.cpp:382] inception_3b/3x3 -> inception_3b/3x3
I0410 20:03:38.639912 25951 net.cpp:124] Setting up inception_3b/3x3
I0410 20:03:38.639931 25951 net.cpp:131] Top shape: 50 192 28 28 (7526400)
I0410 20:03:38.639937 25951 net.cpp:139] Memory required for data: 1480192800
I0410 20:03:38.639947 25951 layer_factory.hpp:77] Creating layer inception_3b/relu_3x3
I0410 20:03:38.639956 25951 net.cpp:86] Creating Layer inception_3b/relu_3x3
I0410 20:03:38.639963 25951 net.cpp:408] inception_3b/relu_3x3 <- inception_3b/3x3
I0410 20:03:38.639971 25951 net.cpp:369] inception_3b/relu_3x3 -> inception_3b/3x3 (in-place)
I0410 20:03:38.639981 25951 net.cpp:124] Setting up inception_3b/relu_3x3
I0410 20:03:38.639987 25951 net.cpp:131] Top shape: 50 192 28 28 (7526400)
I0410 20:03:38.639993 25951 net.cpp:139] Memory required for data: 1510298400
I0410 20:03:38.639998 25951 layer_factory.hpp:77] Creating layer inception_3b/5x5_reduce
I0410 20:03:38.640009 25951 net.cpp:86] Creating Layer inception_3b/5x5_reduce
I0410 20:03:38.640015 25951 net.cpp:408] inception_3b/5x5_reduce <- inception_3a/output_inception_3a/output_0_split_2
I0410 20:03:38.640025 25951 net.cpp:382] inception_3b/5x5_reduce -> inception_3b/5x5_reduce
I0410 20:03:38.640322 25951 net.cpp:124] Setting up inception_3b/5x5_reduce
I0410 20:03:38.640332 25951 net.cpp:131] Top shape: 50 32 28 28 (1254400)
I0410 20:03:38.640352 25951 net.cpp:139] Memory required for data: 1515316000
I0410 20:03:38.640362 25951 layer_factory.hpp:77] Creating layer inception_3b/relu_5x5_reduce
I0410 20:03:38.640370 25951 net.cpp:86] Creating Layer inception_3b/relu_5x5_reduce
I0410 20:03:38.640377 25951 net.cpp:408] inception_3b/relu_5x5_reduce <- inception_3b/5x5_reduce
I0410 20:03:38.640383 25951 net.cpp:369] inception_3b/relu_5x5_reduce -> inception_3b/5x5_reduce (in-place)
I0410 20:03:38.640393 25951 net.cpp:124] Setting up inception_3b/relu_5x5_reduce
I0410 20:03:38.640400 25951 net.cpp:131] Top shape: 50 32 28 28 (1254400)
I0410 20:03:38.640405 25951 net.cpp:139] Memory required for data: 1520333600
I0410 20:03:38.640410 25951 layer_factory.hpp:77] Creating layer inception_3b/5x5
I0410 20:03:38.640422 25951 net.cpp:86] Creating Layer inception_3b/5x5
I0410 20:03:38.640427 25951 net.cpp:408] inception_3b/5x5 <- inception_3b/5x5_reduce
I0410 20:03:38.640434 25951 net.cpp:382] inception_3b/5x5 -> inception_3b/5x5
I0410 20:03:38.641213 25951 net.cpp:124] Setting up inception_3b/5x5
I0410 20:03:38.641224 25951 net.cpp:131] Top shape: 50 96 28 28 (3763200)
I0410 20:03:38.641230 25951 net.cpp:139] Memory required for data: 1535386400
I0410 20:03:38.641257 25951 layer_factory.hpp:77] Creating layer inception_3b/relu_5x5
I0410 20:03:38.641264 25951 net.cpp:86] Creating Layer inception_3b/relu_5x5
I0410 20:03:38.641270 25951 net.cpp:408] inception_3b/relu_5x5 <- inception_3b/5x5
I0410 20:03:38.641278 25951 net.cpp:369] inception_3b/relu_5x5 -> inception_3b/5x5 (in-place)
I0410 20:03:38.641285 25951 net.cpp:124] Setting up inception_3b/relu_5x5
I0410 20:03:38.641291 25951 net.cpp:131] Top shape: 50 96 28 28 (3763200)
I0410 20:03:38.641297 25951 net.cpp:139] Memory required for data: 1550439200
I0410 20:03:38.641302 25951 layer_factory.hpp:77] Creating layer inception_3b/pool
I0410 20:03:38.641310 25951 net.cpp:86] Creating Layer inception_3b/pool
I0410 20:03:38.641315 25951 net.cpp:408] inception_3b/pool <- inception_3a/output_inception_3a/output_0_split_3
I0410 20:03:38.641324 25951 net.cpp:382] inception_3b/pool -> inception_3b/pool
I0410 20:03:38.641363 25951 net.cpp:124] Setting up inception_3b/pool
I0410 20:03:38.641371 25951 net.cpp:131] Top shape: 50 256 28 28 (10035200)
I0410 20:03:38.641376 25951 net.cpp:139] Memory required for data: 1590580000
I0410 20:03:38.641382 25951 layer_factory.hpp:77] Creating layer inception_3b/pool_proj
I0410 20:03:38.641391 25951 net.cpp:86] Creating Layer inception_3b/pool_proj
I0410 20:03:38.641397 25951 net.cpp:408] inception_3b/pool_proj <- inception_3b/pool
I0410 20:03:38.641405 25951 net.cpp:382] inception_3b/pool_proj -> inception_3b/pool_proj
I0410 20:03:38.641757 25951 net.cpp:124] Setting up inception_3b/pool_proj
I0410 20:03:38.641767 25951 net.cpp:131] Top shape: 50 64 28 28 (2508800)
I0410 20:03:38.641772 25951 net.cpp:139] Memory required for data: 1600615200
I0410 20:03:38.641780 25951 layer_factory.hpp:77] Creating layer inception_3b/relu_pool_proj
I0410 20:03:38.641788 25951 net.cpp:86] Creating Layer inception_3b/relu_pool_proj
I0410 20:03:38.641794 25951 net.cpp:408] inception_3b/relu_pool_proj <- inception_3b/pool_proj
I0410 20:03:38.641801 25951 net.cpp:369] inception_3b/relu_pool_proj -> inception_3b/pool_proj (in-place)
I0410 20:03:38.641809 25951 net.cpp:124] Setting up inception_3b/relu_pool_proj
I0410 20:03:38.641818 25951 net.cpp:131] Top shape: 50 64 28 28 (2508800)
I0410 20:03:38.641821 25951 net.cpp:139] Memory required for data: 1610650400
I0410 20:03:38.641826 25951 layer_factory.hpp:77] Creating layer inception_3b/output
I0410 20:03:38.641834 25951 net.cpp:86] Creating Layer inception_3b/output
I0410 20:03:38.641840 25951 net.cpp:408] inception_3b/output <- inception_3b/1x1
I0410 20:03:38.641846 25951 net.cpp:408] inception_3b/output <- inception_3b/3x3
I0410 20:03:38.641852 25951 net.cpp:408] inception_3b/output <- inception_3b/5x5
I0410 20:03:38.641858 25951 net.cpp:408] inception_3b/output <- inception_3b/pool_proj
I0410 20:03:38.641876 25951 net.cpp:382] inception_3b/output -> inception_3b/output
I0410 20:03:38.641904 25951 net.cpp:124] Setting up inception_3b/output
I0410 20:03:38.641912 25951 net.cpp:131] Top shape: 50 480 28 28 (18816000)
I0410 20:03:38.641917 25951 net.cpp:139] Memory required for data: 1685914400
I0410 20:03:38.641922 25951 layer_factory.hpp:77] Creating layer pool3/3x3_s2
I0410 20:03:38.641930 25951 net.cpp:86] Creating Layer pool3/3x3_s2
I0410 20:03:38.641935 25951 net.cpp:408] pool3/3x3_s2 <- inception_3b/output
I0410 20:03:38.641943 25951 net.cpp:382] pool3/3x3_s2 -> pool3/3x3_s2
I0410 20:03:38.641980 25951 net.cpp:124] Setting up pool3/3x3_s2
I0410 20:03:38.641988 25951 net.cpp:131] Top shape: 50 480 14 14 (4704000)
I0410 20:03:38.641993 25951 net.cpp:139] Memory required for data: 1704730400
I0410 20:03:38.641999 25951 layer_factory.hpp:77] Creating layer pool3/3x3_s2_pool3/3x3_s2_0_split
I0410 20:03:38.642007 25951 net.cpp:86] Creating Layer pool3/3x3_s2_pool3/3x3_s2_0_split
I0410 20:03:38.642014 25951 net.cpp:408] pool3/3x3_s2_pool3/3x3_s2_0_split <- pool3/3x3_s2
I0410 20:03:38.642020 25951 net.cpp:382] pool3/3x3_s2_pool3/3x3_s2_0_split -> pool3/3x3_s2_pool3/3x3_s2_0_split_0
I0410 20:03:38.642030 25951 net.cpp:382] pool3/3x3_s2_pool3/3x3_s2_0_split -> pool3/3x3_s2_pool3/3x3_s2_0_split_1
I0410 20:03:38.642040 25951 net.cpp:382] pool3/3x3_s2_pool3/3x3_s2_0_split -> pool3/3x3_s2_pool3/3x3_s2_0_split_2
I0410 20:03:38.642048 25951 net.cpp:382] pool3/3x3_s2_pool3/3x3_s2_0_split -> pool3/3x3_s2_pool3/3x3_s2_0_split_3
I0410 20:03:38.642105 25951 net.cpp:124] Setting up pool3/3x3_s2_pool3/3x3_s2_0_split
I0410 20:03:38.642113 25951 net.cpp:131] Top shape: 50 480 14 14 (4704000)
I0410 20:03:38.642120 25951 net.cpp:131] Top shape: 50 480 14 14 (4704000)
I0410 20:03:38.642127 25951 net.cpp:131] Top shape: 50 480 14 14 (4704000)
I0410 20:03:38.642133 25951 net.cpp:131] Top shape: 50 480 14 14 (4704000)
I0410 20:03:38.642138 25951 net.cpp:139] Memory required for data: 1779994400
I0410 20:03:38.642144 25951 layer_factory.hpp:77] Creating layer inception_4a/1x1
I0410 20:03:38.642154 25951 net.cpp:86] Creating Layer inception_4a/1x1
I0410 20:03:38.642160 25951 net.cpp:408] inception_4a/1x1 <- pool3/3x3_s2_pool3/3x3_s2_0_split_0
I0410 20:03:38.642168 25951 net.cpp:382] inception_4a/1x1 -> inception_4a/1x1
I0410 20:03:38.643054 25951 net.cpp:124] Setting up inception_4a/1x1
I0410 20:03:38.643064 25951 net.cpp:131] Top shape: 50 192 14 14 (1881600)
I0410 20:03:38.643069 25951 net.cpp:139] Memory required for data: 1787520800
I0410 20:03:38.643077 25951 layer_factory.hpp:77] Creating layer inception_4a/relu_1x1
I0410 20:03:38.643086 25951 net.cpp:86] Creating Layer inception_4a/relu_1x1
I0410 20:03:38.643091 25951 net.cpp:408] inception_4a/relu_1x1 <- inception_4a/1x1
I0410 20:03:38.643100 25951 net.cpp:369] inception_4a/relu_1x1 -> inception_4a/1x1 (in-place)
I0410 20:03:38.643106 25951 net.cpp:124] Setting up inception_4a/relu_1x1
I0410 20:03:38.643115 25951 net.cpp:131] Top shape: 50 192 14 14 (1881600)
I0410 20:03:38.643120 25951 net.cpp:139] Memory required for data: 1795047200
I0410 20:03:38.643123 25951 layer_factory.hpp:77] Creating layer inception_4a/3x3_reduce
I0410 20:03:38.643133 25951 net.cpp:86] Creating Layer inception_4a/3x3_reduce
I0410 20:03:38.643141 25951 net.cpp:408] inception_4a/3x3_reduce <- pool3/3x3_s2_pool3/3x3_s2_0_split_1
I0410 20:03:38.643147 25951 net.cpp:382] inception_4a/3x3_reduce -> inception_4a/3x3_reduce
I0410 20:03:38.643719 25951 net.cpp:124] Setting up inception_4a/3x3_reduce
I0410 20:03:38.643729 25951 net.cpp:131] Top shape: 50 96 14 14 (940800)
I0410 20:03:38.643735 25951 net.cpp:139] Memory required for data: 1798810400
I0410 20:03:38.643748 25951 layer_factory.hpp:77] Creating layer inception_4a/relu_3x3_reduce
I0410 20:03:38.643756 25951 net.cpp:86] Creating Layer inception_4a/relu_3x3_reduce
I0410 20:03:38.643762 25951 net.cpp:408] inception_4a/relu_3x3_reduce <- inception_4a/3x3_reduce
I0410 20:03:38.643770 25951 net.cpp:369] inception_4a/relu_3x3_reduce -> inception_4a/3x3_reduce (in-place)
I0410 20:03:38.643790 25951 net.cpp:124] Setting up inception_4a/relu_3x3_reduce
I0410 20:03:38.643797 25951 net.cpp:131] Top shape: 50 96 14 14 (940800)
I0410 20:03:38.643803 25951 net.cpp:139] Memory required for data: 1802573600
I0410 20:03:38.643810 25951 layer_factory.hpp:77] Creating layer inception_4a/3x3
I0410 20:03:38.643820 25951 net.cpp:86] Creating Layer inception_4a/3x3
I0410 20:03:38.643826 25951 net.cpp:408] inception_4a/3x3 <- inception_4a/3x3_reduce
I0410 20:03:38.643833 25951 net.cpp:382] inception_4a/3x3 -> inception_4a/3x3
I0410 20:03:38.646283 25951 net.cpp:124] Setting up inception_4a/3x3
I0410 20:03:38.646301 25951 net.cpp:131] Top shape: 50 208 14 14 (2038400)
I0410 20:03:38.646306 25951 net.cpp:139] Memory required for data: 1810727200
I0410 20:03:38.646317 25951 layer_factory.hpp:77] Creating layer inception_4a/relu_3x3
I0410 20:03:38.646325 25951 net.cpp:86] Creating Layer inception_4a/relu_3x3
I0410 20:03:38.646332 25951 net.cpp:408] inception_4a/relu_3x3 <- inception_4a/3x3
I0410 20:03:38.646342 25951 net.cpp:369] inception_4a/relu_3x3 -> inception_4a/3x3 (in-place)
I0410 20:03:38.646353 25951 net.cpp:124] Setting up inception_4a/relu_3x3
I0410 20:03:38.646360 25951 net.cpp:131] Top shape: 50 208 14 14 (2038400)
I0410 20:03:38.646365 25951 net.cpp:139] Memory required for data: 1818880800
I0410 20:03:38.646371 25951 layer_factory.hpp:77] Creating layer inception_4a/5x5_reduce
I0410 20:03:38.646383 25951 net.cpp:86] Creating Layer inception_4a/5x5_reduce
I0410 20:03:38.646389 25951 net.cpp:408] inception_4a/5x5_reduce <- pool3/3x3_s2_pool3/3x3_s2_0_split_2
I0410 20:03:38.646397 25951 net.cpp:382] inception_4a/5x5_reduce -> inception_4a/5x5_reduce
I0410 20:03:38.646690 25951 net.cpp:124] Setting up inception_4a/5x5_reduce
I0410 20:03:38.646700 25951 net.cpp:131] Top shape: 50 16 14 14 (156800)
I0410 20:03:38.646706 25951 net.cpp:139] Memory required for data: 1819508000
I0410 20:03:38.646713 25951 layer_factory.hpp:77] Creating layer inception_4a/relu_5x5_reduce
I0410 20:03:38.646721 25951 net.cpp:86] Creating Layer inception_4a/relu_5x5_reduce
I0410 20:03:38.646726 25951 net.cpp:408] inception_4a/relu_5x5_reduce <- inception_4a/5x5_reduce
I0410 20:03:38.646734 25951 net.cpp:369] inception_4a/relu_5x5_reduce -> inception_4a/5x5_reduce (in-place)
I0410 20:03:38.646742 25951 net.cpp:124] Setting up inception_4a/relu_5x5_reduce
I0410 20:03:38.646749 25951 net.cpp:131] Top shape: 50 16 14 14 (156800)
I0410 20:03:38.646754 25951 net.cpp:139] Memory required for data: 1820135200
I0410 20:03:38.646759 25951 layer_factory.hpp:77] Creating layer inception_4a/5x5
I0410 20:03:38.646770 25951 net.cpp:86] Creating Layer inception_4a/5x5
I0410 20:03:38.646775 25951 net.cpp:408] inception_4a/5x5 <- inception_4a/5x5_reduce
I0410 20:03:38.646781 25951 net.cpp:382] inception_4a/5x5 -> inception_4a/5x5
I0410 20:03:38.647163 25951 net.cpp:124] Setting up inception_4a/5x5
I0410 20:03:38.647174 25951 net.cpp:131] Top shape: 50 48 14 14 (470400)
I0410 20:03:38.647179 25951 net.cpp:139] Memory required for data: 1822016800
I0410 20:03:38.647187 25951 layer_factory.hpp:77] Creating layer inception_4a/relu_5x5
I0410 20:03:38.647195 25951 net.cpp:86] Creating Layer inception_4a/relu_5x5
I0410 20:03:38.647200 25951 net.cpp:408] inception_4a/relu_5x5 <- inception_4a/5x5
I0410 20:03:38.647207 25951 net.cpp:369] inception_4a/relu_5x5 -> inception_4a/5x5 (in-place)
I0410 20:03:38.647215 25951 net.cpp:124] Setting up inception_4a/relu_5x5
I0410 20:03:38.647222 25951 net.cpp:131] Top shape: 50 48 14 14 (470400)
I0410 20:03:38.647228 25951 net.cpp:139] Memory required for data: 1823898400
I0410 20:03:38.647231 25951 layer_factory.hpp:77] Creating layer inception_4a/pool
I0410 20:03:38.647239 25951 net.cpp:86] Creating Layer inception_4a/pool
I0410 20:03:38.647251 25951 net.cpp:408] inception_4a/pool <- pool3/3x3_s2_pool3/3x3_s2_0_split_3
I0410 20:03:38.647258 25951 net.cpp:382] inception_4a/pool -> inception_4a/pool
I0410 20:03:38.647297 25951 net.cpp:124] Setting up inception_4a/pool
I0410 20:03:38.647305 25951 net.cpp:131] Top shape: 50 480 14 14 (4704000)
I0410 20:03:38.647325 25951 net.cpp:139] Memory required for data: 1842714400
I0410 20:03:38.647330 25951 layer_factory.hpp:77] Creating layer inception_4a/pool_proj
I0410 20:03:38.647341 25951 net.cpp:86] Creating Layer inception_4a/pool_proj
I0410 20:03:38.647347 25951 net.cpp:408] inception_4a/pool_proj <- inception_4a/pool
I0410 20:03:38.647356 25951 net.cpp:382] inception_4a/pool_proj -> inception_4a/pool_proj
I0410 20:03:38.647809 25951 net.cpp:124] Setting up inception_4a/pool_proj
I0410 20:03:38.647819 25951 net.cpp:131] Top shape: 50 64 14 14 (627200)
I0410 20:03:38.647825 25951 net.cpp:139] Memory required for data: 1845223200
I0410 20:03:38.647833 25951 layer_factory.hpp:77] Creating layer inception_4a/relu_pool_proj
I0410 20:03:38.647840 25951 net.cpp:86] Creating Layer inception_4a/relu_pool_proj
I0410 20:03:38.647846 25951 net.cpp:408] inception_4a/relu_pool_proj <- inception_4a/pool_proj
I0410 20:03:38.647853 25951 net.cpp:369] inception_4a/relu_pool_proj -> inception_4a/pool_proj (in-place)
I0410 20:03:38.647861 25951 net.cpp:124] Setting up inception_4a/relu_pool_proj
I0410 20:03:38.647868 25951 net.cpp:131] Top shape: 50 64 14 14 (627200)
I0410 20:03:38.647873 25951 net.cpp:139] Memory required for data: 1847732000
I0410 20:03:38.647877 25951 layer_factory.hpp:77] Creating layer inception_4a/output
I0410 20:03:38.647886 25951 net.cpp:86] Creating Layer inception_4a/output
I0410 20:03:38.647891 25951 net.cpp:408] inception_4a/output <- inception_4a/1x1
I0410 20:03:38.647897 25951 net.cpp:408] inception_4a/output <- inception_4a/3x3
I0410 20:03:38.647903 25951 net.cpp:408] inception_4a/output <- inception_4a/5x5
I0410 20:03:38.647910 25951 net.cpp:408] inception_4a/output <- inception_4a/pool_proj
I0410 20:03:38.647917 25951 net.cpp:382] inception_4a/output -> inception_4a/output
I0410 20:03:38.647943 25951 net.cpp:124] Setting up inception_4a/output
I0410 20:03:38.647950 25951 net.cpp:131] Top shape: 50 512 14 14 (5017600)
I0410 20:03:38.647956 25951 net.cpp:139] Memory required for data: 1867802400
I0410 20:03:38.647960 25951 layer_factory.hpp:77] Creating layer inception_4a/output_inception_4a/output_0_split
I0410 20:03:38.647969 25951 net.cpp:86] Creating Layer inception_4a/output_inception_4a/output_0_split
I0410 20:03:38.647974 25951 net.cpp:408] inception_4a/output_inception_4a/output_0_split <- inception_4a/output
I0410 20:03:38.647984 25951 net.cpp:382] inception_4a/output_inception_4a/output_0_split -> inception_4a/output_inception_4a/output_0_split_0
I0410 20:03:38.647992 25951 net.cpp:382] inception_4a/output_inception_4a/output_0_split -> inception_4a/output_inception_4a/output_0_split_1
I0410 20:03:38.648001 25951 net.cpp:382] inception_4a/output_inception_4a/output_0_split -> inception_4a/output_inception_4a/output_0_split_2
I0410 20:03:38.648010 25951 net.cpp:382] inception_4a/output_inception_4a/output_0_split -> inception_4a/output_inception_4a/output_0_split_3
I0410 20:03:38.648018 25951 net.cpp:382] inception_4a/output_inception_4a/output_0_split -> inception_4a/output_inception_4a/output_0_split_4
I0410 20:03:38.648089 25951 net.cpp:124] Setting up inception_4a/output_inception_4a/output_0_split
I0410 20:03:38.648097 25951 net.cpp:131] Top shape: 50 512 14 14 (5017600)
I0410 20:03:38.648103 25951 net.cpp:131] Top shape: 50 512 14 14 (5017600)
I0410 20:03:38.648110 25951 net.cpp:131] Top shape: 50 512 14 14 (5017600)
I0410 20:03:38.648115 25951 net.cpp:131] Top shape: 50 512 14 14 (5017600)
I0410 20:03:38.648121 25951 net.cpp:131] Top shape: 50 512 14 14 (5017600)
I0410 20:03:38.648126 25951 net.cpp:139] Memory required for data: 1968154400
I0410 20:03:38.648131 25951 layer_factory.hpp:77] Creating layer loss1/ave_pool
I0410 20:03:38.648138 25951 net.cpp:86] Creating Layer loss1/ave_pool
I0410 20:03:38.648144 25951 net.cpp:408] loss1/ave_pool <- inception_4a/output_inception_4a/output_0_split_0
I0410 20:03:38.648151 25951 net.cpp:382] loss1/ave_pool -> loss1/ave_pool
I0410 20:03:38.648175 25951 net.cpp:124] Setting up loss1/ave_pool
I0410 20:03:38.648193 25951 net.cpp:131] Top shape: 50 512 4 4 (409600)
I0410 20:03:38.648198 25951 net.cpp:139] Memory required for data: 1969792800
I0410 20:03:38.648203 25951 layer_factory.hpp:77] Creating layer loss1/conv
I0410 20:03:38.648214 25951 net.cpp:86] Creating Layer loss1/conv
I0410 20:03:38.648219 25951 net.cpp:408] loss1/conv <- loss1/ave_pool
I0410 20:03:38.648227 25951 net.cpp:382] loss1/conv -> loss1/conv
I0410 20:03:38.648924 25951 net.cpp:124] Setting up loss1/conv
I0410 20:03:38.648934 25951 net.cpp:131] Top shape: 50 128 4 4 (102400)
I0410 20:03:38.648939 25951 net.cpp:139] Memory required for data: 1970202400
I0410 20:03:38.648947 25951 layer_factory.hpp:77] Creating layer loss1/relu_conv
I0410 20:03:38.648954 25951 net.cpp:86] Creating Layer loss1/relu_conv
I0410 20:03:38.648962 25951 net.cpp:408] loss1/relu_conv <- loss1/conv
I0410 20:03:38.648967 25951 net.cpp:369] loss1/relu_conv -> loss1/conv (in-place)
I0410 20:03:38.648975 25951 net.cpp:124] Setting up loss1/relu_conv
I0410 20:03:38.648982 25951 net.cpp:131] Top shape: 50 128 4 4 (102400)
I0410 20:03:38.648986 25951 net.cpp:139] Memory required for data: 1970612000
I0410 20:03:38.648991 25951 layer_factory.hpp:77] Creating layer loss1/fc
I0410 20:03:38.649000 25951 net.cpp:86] Creating Layer loss1/fc
I0410 20:03:38.649005 25951 net.cpp:408] loss1/fc <- loss1/conv
I0410 20:03:38.649013 25951 net.cpp:382] loss1/fc -> loss1/fc
I0410 20:03:38.670433 25951 net.cpp:124] Setting up loss1/fc
I0410 20:03:38.670461 25951 net.cpp:131] Top shape: 50 1024 (51200)
I0410 20:03:38.670466 25951 net.cpp:139] Memory required for data: 1970816800
I0410 20:03:38.670480 25951 layer_factory.hpp:77] Creating layer loss1/relu_fc
I0410 20:03:38.670492 25951 net.cpp:86] Creating Layer loss1/relu_fc
I0410 20:03:38.670500 25951 net.cpp:408] loss1/relu_fc <- loss1/fc
I0410 20:03:38.670507 25951 net.cpp:369] loss1/relu_fc -> loss1/fc (in-place)
I0410 20:03:38.670518 25951 net.cpp:124] Setting up loss1/relu_fc
I0410 20:03:38.670523 25951 net.cpp:131] Top shape: 50 1024 (51200)
I0410 20:03:38.670527 25951 net.cpp:139] Memory required for data: 1971021600
I0410 20:03:38.670532 25951 layer_factory.hpp:77] Creating layer loss1/drop_fc
I0410 20:03:38.670555 25951 net.cpp:86] Creating Layer loss1/drop_fc
I0410 20:03:38.670560 25951 net.cpp:408] loss1/drop_fc <- loss1/fc
I0410 20:03:38.670565 25951 net.cpp:369] loss1/drop_fc -> loss1/fc (in-place)
I0410 20:03:38.670599 25951 net.cpp:124] Setting up loss1/drop_fc
I0410 20:03:38.670608 25951 net.cpp:131] Top shape: 50 1024 (51200)
I0410 20:03:38.670613 25951 net.cpp:139] Memory required for data: 1971226400
I0410 20:03:38.670617 25951 layer_factory.hpp:77] Creating layer loss1/classifier-bird
I0410 20:03:38.670627 25951 net.cpp:86] Creating Layer loss1/classifier-bird
I0410 20:03:38.670634 25951 net.cpp:408] loss1/classifier-bird <- loss1/fc
I0410 20:03:38.670641 25951 net.cpp:382] loss1/classifier-bird -> loss1/classifier
I0410 20:03:38.670774 25951 net.cpp:124] Setting up loss1/classifier-bird
I0410 20:03:38.670781 25951 net.cpp:131] Top shape: 50 4 (200)
I0410 20:03:38.670786 25951 net.cpp:139] Memory required for data: 1971227200
I0410 20:03:38.670794 25951 layer_factory.hpp:77] Creating layer loss1/loss
I0410 20:03:38.670801 25951 net.cpp:86] Creating Layer loss1/loss
I0410 20:03:38.670807 25951 net.cpp:408] loss1/loss <- loss1/classifier
I0410 20:03:38.670814 25951 net.cpp:408] loss1/loss <- label_data_1_split_0
I0410 20:03:38.670820 25951 net.cpp:382] loss1/loss -> loss1/loss1
I0410 20:03:38.670830 25951 layer_factory.hpp:77] Creating layer loss1/loss
I0410 20:03:38.670953 25951 net.cpp:124] Setting up loss1/loss
I0410 20:03:38.670964 25951 net.cpp:131] Top shape: (1)
I0410 20:03:38.670967 25951 net.cpp:134]     with loss weight 0.3
I0410 20:03:38.670990 25951 net.cpp:139] Memory required for data: 1971227204
I0410 20:03:38.670995 25951 layer_factory.hpp:77] Creating layer inception_4b/1x1
I0410 20:03:38.671010 25951 net.cpp:86] Creating Layer inception_4b/1x1
I0410 20:03:38.671015 25951 net.cpp:408] inception_4b/1x1 <- inception_4a/output_inception_4a/output_0_split_1
I0410 20:03:38.671063 25951 net.cpp:382] inception_4b/1x1 -> inception_4b/1x1
I0410 20:03:38.671835 25951 net.cpp:124] Setting up inception_4b/1x1
I0410 20:03:38.671846 25951 net.cpp:131] Top shape: 50 160 14 14 (1568000)
I0410 20:03:38.671851 25951 net.cpp:139] Memory required for data: 1977499204
I0410 20:03:38.671859 25951 layer_factory.hpp:77] Creating layer inception_4b/relu_1x1
I0410 20:03:38.671866 25951 net.cpp:86] Creating Layer inception_4b/relu_1x1
I0410 20:03:38.671872 25951 net.cpp:408] inception_4b/relu_1x1 <- inception_4b/1x1
I0410 20:03:38.671880 25951 net.cpp:369] inception_4b/relu_1x1 -> inception_4b/1x1 (in-place)
I0410 20:03:38.671887 25951 net.cpp:124] Setting up inception_4b/relu_1x1
I0410 20:03:38.671893 25951 net.cpp:131] Top shape: 50 160 14 14 (1568000)
I0410 20:03:38.671898 25951 net.cpp:139] Memory required for data: 1983771204
I0410 20:03:38.671902 25951 layer_factory.hpp:77] Creating layer inception_4b/3x3_reduce
I0410 20:03:38.671912 25951 net.cpp:86] Creating Layer inception_4b/3x3_reduce
I0410 20:03:38.671917 25951 net.cpp:408] inception_4b/3x3_reduce <- inception_4a/output_inception_4a/output_0_split_2
I0410 20:03:38.671926 25951 net.cpp:382] inception_4b/3x3_reduce -> inception_4b/3x3_reduce
I0410 20:03:38.672526 25951 net.cpp:124] Setting up inception_4b/3x3_reduce
I0410 20:03:38.672535 25951 net.cpp:131] Top shape: 50 112 14 14 (1097600)
I0410 20:03:38.672540 25951 net.cpp:139] Memory required for data: 1988161604
I0410 20:03:38.672549 25951 layer_factory.hpp:77] Creating layer inception_4b/relu_3x3_reduce
I0410 20:03:38.672555 25951 net.cpp:86] Creating Layer inception_4b/relu_3x3_reduce
I0410 20:03:38.672560 25951 net.cpp:408] inception_4b/relu_3x3_reduce <- inception_4b/3x3_reduce
I0410 20:03:38.672566 25951 net.cpp:369] inception_4b/relu_3x3_reduce -> inception_4b/3x3_reduce (in-place)
I0410 20:03:38.672574 25951 net.cpp:124] Setting up inception_4b/relu_3x3_reduce
I0410 20:03:38.672580 25951 net.cpp:131] Top shape: 50 112 14 14 (1097600)
I0410 20:03:38.672585 25951 net.cpp:139] Memory required for data: 1992552004
I0410 20:03:38.672588 25951 layer_factory.hpp:77] Creating layer inception_4b/3x3
I0410 20:03:38.672600 25951 net.cpp:86] Creating Layer inception_4b/3x3
I0410 20:03:38.672605 25951 net.cpp:408] inception_4b/3x3 <- inception_4b/3x3_reduce
I0410 20:03:38.672611 25951 net.cpp:382] inception_4b/3x3 -> inception_4b/3x3
I0410 20:03:38.674280 25951 net.cpp:124] Setting up inception_4b/3x3
I0410 20:03:38.674290 25951 net.cpp:131] Top shape: 50 224 14 14 (2195200)
I0410 20:03:38.674295 25951 net.cpp:139] Memory required for data: 2001332804
I0410 20:03:38.674302 25951 layer_factory.hpp:77] Creating layer inception_4b/relu_3x3
I0410 20:03:38.674309 25951 net.cpp:86] Creating Layer inception_4b/relu_3x3
I0410 20:03:38.674315 25951 net.cpp:408] inception_4b/relu_3x3 <- inception_4b/3x3
I0410 20:03:38.674321 25951 net.cpp:369] inception_4b/relu_3x3 -> inception_4b/3x3 (in-place)
I0410 20:03:38.674329 25951 net.cpp:124] Setting up inception_4b/relu_3x3
I0410 20:03:38.674336 25951 net.cpp:131] Top shape: 50 224 14 14 (2195200)
I0410 20:03:38.674341 25951 net.cpp:139] Memory required for data: 2010113604
I0410 20:03:38.674346 25951 layer_factory.hpp:77] Creating layer inception_4b/5x5_reduce
I0410 20:03:38.674355 25951 net.cpp:86] Creating Layer inception_4b/5x5_reduce
I0410 20:03:38.674360 25951 net.cpp:408] inception_4b/5x5_reduce <- inception_4a/output_inception_4a/output_0_split_3
I0410 20:03:38.674368 25951 net.cpp:382] inception_4b/5x5_reduce -> inception_4b/5x5_reduce
I0410 20:03:38.674664 25951 net.cpp:124] Setting up inception_4b/5x5_reduce
I0410 20:03:38.674674 25951 net.cpp:131] Top shape: 50 24 14 14 (235200)
I0410 20:03:38.674679 25951 net.cpp:139] Memory required for data: 2011054404
I0410 20:03:38.674686 25951 layer_factory.hpp:77] Creating layer inception_4b/relu_5x5_reduce
I0410 20:03:38.674692 25951 net.cpp:86] Creating Layer inception_4b/relu_5x5_reduce
I0410 20:03:38.674697 25951 net.cpp:408] inception_4b/relu_5x5_reduce <- inception_4b/5x5_reduce
I0410 20:03:38.674715 25951 net.cpp:369] inception_4b/relu_5x5_reduce -> inception_4b/5x5_reduce (in-place)
I0410 20:03:38.674724 25951 net.cpp:124] Setting up inception_4b/relu_5x5_reduce
I0410 20:03:38.674731 25951 net.cpp:131] Top shape: 50 24 14 14 (235200)
I0410 20:03:38.674736 25951 net.cpp:139] Memory required for data: 2011995204
I0410 20:03:38.674741 25951 layer_factory.hpp:77] Creating layer inception_4b/5x5
I0410 20:03:38.674751 25951 net.cpp:86] Creating Layer inception_4b/5x5
I0410 20:03:38.674756 25951 net.cpp:408] inception_4b/5x5 <- inception_4b/5x5_reduce
I0410 20:03:38.674762 25951 net.cpp:382] inception_4b/5x5 -> inception_4b/5x5
I0410 20:03:38.675241 25951 net.cpp:124] Setting up inception_4b/5x5
I0410 20:03:38.675252 25951 net.cpp:131] Top shape: 50 64 14 14 (627200)
I0410 20:03:38.675257 25951 net.cpp:139] Memory required for data: 2014504004
I0410 20:03:38.675264 25951 layer_factory.hpp:77] Creating layer inception_4b/relu_5x5
I0410 20:03:38.675271 25951 net.cpp:86] Creating Layer inception_4b/relu_5x5
I0410 20:03:38.675277 25951 net.cpp:408] inception_4b/relu_5x5 <- inception_4b/5x5
I0410 20:03:38.675284 25951 net.cpp:369] inception_4b/relu_5x5 -> inception_4b/5x5 (in-place)
I0410 20:03:38.675292 25951 net.cpp:124] Setting up inception_4b/relu_5x5
I0410 20:03:38.675298 25951 net.cpp:131] Top shape: 50 64 14 14 (627200)
I0410 20:03:38.675304 25951 net.cpp:139] Memory required for data: 2017012804
I0410 20:03:38.675309 25951 layer_factory.hpp:77] Creating layer inception_4b/pool
I0410 20:03:38.675318 25951 net.cpp:86] Creating Layer inception_4b/pool
I0410 20:03:38.675323 25951 net.cpp:408] inception_4b/pool <- inception_4a/output_inception_4a/output_0_split_4
I0410 20:03:38.675330 25951 net.cpp:382] inception_4b/pool -> inception_4b/pool
I0410 20:03:38.675387 25951 net.cpp:124] Setting up inception_4b/pool
I0410 20:03:38.675395 25951 net.cpp:131] Top shape: 50 512 14 14 (5017600)
I0410 20:03:38.675400 25951 net.cpp:139] Memory required for data: 2037083204
I0410 20:03:38.675406 25951 layer_factory.hpp:77] Creating layer inception_4b/pool_proj
I0410 20:03:38.675415 25951 net.cpp:86] Creating Layer inception_4b/pool_proj
I0410 20:03:38.675421 25951 net.cpp:408] inception_4b/pool_proj <- inception_4b/pool
I0410 20:03:38.675428 25951 net.cpp:382] inception_4b/pool_proj -> inception_4b/pool_proj
I0410 20:03:38.675858 25951 net.cpp:124] Setting up inception_4b/pool_proj
I0410 20:03:38.675868 25951 net.cpp:131] Top shape: 50 64 14 14 (627200)
I0410 20:03:38.675871 25951 net.cpp:139] Memory required for data: 2039592004
I0410 20:03:38.675879 25951 layer_factory.hpp:77] Creating layer inception_4b/relu_pool_proj
I0410 20:03:38.675887 25951 net.cpp:86] Creating Layer inception_4b/relu_pool_proj
I0410 20:03:38.675892 25951 net.cpp:408] inception_4b/relu_pool_proj <- inception_4b/pool_proj
I0410 20:03:38.675899 25951 net.cpp:369] inception_4b/relu_pool_proj -> inception_4b/pool_proj (in-place)
I0410 20:03:38.675905 25951 net.cpp:124] Setting up inception_4b/relu_pool_proj
I0410 20:03:38.675912 25951 net.cpp:131] Top shape: 50 64 14 14 (627200)
I0410 20:03:38.675916 25951 net.cpp:139] Memory required for data: 2042100804
I0410 20:03:38.675921 25951 layer_factory.hpp:77] Creating layer inception_4b/output
I0410 20:03:38.675930 25951 net.cpp:86] Creating Layer inception_4b/output
I0410 20:03:38.675935 25951 net.cpp:408] inception_4b/output <- inception_4b/1x1
I0410 20:03:38.675940 25951 net.cpp:408] inception_4b/output <- inception_4b/3x3
I0410 20:03:38.675946 25951 net.cpp:408] inception_4b/output <- inception_4b/5x5
I0410 20:03:38.675951 25951 net.cpp:408] inception_4b/output <- inception_4b/pool_proj
I0410 20:03:38.675958 25951 net.cpp:382] inception_4b/output -> inception_4b/output
I0410 20:03:38.675986 25951 net.cpp:124] Setting up inception_4b/output
I0410 20:03:38.675992 25951 net.cpp:131] Top shape: 50 512 14 14 (5017600)
I0410 20:03:38.675997 25951 net.cpp:139] Memory required for data: 2062171204
I0410 20:03:38.676002 25951 layer_factory.hpp:77] Creating layer inception_4b/output_inception_4b/output_0_split
I0410 20:03:38.676021 25951 net.cpp:86] Creating Layer inception_4b/output_inception_4b/output_0_split
I0410 20:03:38.676028 25951 net.cpp:408] inception_4b/output_inception_4b/output_0_split <- inception_4b/output
I0410 20:03:38.676035 25951 net.cpp:382] inception_4b/output_inception_4b/output_0_split -> inception_4b/output_inception_4b/output_0_split_0
I0410 20:03:38.676044 25951 net.cpp:382] inception_4b/output_inception_4b/output_0_split -> inception_4b/output_inception_4b/output_0_split_1
I0410 20:03:38.676054 25951 net.cpp:382] inception_4b/output_inception_4b/output_0_split -> inception_4b/output_inception_4b/output_0_split_2
I0410 20:03:38.676061 25951 net.cpp:382] inception_4b/output_inception_4b/output_0_split -> inception_4b/output_inception_4b/output_0_split_3
I0410 20:03:38.676117 25951 net.cpp:124] Setting up inception_4b/output_inception_4b/output_0_split
I0410 20:03:38.676126 25951 net.cpp:131] Top shape: 50 512 14 14 (5017600)
I0410 20:03:38.676131 25951 net.cpp:131] Top shape: 50 512 14 14 (5017600)
I0410 20:03:38.676137 25951 net.cpp:131] Top shape: 50 512 14 14 (5017600)
I0410 20:03:38.676143 25951 net.cpp:131] Top shape: 50 512 14 14 (5017600)
I0410 20:03:38.676148 25951 net.cpp:139] Memory required for data: 2142452804
I0410 20:03:38.676153 25951 layer_factory.hpp:77] Creating layer inception_4c/1x1
I0410 20:03:38.676163 25951 net.cpp:86] Creating Layer inception_4c/1x1
I0410 20:03:38.676168 25951 net.cpp:408] inception_4c/1x1 <- inception_4b/output_inception_4b/output_0_split_0
I0410 20:03:38.676177 25951 net.cpp:382] inception_4c/1x1 -> inception_4c/1x1
I0410 20:03:38.676812 25951 net.cpp:124] Setting up inception_4c/1x1
I0410 20:03:38.676821 25951 net.cpp:131] Top shape: 50 128 14 14 (1254400)
I0410 20:03:38.676826 25951 net.cpp:139] Memory required for data: 2147470404
I0410 20:03:38.676836 25951 layer_factory.hpp:77] Creating layer inception_4c/relu_1x1
I0410 20:03:38.676841 25951 net.cpp:86] Creating Layer inception_4c/relu_1x1
I0410 20:03:38.676846 25951 net.cpp:408] inception_4c/relu_1x1 <- inception_4c/1x1
I0410 20:03:38.676852 25951 net.cpp:369] inception_4c/relu_1x1 -> inception_4c/1x1 (in-place)
I0410 20:03:38.676861 25951 net.cpp:124] Setting up inception_4c/relu_1x1
I0410 20:03:38.676867 25951 net.cpp:131] Top shape: 50 128 14 14 (1254400)
I0410 20:03:38.676872 25951 net.cpp:139] Memory required for data: 2152488004
I0410 20:03:38.676877 25951 layer_factory.hpp:77] Creating layer inception_4c/3x3_reduce
I0410 20:03:38.676885 25951 net.cpp:86] Creating Layer inception_4c/3x3_reduce
I0410 20:03:38.676890 25951 net.cpp:408] inception_4c/3x3_reduce <- inception_4b/output_inception_4b/output_0_split_1
I0410 20:03:38.676898 25951 net.cpp:382] inception_4c/3x3_reduce -> inception_4c/3x3_reduce
I0410 20:03:38.677542 25951 net.cpp:124] Setting up inception_4c/3x3_reduce
I0410 20:03:38.677552 25951 net.cpp:131] Top shape: 50 128 14 14 (1254400)
I0410 20:03:38.677557 25951 net.cpp:139] Memory required for data: 2157505604
I0410 20:03:38.677564 25951 layer_factory.hpp:77] Creating layer inception_4c/relu_3x3_reduce
I0410 20:03:38.677570 25951 net.cpp:86] Creating Layer inception_4c/relu_3x3_reduce
I0410 20:03:38.677577 25951 net.cpp:408] inception_4c/relu_3x3_reduce <- inception_4c/3x3_reduce
I0410 20:03:38.677583 25951 net.cpp:369] inception_4c/relu_3x3_reduce -> inception_4c/3x3_reduce (in-place)
I0410 20:03:38.677590 25951 net.cpp:124] Setting up inception_4c/relu_3x3_reduce
I0410 20:03:38.677597 25951 net.cpp:131] Top shape: 50 128 14 14 (1254400)
I0410 20:03:38.677603 25951 net.cpp:139] Memory required for data: 2162523204
I0410 20:03:38.677608 25951 layer_factory.hpp:77] Creating layer inception_4c/3x3
I0410 20:03:38.677616 25951 net.cpp:86] Creating Layer inception_4c/3x3
I0410 20:03:38.677621 25951 net.cpp:408] inception_4c/3x3 <- inception_4c/3x3_reduce
I0410 20:03:38.677629 25951 net.cpp:382] inception_4c/3x3 -> inception_4c/3x3
I0410 20:03:38.680683 25951 net.cpp:124] Setting up inception_4c/3x3
I0410 20:03:38.680701 25951 net.cpp:131] Top shape: 50 256 14 14 (2508800)
I0410 20:03:38.680717 25951 net.cpp:139] Memory required for data: 2172558404
I0410 20:03:38.680737 25951 layer_factory.hpp:77] Creating layer inception_4c/relu_3x3
I0410 20:03:38.680745 25951 net.cpp:86] Creating Layer inception_4c/relu_3x3
I0410 20:03:38.680752 25951 net.cpp:408] inception_4c/relu_3x3 <- inception_4c/3x3
I0410 20:03:38.680759 25951 net.cpp:369] inception_4c/relu_3x3 -> inception_4c/3x3 (in-place)
I0410 20:03:38.680769 25951 net.cpp:124] Setting up inception_4c/relu_3x3
I0410 20:03:38.680775 25951 net.cpp:131] Top shape: 50 256 14 14 (2508800)
I0410 20:03:38.680780 25951 net.cpp:139] Memory required for data: 2182593604
I0410 20:03:38.680784 25951 layer_factory.hpp:77] Creating layer inception_4c/5x5_reduce
I0410 20:03:38.680796 25951 net.cpp:86] Creating Layer inception_4c/5x5_reduce
I0410 20:03:38.680801 25951 net.cpp:408] inception_4c/5x5_reduce <- inception_4b/output_inception_4b/output_0_split_2
I0410 20:03:38.680809 25951 net.cpp:382] inception_4c/5x5_reduce -> inception_4c/5x5_reduce
I0410 20:03:38.681118 25951 net.cpp:124] Setting up inception_4c/5x5_reduce
I0410 20:03:38.681128 25951 net.cpp:131] Top shape: 50 24 14 14 (235200)
I0410 20:03:38.681133 25951 net.cpp:139] Memory required for data: 2183534404
I0410 20:03:38.681140 25951 layer_factory.hpp:77] Creating layer inception_4c/relu_5x5_reduce
I0410 20:03:38.681147 25951 net.cpp:86] Creating Layer inception_4c/relu_5x5_reduce
I0410 20:03:38.681154 25951 net.cpp:408] inception_4c/relu_5x5_reduce <- inception_4c/5x5_reduce
I0410 20:03:38.681160 25951 net.cpp:369] inception_4c/relu_5x5_reduce -> inception_4c/5x5_reduce (in-place)
I0410 20:03:38.681169 25951 net.cpp:124] Setting up inception_4c/relu_5x5_reduce
I0410 20:03:38.681174 25951 net.cpp:131] Top shape: 50 24 14 14 (235200)
I0410 20:03:38.681180 25951 net.cpp:139] Memory required for data: 2184475204
I0410 20:03:38.681183 25951 layer_factory.hpp:77] Creating layer inception_4c/5x5
I0410 20:03:38.681193 25951 net.cpp:86] Creating Layer inception_4c/5x5
I0410 20:03:38.681198 25951 net.cpp:408] inception_4c/5x5 <- inception_4c/5x5_reduce
I0410 20:03:38.681207 25951 net.cpp:382] inception_4c/5x5 -> inception_4c/5x5
I0410 20:03:38.682530 25951 net.cpp:124] Setting up inception_4c/5x5
I0410 20:03:38.682545 25951 net.cpp:131] Top shape: 50 64 14 14 (627200)
I0410 20:03:38.682550 25951 net.cpp:139] Memory required for data: 2186984004
I0410 20:03:38.682561 25951 layer_factory.hpp:77] Creating layer inception_4c/relu_5x5
I0410 20:03:38.682569 25951 net.cpp:86] Creating Layer inception_4c/relu_5x5
I0410 20:03:38.682575 25951 net.cpp:408] inception_4c/relu_5x5 <- inception_4c/5x5
I0410 20:03:38.682584 25951 net.cpp:369] inception_4c/relu_5x5 -> inception_4c/5x5 (in-place)
I0410 20:03:38.682593 25951 net.cpp:124] Setting up inception_4c/relu_5x5
I0410 20:03:38.682600 25951 net.cpp:131] Top shape: 50 64 14 14 (627200)
I0410 20:03:38.682605 25951 net.cpp:139] Memory required for data: 2189492804
I0410 20:03:38.682608 25951 layer_factory.hpp:77] Creating layer inception_4c/pool
I0410 20:03:38.682617 25951 net.cpp:86] Creating Layer inception_4c/pool
I0410 20:03:38.682622 25951 net.cpp:408] inception_4c/pool <- inception_4b/output_inception_4b/output_0_split_3
I0410 20:03:38.682629 25951 net.cpp:382] inception_4c/pool -> inception_4c/pool
I0410 20:03:38.682672 25951 net.cpp:124] Setting up inception_4c/pool
I0410 20:03:38.682679 25951 net.cpp:131] Top shape: 50 512 14 14 (5017600)
I0410 20:03:38.682684 25951 net.cpp:139] Memory required for data: 2209563204
I0410 20:03:38.682689 25951 layer_factory.hpp:77] Creating layer inception_4c/pool_proj
I0410 20:03:38.682700 25951 net.cpp:86] Creating Layer inception_4c/pool_proj
I0410 20:03:38.682708 25951 net.cpp:408] inception_4c/pool_proj <- inception_4c/pool
I0410 20:03:38.682714 25951 net.cpp:382] inception_4c/pool_proj -> inception_4c/pool_proj
I0410 20:03:38.683151 25951 net.cpp:124] Setting up inception_4c/pool_proj
I0410 20:03:38.683161 25951 net.cpp:131] Top shape: 50 64 14 14 (627200)
I0410 20:03:38.683166 25951 net.cpp:139] Memory required for data: 2212072004
I0410 20:03:38.683185 25951 layer_factory.hpp:77] Creating layer inception_4c/relu_pool_proj
I0410 20:03:38.683192 25951 net.cpp:86] Creating Layer inception_4c/relu_pool_proj
I0410 20:03:38.683198 25951 net.cpp:408] inception_4c/relu_pool_proj <- inception_4c/pool_proj
I0410 20:03:38.683207 25951 net.cpp:369] inception_4c/relu_pool_proj -> inception_4c/pool_proj (in-place)
I0410 20:03:38.683214 25951 net.cpp:124] Setting up inception_4c/relu_pool_proj
I0410 20:03:38.683221 25951 net.cpp:131] Top shape: 50 64 14 14 (627200)
I0410 20:03:38.683225 25951 net.cpp:139] Memory required for data: 2214580804
I0410 20:03:38.683230 25951 layer_factory.hpp:77] Creating layer inception_4c/output
I0410 20:03:38.683238 25951 net.cpp:86] Creating Layer inception_4c/output
I0410 20:03:38.683243 25951 net.cpp:408] inception_4c/output <- inception_4c/1x1
I0410 20:03:38.683248 25951 net.cpp:408] inception_4c/output <- inception_4c/3x3
I0410 20:03:38.683255 25951 net.cpp:408] inception_4c/output <- inception_4c/5x5
I0410 20:03:38.683260 25951 net.cpp:408] inception_4c/output <- inception_4c/pool_proj
I0410 20:03:38.683275 25951 net.cpp:382] inception_4c/output -> inception_4c/output
I0410 20:03:38.683303 25951 net.cpp:124] Setting up inception_4c/output
I0410 20:03:38.683311 25951 net.cpp:131] Top shape: 50 512 14 14 (5017600)
I0410 20:03:38.683316 25951 net.cpp:139] Memory required for data: 2234651204
I0410 20:03:38.683320 25951 layer_factory.hpp:77] Creating layer inception_4c/output_inception_4c/output_0_split
I0410 20:03:38.683327 25951 net.cpp:86] Creating Layer inception_4c/output_inception_4c/output_0_split
I0410 20:03:38.683334 25951 net.cpp:408] inception_4c/output_inception_4c/output_0_split <- inception_4c/output
I0410 20:03:38.683341 25951 net.cpp:382] inception_4c/output_inception_4c/output_0_split -> inception_4c/output_inception_4c/output_0_split_0
I0410 20:03:38.683351 25951 net.cpp:382] inception_4c/output_inception_4c/output_0_split -> inception_4c/output_inception_4c/output_0_split_1
I0410 20:03:38.683358 25951 net.cpp:382] inception_4c/output_inception_4c/output_0_split -> inception_4c/output_inception_4c/output_0_split_2
I0410 20:03:38.683367 25951 net.cpp:382] inception_4c/output_inception_4c/output_0_split -> inception_4c/output_inception_4c/output_0_split_3
I0410 20:03:38.683423 25951 net.cpp:124] Setting up inception_4c/output_inception_4c/output_0_split
I0410 20:03:38.683431 25951 net.cpp:131] Top shape: 50 512 14 14 (5017600)
I0410 20:03:38.683436 25951 net.cpp:131] Top shape: 50 512 14 14 (5017600)
I0410 20:03:38.683444 25951 net.cpp:131] Top shape: 50 512 14 14 (5017600)
I0410 20:03:38.683449 25951 net.cpp:131] Top shape: 50 512 14 14 (5017600)
I0410 20:03:38.683452 25951 net.cpp:139] Memory required for data: 2314932804
I0410 20:03:38.683457 25951 layer_factory.hpp:77] Creating layer inception_4d/1x1
I0410 20:03:38.683468 25951 net.cpp:86] Creating Layer inception_4d/1x1
I0410 20:03:38.683473 25951 net.cpp:408] inception_4d/1x1 <- inception_4c/output_inception_4c/output_0_split_0
I0410 20:03:38.683480 25951 net.cpp:382] inception_4d/1x1 -> inception_4d/1x1
I0410 20:03:38.684085 25951 net.cpp:124] Setting up inception_4d/1x1
I0410 20:03:38.684095 25951 net.cpp:131] Top shape: 50 112 14 14 (1097600)
I0410 20:03:38.684100 25951 net.cpp:139] Memory required for data: 2319323204
I0410 20:03:38.684108 25951 layer_factory.hpp:77] Creating layer inception_4d/relu_1x1
I0410 20:03:38.684114 25951 net.cpp:86] Creating Layer inception_4d/relu_1x1
I0410 20:03:38.684120 25951 net.cpp:408] inception_4d/relu_1x1 <- inception_4d/1x1
I0410 20:03:38.684126 25951 net.cpp:369] inception_4d/relu_1x1 -> inception_4d/1x1 (in-place)
I0410 20:03:38.684134 25951 net.cpp:124] Setting up inception_4d/relu_1x1
I0410 20:03:38.684139 25951 net.cpp:131] Top shape: 50 112 14 14 (1097600)
I0410 20:03:38.684145 25951 net.cpp:139] Memory required for data: 2323713604
I0410 20:03:38.684149 25951 layer_factory.hpp:77] Creating layer inception_4d/3x3_reduce
I0410 20:03:38.684159 25951 net.cpp:86] Creating Layer inception_4d/3x3_reduce
I0410 20:03:38.684173 25951 net.cpp:408] inception_4d/3x3_reduce <- inception_4c/output_inception_4c/output_0_split_1
I0410 20:03:38.684182 25951 net.cpp:382] inception_4d/3x3_reduce -> inception_4d/3x3_reduce
I0410 20:03:38.684872 25951 net.cpp:124] Setting up inception_4d/3x3_reduce
I0410 20:03:38.684882 25951 net.cpp:131] Top shape: 50 144 14 14 (1411200)
I0410 20:03:38.684887 25951 net.cpp:139] Memory required for data: 2329358404
I0410 20:03:38.684895 25951 layer_factory.hpp:77] Creating layer inception_4d/relu_3x3_reduce
I0410 20:03:38.684901 25951 net.cpp:86] Creating Layer inception_4d/relu_3x3_reduce
I0410 20:03:38.684907 25951 net.cpp:408] inception_4d/relu_3x3_reduce <- inception_4d/3x3_reduce
I0410 20:03:38.684914 25951 net.cpp:369] inception_4d/relu_3x3_reduce -> inception_4d/3x3_reduce (in-place)
I0410 20:03:38.684922 25951 net.cpp:124] Setting up inception_4d/relu_3x3_reduce
I0410 20:03:38.684928 25951 net.cpp:131] Top shape: 50 144 14 14 (1411200)
I0410 20:03:38.684934 25951 net.cpp:139] Memory required for data: 2335003204
I0410 20:03:38.684938 25951 layer_factory.hpp:77] Creating layer inception_4d/3x3
I0410 20:03:38.684948 25951 net.cpp:86] Creating Layer inception_4d/3x3
I0410 20:03:38.684953 25951 net.cpp:408] inception_4d/3x3 <- inception_4d/3x3_reduce
I0410 20:03:38.684959 25951 net.cpp:382] inception_4d/3x3 -> inception_4d/3x3
I0410 20:03:38.688393 25951 net.cpp:124] Setting up inception_4d/3x3
I0410 20:03:38.688410 25951 net.cpp:131] Top shape: 50 288 14 14 (2822400)
I0410 20:03:38.688413 25951 net.cpp:139] Memory required for data: 2346292804
I0410 20:03:38.688421 25951 layer_factory.hpp:77] Creating layer inception_4d/relu_3x3
I0410 20:03:38.688428 25951 net.cpp:86] Creating Layer inception_4d/relu_3x3
I0410 20:03:38.688436 25951 net.cpp:408] inception_4d/relu_3x3 <- inception_4d/3x3
I0410 20:03:38.688442 25951 net.cpp:369] inception_4d/relu_3x3 -> inception_4d/3x3 (in-place)
I0410 20:03:38.688450 25951 net.cpp:124] Setting up inception_4d/relu_3x3
I0410 20:03:38.688457 25951 net.cpp:131] Top shape: 50 288 14 14 (2822400)
I0410 20:03:38.688462 25951 net.cpp:139] Memory required for data: 2357582404
I0410 20:03:38.688465 25951 layer_factory.hpp:77] Creating layer inception_4d/5x5_reduce
I0410 20:03:38.688478 25951 net.cpp:86] Creating Layer inception_4d/5x5_reduce
I0410 20:03:38.688482 25951 net.cpp:408] inception_4d/5x5_reduce <- inception_4c/output_inception_4c/output_0_split_2
I0410 20:03:38.688491 25951 net.cpp:382] inception_4d/5x5_reduce -> inception_4d/5x5_reduce
I0410 20:03:38.688814 25951 net.cpp:124] Setting up inception_4d/5x5_reduce
I0410 20:03:38.688823 25951 net.cpp:131] Top shape: 50 32 14 14 (313600)
I0410 20:03:38.688828 25951 net.cpp:139] Memory required for data: 2358836804
I0410 20:03:38.688837 25951 layer_factory.hpp:77] Creating layer inception_4d/relu_5x5_reduce
I0410 20:03:38.688843 25951 net.cpp:86] Creating Layer inception_4d/relu_5x5_reduce
I0410 20:03:38.688848 25951 net.cpp:408] inception_4d/relu_5x5_reduce <- inception_4d/5x5_reduce
I0410 20:03:38.688854 25951 net.cpp:369] inception_4d/relu_5x5_reduce -> inception_4d/5x5_reduce (in-place)
I0410 20:03:38.688863 25951 net.cpp:124] Setting up inception_4d/relu_5x5_reduce
I0410 20:03:38.688868 25951 net.cpp:131] Top shape: 50 32 14 14 (313600)
I0410 20:03:38.688872 25951 net.cpp:139] Memory required for data: 2360091204
I0410 20:03:38.688877 25951 layer_factory.hpp:77] Creating layer inception_4d/5x5
I0410 20:03:38.688886 25951 net.cpp:86] Creating Layer inception_4d/5x5
I0410 20:03:38.688891 25951 net.cpp:408] inception_4d/5x5 <- inception_4d/5x5_reduce
I0410 20:03:38.688899 25951 net.cpp:382] inception_4d/5x5 -> inception_4d/5x5
I0410 20:03:38.689430 25951 net.cpp:124] Setting up inception_4d/5x5
I0410 20:03:38.689440 25951 net.cpp:131] Top shape: 50 64 14 14 (627200)
I0410 20:03:38.689443 25951 net.cpp:139] Memory required for data: 2362600004
I0410 20:03:38.689451 25951 layer_factory.hpp:77] Creating layer inception_4d/relu_5x5
I0410 20:03:38.689457 25951 net.cpp:86] Creating Layer inception_4d/relu_5x5
I0410 20:03:38.689474 25951 net.cpp:408] inception_4d/relu_5x5 <- inception_4d/5x5
I0410 20:03:38.689482 25951 net.cpp:369] inception_4d/relu_5x5 -> inception_4d/5x5 (in-place)
I0410 20:03:38.689489 25951 net.cpp:124] Setting up inception_4d/relu_5x5
I0410 20:03:38.689496 25951 net.cpp:131] Top shape: 50 64 14 14 (627200)
I0410 20:03:38.689501 25951 net.cpp:139] Memory required for data: 2365108804
I0410 20:03:38.689504 25951 layer_factory.hpp:77] Creating layer inception_4d/pool
I0410 20:03:38.689512 25951 net.cpp:86] Creating Layer inception_4d/pool
I0410 20:03:38.689517 25951 net.cpp:408] inception_4d/pool <- inception_4c/output_inception_4c/output_0_split_3
I0410 20:03:38.689524 25951 net.cpp:382] inception_4d/pool -> inception_4d/pool
I0410 20:03:38.689563 25951 net.cpp:124] Setting up inception_4d/pool
I0410 20:03:38.689569 25951 net.cpp:131] Top shape: 50 512 14 14 (5017600)
I0410 20:03:38.689574 25951 net.cpp:139] Memory required for data: 2385179204
I0410 20:03:38.689579 25951 layer_factory.hpp:77] Creating layer inception_4d/pool_proj
I0410 20:03:38.689589 25951 net.cpp:86] Creating Layer inception_4d/pool_proj
I0410 20:03:38.689594 25951 net.cpp:408] inception_4d/pool_proj <- inception_4d/pool
I0410 20:03:38.689601 25951 net.cpp:382] inception_4d/pool_proj -> inception_4d/pool_proj
I0410 20:03:38.690018 25951 net.cpp:124] Setting up inception_4d/pool_proj
I0410 20:03:38.690027 25951 net.cpp:131] Top shape: 50 64 14 14 (627200)
I0410 20:03:38.690032 25951 net.cpp:139] Memory required for data: 2387688004
I0410 20:03:38.690038 25951 layer_factory.hpp:77] Creating layer inception_4d/relu_pool_proj
I0410 20:03:38.690045 25951 net.cpp:86] Creating Layer inception_4d/relu_pool_proj
I0410 20:03:38.690050 25951 net.cpp:408] inception_4d/relu_pool_proj <- inception_4d/pool_proj
I0410 20:03:38.690057 25951 net.cpp:369] inception_4d/relu_pool_proj -> inception_4d/pool_proj (in-place)
I0410 20:03:38.690064 25951 net.cpp:124] Setting up inception_4d/relu_pool_proj
I0410 20:03:38.690070 25951 net.cpp:131] Top shape: 50 64 14 14 (627200)
I0410 20:03:38.690074 25951 net.cpp:139] Memory required for data: 2390196804
I0410 20:03:38.690079 25951 layer_factory.hpp:77] Creating layer inception_4d/output
I0410 20:03:38.690086 25951 net.cpp:86] Creating Layer inception_4d/output
I0410 20:03:38.690091 25951 net.cpp:408] inception_4d/output <- inception_4d/1x1
I0410 20:03:38.690098 25951 net.cpp:408] inception_4d/output <- inception_4d/3x3
I0410 20:03:38.690102 25951 net.cpp:408] inception_4d/output <- inception_4d/5x5
I0410 20:03:38.690107 25951 net.cpp:408] inception_4d/output <- inception_4d/pool_proj
I0410 20:03:38.690115 25951 net.cpp:382] inception_4d/output -> inception_4d/output
I0410 20:03:38.690140 25951 net.cpp:124] Setting up inception_4d/output
I0410 20:03:38.690146 25951 net.cpp:131] Top shape: 50 528 14 14 (5174400)
I0410 20:03:38.690150 25951 net.cpp:139] Memory required for data: 2410894404
I0410 20:03:38.690155 25951 layer_factory.hpp:77] Creating layer inception_4d/output_inception_4d/output_0_split
I0410 20:03:38.690163 25951 net.cpp:86] Creating Layer inception_4d/output_inception_4d/output_0_split
I0410 20:03:38.690168 25951 net.cpp:408] inception_4d/output_inception_4d/output_0_split <- inception_4d/output
I0410 20:03:38.690176 25951 net.cpp:382] inception_4d/output_inception_4d/output_0_split -> inception_4d/output_inception_4d/output_0_split_0
I0410 20:03:38.690186 25951 net.cpp:382] inception_4d/output_inception_4d/output_0_split -> inception_4d/output_inception_4d/output_0_split_1
I0410 20:03:38.690193 25951 net.cpp:382] inception_4d/output_inception_4d/output_0_split -> inception_4d/output_inception_4d/output_0_split_2
I0410 20:03:38.690201 25951 net.cpp:382] inception_4d/output_inception_4d/output_0_split -> inception_4d/output_inception_4d/output_0_split_3
I0410 20:03:38.690208 25951 net.cpp:382] inception_4d/output_inception_4d/output_0_split -> inception_4d/output_inception_4d/output_0_split_4
I0410 20:03:38.690274 25951 net.cpp:124] Setting up inception_4d/output_inception_4d/output_0_split
I0410 20:03:38.690280 25951 net.cpp:131] Top shape: 50 528 14 14 (5174400)
I0410 20:03:38.690294 25951 net.cpp:131] Top shape: 50 528 14 14 (5174400)
I0410 20:03:38.690300 25951 net.cpp:131] Top shape: 50 528 14 14 (5174400)
I0410 20:03:38.690306 25951 net.cpp:131] Top shape: 50 528 14 14 (5174400)
I0410 20:03:38.690312 25951 net.cpp:131] Top shape: 50 528 14 14 (5174400)
I0410 20:03:38.690316 25951 net.cpp:139] Memory required for data: 2514382404
I0410 20:03:38.690321 25951 layer_factory.hpp:77] Creating layer loss2/ave_pool
I0410 20:03:38.690328 25951 net.cpp:86] Creating Layer loss2/ave_pool
I0410 20:03:38.690333 25951 net.cpp:408] loss2/ave_pool <- inception_4d/output_inception_4d/output_0_split_0
I0410 20:03:38.690340 25951 net.cpp:382] loss2/ave_pool -> loss2/ave_pool
I0410 20:03:38.690364 25951 net.cpp:124] Setting up loss2/ave_pool
I0410 20:03:38.690372 25951 net.cpp:131] Top shape: 50 528 4 4 (422400)
I0410 20:03:38.690376 25951 net.cpp:139] Memory required for data: 2516072004
I0410 20:03:38.690381 25951 layer_factory.hpp:77] Creating layer loss2/conv
I0410 20:03:38.690390 25951 net.cpp:86] Creating Layer loss2/conv
I0410 20:03:38.690395 25951 net.cpp:408] loss2/conv <- loss2/ave_pool
I0410 20:03:38.690402 25951 net.cpp:382] loss2/conv -> loss2/conv
I0410 20:03:38.691021 25951 net.cpp:124] Setting up loss2/conv
I0410 20:03:38.691030 25951 net.cpp:131] Top shape: 50 128 4 4 (102400)
I0410 20:03:38.691035 25951 net.cpp:139] Memory required for data: 2516481604
I0410 20:03:38.691046 25951 layer_factory.hpp:77] Creating layer loss2/relu_conv
I0410 20:03:38.691069 25951 net.cpp:86] Creating Layer loss2/relu_conv
I0410 20:03:38.691076 25951 net.cpp:408] loss2/relu_conv <- loss2/conv
I0410 20:03:38.691082 25951 net.cpp:369] loss2/relu_conv -> loss2/conv (in-place)
I0410 20:03:38.691089 25951 net.cpp:124] Setting up loss2/relu_conv
I0410 20:03:38.691094 25951 net.cpp:131] Top shape: 50 128 4 4 (102400)
I0410 20:03:38.691099 25951 net.cpp:139] Memory required for data: 2516891204
I0410 20:03:38.691104 25951 layer_factory.hpp:77] Creating layer loss2/fc
I0410 20:03:38.691113 25951 net.cpp:86] Creating Layer loss2/fc
I0410 20:03:38.691118 25951 net.cpp:408] loss2/fc <- loss2/conv
I0410 20:03:38.691124 25951 net.cpp:382] loss2/fc -> loss2/fc
I0410 20:03:38.707366 25951 net.cpp:124] Setting up loss2/fc
I0410 20:03:38.707401 25951 net.cpp:131] Top shape: 50 1024 (51200)
I0410 20:03:38.707408 25951 net.cpp:139] Memory required for data: 2517096004
I0410 20:03:38.707424 25951 layer_factory.hpp:77] Creating layer loss2/relu_fc
I0410 20:03:38.707443 25951 net.cpp:86] Creating Layer loss2/relu_fc
I0410 20:03:38.707454 25951 net.cpp:408] loss2/relu_fc <- loss2/fc
I0410 20:03:38.707468 25951 net.cpp:369] loss2/relu_fc -> loss2/fc (in-place)
I0410 20:03:38.707484 25951 net.cpp:124] Setting up loss2/relu_fc
I0410 20:03:38.707494 25951 net.cpp:131] Top shape: 50 1024 (51200)
I0410 20:03:38.707501 25951 net.cpp:139] Memory required for data: 2517300804
I0410 20:03:38.707523 25951 layer_factory.hpp:77] Creating layer loss2/drop_fc
I0410 20:03:38.707530 25951 net.cpp:86] Creating Layer loss2/drop_fc
I0410 20:03:38.707551 25951 net.cpp:408] loss2/drop_fc <- loss2/fc
I0410 20:03:38.707556 25951 net.cpp:369] loss2/drop_fc -> loss2/fc (in-place)
I0410 20:03:38.707586 25951 net.cpp:124] Setting up loss2/drop_fc
I0410 20:03:38.707592 25951 net.cpp:131] Top shape: 50 1024 (51200)
I0410 20:03:38.707614 25951 net.cpp:139] Memory required for data: 2517505604
I0410 20:03:38.707620 25951 layer_factory.hpp:77] Creating layer loss2/classifier-bird
I0410 20:03:38.707629 25951 net.cpp:86] Creating Layer loss2/classifier-bird
I0410 20:03:38.707633 25951 net.cpp:408] loss2/classifier-bird <- loss2/fc
I0410 20:03:38.707643 25951 net.cpp:382] loss2/classifier-bird -> loss2/classifier
I0410 20:03:38.707767 25951 net.cpp:124] Setting up loss2/classifier-bird
I0410 20:03:38.707774 25951 net.cpp:131] Top shape: 50 4 (200)
I0410 20:03:38.707778 25951 net.cpp:139] Memory required for data: 2517506404
I0410 20:03:38.707787 25951 layer_factory.hpp:77] Creating layer loss2/loss
I0410 20:03:38.707816 25951 net.cpp:86] Creating Layer loss2/loss
I0410 20:03:38.707821 25951 net.cpp:408] loss2/loss <- loss2/classifier
I0410 20:03:38.707828 25951 net.cpp:408] loss2/loss <- label_data_1_split_1
I0410 20:03:38.707835 25951 net.cpp:382] loss2/loss -> loss2/loss1
I0410 20:03:38.707844 25951 layer_factory.hpp:77] Creating layer loss2/loss
I0410 20:03:38.707934 25951 net.cpp:124] Setting up loss2/loss
I0410 20:03:38.707942 25951 net.cpp:131] Top shape: (1)
I0410 20:03:38.707947 25951 net.cpp:134]     with loss weight 0.3
I0410 20:03:38.707958 25951 net.cpp:139] Memory required for data: 2517506408
I0410 20:03:38.707962 25951 layer_factory.hpp:77] Creating layer inception_4e/1x1
I0410 20:03:38.707973 25951 net.cpp:86] Creating Layer inception_4e/1x1
I0410 20:03:38.707980 25951 net.cpp:408] inception_4e/1x1 <- inception_4d/output_inception_4d/output_0_split_1
I0410 20:03:38.707988 25951 net.cpp:382] inception_4e/1x1 -> inception_4e/1x1
I0410 20:03:38.709013 25951 net.cpp:124] Setting up inception_4e/1x1
I0410 20:03:38.709022 25951 net.cpp:131] Top shape: 50 256 14 14 (2508800)
I0410 20:03:38.709028 25951 net.cpp:139] Memory required for data: 2527541608
I0410 20:03:38.709034 25951 layer_factory.hpp:77] Creating layer inception_4e/relu_1x1
I0410 20:03:38.709041 25951 net.cpp:86] Creating Layer inception_4e/relu_1x1
I0410 20:03:38.709046 25951 net.cpp:408] inception_4e/relu_1x1 <- inception_4e/1x1
I0410 20:03:38.709054 25951 net.cpp:369] inception_4e/relu_1x1 -> inception_4e/1x1 (in-place)
I0410 20:03:38.709061 25951 net.cpp:124] Setting up inception_4e/relu_1x1
I0410 20:03:38.709069 25951 net.cpp:131] Top shape: 50 256 14 14 (2508800)
I0410 20:03:38.709074 25951 net.cpp:139] Memory required for data: 2537576808
I0410 20:03:38.709079 25951 layer_factory.hpp:77] Creating layer inception_4e/3x3_reduce
I0410 20:03:38.709087 25951 net.cpp:86] Creating Layer inception_4e/3x3_reduce
I0410 20:03:38.709092 25951 net.cpp:408] inception_4e/3x3_reduce <- inception_4d/output_inception_4d/output_0_split_2
I0410 20:03:38.709100 25951 net.cpp:382] inception_4e/3x3_reduce -> inception_4e/3x3_reduce
I0410 20:03:38.709821 25951 net.cpp:124] Setting up inception_4e/3x3_reduce
I0410 20:03:38.709830 25951 net.cpp:131] Top shape: 50 160 14 14 (1568000)
I0410 20:03:38.709834 25951 net.cpp:139] Memory required for data: 2543848808
I0410 20:03:38.709841 25951 layer_factory.hpp:77] Creating layer inception_4e/relu_3x3_reduce
I0410 20:03:38.709848 25951 net.cpp:86] Creating Layer inception_4e/relu_3x3_reduce
I0410 20:03:38.709854 25951 net.cpp:408] inception_4e/relu_3x3_reduce <- inception_4e/3x3_reduce
I0410 20:03:38.709861 25951 net.cpp:369] inception_4e/relu_3x3_reduce -> inception_4e/3x3_reduce (in-place)
I0410 20:03:38.709868 25951 net.cpp:124] Setting up inception_4e/relu_3x3_reduce
I0410 20:03:38.709875 25951 net.cpp:131] Top shape: 50 160 14 14 (1568000)
I0410 20:03:38.709879 25951 net.cpp:139] Memory required for data: 2550120808
I0410 20:03:38.709883 25951 layer_factory.hpp:77] Creating layer inception_4e/3x3
I0410 20:03:38.709892 25951 net.cpp:86] Creating Layer inception_4e/3x3
I0410 20:03:38.709897 25951 net.cpp:408] inception_4e/3x3 <- inception_4e/3x3_reduce
I0410 20:03:38.709904 25951 net.cpp:382] inception_4e/3x3 -> inception_4e/3x3
I0410 20:03:38.713762 25951 net.cpp:124] Setting up inception_4e/3x3
I0410 20:03:38.713778 25951 net.cpp:131] Top shape: 50 320 14 14 (3136000)
I0410 20:03:38.713783 25951 net.cpp:139] Memory required for data: 2562664808
I0410 20:03:38.713793 25951 layer_factory.hpp:77] Creating layer inception_4e/relu_3x3
I0410 20:03:38.713800 25951 net.cpp:86] Creating Layer inception_4e/relu_3x3
I0410 20:03:38.713806 25951 net.cpp:408] inception_4e/relu_3x3 <- inception_4e/3x3
I0410 20:03:38.713814 25951 net.cpp:369] inception_4e/relu_3x3 -> inception_4e/3x3 (in-place)
I0410 20:03:38.713824 25951 net.cpp:124] Setting up inception_4e/relu_3x3
I0410 20:03:38.713829 25951 net.cpp:131] Top shape: 50 320 14 14 (3136000)
I0410 20:03:38.713835 25951 net.cpp:139] Memory required for data: 2575208808
I0410 20:03:38.713853 25951 layer_factory.hpp:77] Creating layer inception_4e/5x5_reduce
I0410 20:03:38.713865 25951 net.cpp:86] Creating Layer inception_4e/5x5_reduce
I0410 20:03:38.713870 25951 net.cpp:408] inception_4e/5x5_reduce <- inception_4d/output_inception_4d/output_0_split_3
I0410 20:03:38.713877 25951 net.cpp:382] inception_4e/5x5_reduce -> inception_4e/5x5_reduce
I0410 20:03:38.714229 25951 net.cpp:124] Setting up inception_4e/5x5_reduce
I0410 20:03:38.714238 25951 net.cpp:131] Top shape: 50 32 14 14 (313600)
I0410 20:03:38.714243 25951 net.cpp:139] Memory required for data: 2576463208
I0410 20:03:38.714251 25951 layer_factory.hpp:77] Creating layer inception_4e/relu_5x5_reduce
I0410 20:03:38.714257 25951 net.cpp:86] Creating Layer inception_4e/relu_5x5_reduce
I0410 20:03:38.714263 25951 net.cpp:408] inception_4e/relu_5x5_reduce <- inception_4e/5x5_reduce
I0410 20:03:38.714269 25951 net.cpp:369] inception_4e/relu_5x5_reduce -> inception_4e/5x5_reduce (in-place)
I0410 20:03:38.714277 25951 net.cpp:124] Setting up inception_4e/relu_5x5_reduce
I0410 20:03:38.714282 25951 net.cpp:131] Top shape: 50 32 14 14 (313600)
I0410 20:03:38.714287 25951 net.cpp:139] Memory required for data: 2577717608
I0410 20:03:38.714292 25951 layer_factory.hpp:77] Creating layer inception_4e/5x5
I0410 20:03:38.714342 25951 net.cpp:86] Creating Layer inception_4e/5x5
I0410 20:03:38.714349 25951 net.cpp:408] inception_4e/5x5 <- inception_4e/5x5_reduce
I0410 20:03:38.714355 25951 net.cpp:382] inception_4e/5x5 -> inception_4e/5x5
I0410 20:03:38.715198 25951 net.cpp:124] Setting up inception_4e/5x5
I0410 20:03:38.715206 25951 net.cpp:131] Top shape: 50 128 14 14 (1254400)
I0410 20:03:38.715211 25951 net.cpp:139] Memory required for data: 2582735208
I0410 20:03:38.715219 25951 layer_factory.hpp:77] Creating layer inception_4e/relu_5x5
I0410 20:03:38.715229 25951 net.cpp:86] Creating Layer inception_4e/relu_5x5
I0410 20:03:38.715234 25951 net.cpp:408] inception_4e/relu_5x5 <- inception_4e/5x5
I0410 20:03:38.715240 25951 net.cpp:369] inception_4e/relu_5x5 -> inception_4e/5x5 (in-place)
I0410 20:03:38.715248 25951 net.cpp:124] Setting up inception_4e/relu_5x5
I0410 20:03:38.715255 25951 net.cpp:131] Top shape: 50 128 14 14 (1254400)
I0410 20:03:38.715260 25951 net.cpp:139] Memory required for data: 2587752808
I0410 20:03:38.715265 25951 layer_factory.hpp:77] Creating layer inception_4e/pool
I0410 20:03:38.715272 25951 net.cpp:86] Creating Layer inception_4e/pool
I0410 20:03:38.715277 25951 net.cpp:408] inception_4e/pool <- inception_4d/output_inception_4d/output_0_split_4
I0410 20:03:38.715284 25951 net.cpp:382] inception_4e/pool -> inception_4e/pool
I0410 20:03:38.715323 25951 net.cpp:124] Setting up inception_4e/pool
I0410 20:03:38.715332 25951 net.cpp:131] Top shape: 50 528 14 14 (5174400)
I0410 20:03:38.715353 25951 net.cpp:139] Memory required for data: 2608450408
I0410 20:03:38.715358 25951 layer_factory.hpp:77] Creating layer inception_4e/pool_proj
I0410 20:03:38.715368 25951 net.cpp:86] Creating Layer inception_4e/pool_proj
I0410 20:03:38.715391 25951 net.cpp:408] inception_4e/pool_proj <- inception_4e/pool
I0410 20:03:38.715399 25951 net.cpp:382] inception_4e/pool_proj -> inception_4e/pool_proj
I0410 20:03:38.716022 25951 net.cpp:124] Setting up inception_4e/pool_proj
I0410 20:03:38.716032 25951 net.cpp:131] Top shape: 50 128 14 14 (1254400)
I0410 20:03:38.716037 25951 net.cpp:139] Memory required for data: 2613468008
I0410 20:03:38.716043 25951 layer_factory.hpp:77] Creating layer inception_4e/relu_pool_proj
I0410 20:03:38.716050 25951 net.cpp:86] Creating Layer inception_4e/relu_pool_proj
I0410 20:03:38.716056 25951 net.cpp:408] inception_4e/relu_pool_proj <- inception_4e/pool_proj
I0410 20:03:38.716063 25951 net.cpp:369] inception_4e/relu_pool_proj -> inception_4e/pool_proj (in-place)
I0410 20:03:38.716070 25951 net.cpp:124] Setting up inception_4e/relu_pool_proj
I0410 20:03:38.716075 25951 net.cpp:131] Top shape: 50 128 14 14 (1254400)
I0410 20:03:38.716080 25951 net.cpp:139] Memory required for data: 2618485608
I0410 20:03:38.716084 25951 layer_factory.hpp:77] Creating layer inception_4e/output
I0410 20:03:38.716101 25951 net.cpp:86] Creating Layer inception_4e/output
I0410 20:03:38.716106 25951 net.cpp:408] inception_4e/output <- inception_4e/1x1
I0410 20:03:38.716114 25951 net.cpp:408] inception_4e/output <- inception_4e/3x3
I0410 20:03:38.716119 25951 net.cpp:408] inception_4e/output <- inception_4e/5x5
I0410 20:03:38.716123 25951 net.cpp:408] inception_4e/output <- inception_4e/pool_proj
I0410 20:03:38.716131 25951 net.cpp:382] inception_4e/output -> inception_4e/output
I0410 20:03:38.716158 25951 net.cpp:124] Setting up inception_4e/output
I0410 20:03:38.716166 25951 net.cpp:131] Top shape: 50 832 14 14 (8153600)
I0410 20:03:38.716171 25951 net.cpp:139] Memory required for data: 2651100008
I0410 20:03:38.716176 25951 layer_factory.hpp:77] Creating layer pool4/3x3_s2
I0410 20:03:38.716182 25951 net.cpp:86] Creating Layer pool4/3x3_s2
I0410 20:03:38.716187 25951 net.cpp:408] pool4/3x3_s2 <- inception_4e/output
I0410 20:03:38.716194 25951 net.cpp:382] pool4/3x3_s2 -> pool4/3x3_s2
I0410 20:03:38.716228 25951 net.cpp:124] Setting up pool4/3x3_s2
I0410 20:03:38.716235 25951 net.cpp:131] Top shape: 50 832 7 7 (2038400)
I0410 20:03:38.716239 25951 net.cpp:139] Memory required for data: 2659253608
I0410 20:03:38.716244 25951 layer_factory.hpp:77] Creating layer pool4/3x3_s2_pool4/3x3_s2_0_split
I0410 20:03:38.716253 25951 net.cpp:86] Creating Layer pool4/3x3_s2_pool4/3x3_s2_0_split
I0410 20:03:38.716258 25951 net.cpp:408] pool4/3x3_s2_pool4/3x3_s2_0_split <- pool4/3x3_s2
I0410 20:03:38.716264 25951 net.cpp:382] pool4/3x3_s2_pool4/3x3_s2_0_split -> pool4/3x3_s2_pool4/3x3_s2_0_split_0
I0410 20:03:38.716272 25951 net.cpp:382] pool4/3x3_s2_pool4/3x3_s2_0_split -> pool4/3x3_s2_pool4/3x3_s2_0_split_1
I0410 20:03:38.716280 25951 net.cpp:382] pool4/3x3_s2_pool4/3x3_s2_0_split -> pool4/3x3_s2_pool4/3x3_s2_0_split_2
I0410 20:03:38.716289 25951 net.cpp:382] pool4/3x3_s2_pool4/3x3_s2_0_split -> pool4/3x3_s2_pool4/3x3_s2_0_split_3
I0410 20:03:38.716358 25951 net.cpp:124] Setting up pool4/3x3_s2_pool4/3x3_s2_0_split
I0410 20:03:38.716365 25951 net.cpp:131] Top shape: 50 832 7 7 (2038400)
I0410 20:03:38.716372 25951 net.cpp:131] Top shape: 50 832 7 7 (2038400)
I0410 20:03:38.716377 25951 net.cpp:131] Top shape: 50 832 7 7 (2038400)
I0410 20:03:38.716382 25951 net.cpp:131] Top shape: 50 832 7 7 (2038400)
I0410 20:03:38.716387 25951 net.cpp:139] Memory required for data: 2691868008
I0410 20:03:38.716390 25951 layer_factory.hpp:77] Creating layer inception_5a/1x1
I0410 20:03:38.716400 25951 net.cpp:86] Creating Layer inception_5a/1x1
I0410 20:03:38.716405 25951 net.cpp:408] inception_5a/1x1 <- pool4/3x3_s2_pool4/3x3_s2_0_split_0
I0410 20:03:38.716413 25951 net.cpp:382] inception_5a/1x1 -> inception_5a/1x1
I0410 20:03:38.718683 25951 net.cpp:124] Setting up inception_5a/1x1
I0410 20:03:38.718698 25951 net.cpp:131] Top shape: 50 256 7 7 (627200)
I0410 20:03:38.718703 25951 net.cpp:139] Memory required for data: 2694376808
I0410 20:03:38.718711 25951 layer_factory.hpp:77] Creating layer inception_5a/relu_1x1
I0410 20:03:38.718719 25951 net.cpp:86] Creating Layer inception_5a/relu_1x1
I0410 20:03:38.718724 25951 net.cpp:408] inception_5a/relu_1x1 <- inception_5a/1x1
I0410 20:03:38.718732 25951 net.cpp:369] inception_5a/relu_1x1 -> inception_5a/1x1 (in-place)
I0410 20:03:38.718739 25951 net.cpp:124] Setting up inception_5a/relu_1x1
I0410 20:03:38.718745 25951 net.cpp:131] Top shape: 50 256 7 7 (627200)
I0410 20:03:38.718750 25951 net.cpp:139] Memory required for data: 2696885608
I0410 20:03:38.718755 25951 layer_factory.hpp:77] Creating layer inception_5a/3x3_reduce
I0410 20:03:38.718765 25951 net.cpp:86] Creating Layer inception_5a/3x3_reduce
I0410 20:03:38.718770 25951 net.cpp:408] inception_5a/3x3_reduce <- pool4/3x3_s2_pool4/3x3_s2_0_split_1
I0410 20:03:38.718778 25951 net.cpp:382] inception_5a/3x3_reduce -> inception_5a/3x3_reduce
I0410 20:03:38.719825 25951 net.cpp:124] Setting up inception_5a/3x3_reduce
I0410 20:03:38.719835 25951 net.cpp:131] Top shape: 50 160 7 7 (392000)
I0410 20:03:38.719849 25951 net.cpp:139] Memory required for data: 2698453608
I0410 20:03:38.719858 25951 layer_factory.hpp:77] Creating layer inception_5a/relu_3x3_reduce
I0410 20:03:38.719864 25951 net.cpp:86] Creating Layer inception_5a/relu_3x3_reduce
I0410 20:03:38.719869 25951 net.cpp:408] inception_5a/relu_3x3_reduce <- inception_5a/3x3_reduce
I0410 20:03:38.719877 25951 net.cpp:369] inception_5a/relu_3x3_reduce -> inception_5a/3x3_reduce (in-place)
I0410 20:03:38.719883 25951 net.cpp:124] Setting up inception_5a/relu_3x3_reduce
I0410 20:03:38.719889 25951 net.cpp:131] Top shape: 50 160 7 7 (392000)
I0410 20:03:38.719892 25951 net.cpp:139] Memory required for data: 2700021608
I0410 20:03:38.719897 25951 layer_factory.hpp:77] Creating layer inception_5a/3x3
I0410 20:03:38.719907 25951 net.cpp:86] Creating Layer inception_5a/3x3
I0410 20:03:38.719911 25951 net.cpp:408] inception_5a/3x3 <- inception_5a/3x3_reduce
I0410 20:03:38.719918 25951 net.cpp:382] inception_5a/3x3 -> inception_5a/3x3
I0410 20:03:38.723670 25951 net.cpp:124] Setting up inception_5a/3x3
I0410 20:03:38.723685 25951 net.cpp:131] Top shape: 50 320 7 7 (784000)
I0410 20:03:38.723690 25951 net.cpp:139] Memory required for data: 2703157608
I0410 20:03:38.723697 25951 layer_factory.hpp:77] Creating layer inception_5a/relu_3x3
I0410 20:03:38.723706 25951 net.cpp:86] Creating Layer inception_5a/relu_3x3
I0410 20:03:38.723712 25951 net.cpp:408] inception_5a/relu_3x3 <- inception_5a/3x3
I0410 20:03:38.723718 25951 net.cpp:369] inception_5a/relu_3x3 -> inception_5a/3x3 (in-place)
I0410 20:03:38.723726 25951 net.cpp:124] Setting up inception_5a/relu_3x3
I0410 20:03:38.723732 25951 net.cpp:131] Top shape: 50 320 7 7 (784000)
I0410 20:03:38.723737 25951 net.cpp:139] Memory required for data: 2706293608
I0410 20:03:38.723742 25951 layer_factory.hpp:77] Creating layer inception_5a/5x5_reduce
I0410 20:03:38.723752 25951 net.cpp:86] Creating Layer inception_5a/5x5_reduce
I0410 20:03:38.723757 25951 net.cpp:408] inception_5a/5x5_reduce <- pool4/3x3_s2_pool4/3x3_s2_0_split_2
I0410 20:03:38.723764 25951 net.cpp:382] inception_5a/5x5_reduce -> inception_5a/5x5_reduce
I0410 20:03:38.724161 25951 net.cpp:124] Setting up inception_5a/5x5_reduce
I0410 20:03:38.724170 25951 net.cpp:131] Top shape: 50 32 7 7 (78400)
I0410 20:03:38.724175 25951 net.cpp:139] Memory required for data: 2706607208
I0410 20:03:38.724184 25951 layer_factory.hpp:77] Creating layer inception_5a/relu_5x5_reduce
I0410 20:03:38.724190 25951 net.cpp:86] Creating Layer inception_5a/relu_5x5_reduce
I0410 20:03:38.724195 25951 net.cpp:408] inception_5a/relu_5x5_reduce <- inception_5a/5x5_reduce
I0410 20:03:38.724202 25951 net.cpp:369] inception_5a/relu_5x5_reduce -> inception_5a/5x5_reduce (in-place)
I0410 20:03:38.724210 25951 net.cpp:124] Setting up inception_5a/relu_5x5_reduce
I0410 20:03:38.724216 25951 net.cpp:131] Top shape: 50 32 7 7 (78400)
I0410 20:03:38.724221 25951 net.cpp:139] Memory required for data: 2706920808
I0410 20:03:38.724225 25951 layer_factory.hpp:77] Creating layer inception_5a/5x5
I0410 20:03:38.724236 25951 net.cpp:86] Creating Layer inception_5a/5x5
I0410 20:03:38.724241 25951 net.cpp:408] inception_5a/5x5 <- inception_5a/5x5_reduce
I0410 20:03:38.724247 25951 net.cpp:382] inception_5a/5x5 -> inception_5a/5x5
I0410 20:03:38.725080 25951 net.cpp:124] Setting up inception_5a/5x5
I0410 20:03:38.725090 25951 net.cpp:131] Top shape: 50 128 7 7 (313600)
I0410 20:03:38.725093 25951 net.cpp:139] Memory required for data: 2708175208
I0410 20:03:38.725100 25951 layer_factory.hpp:77] Creating layer inception_5a/relu_5x5
I0410 20:03:38.725107 25951 net.cpp:86] Creating Layer inception_5a/relu_5x5
I0410 20:03:38.725113 25951 net.cpp:408] inception_5a/relu_5x5 <- inception_5a/5x5
I0410 20:03:38.725119 25951 net.cpp:369] inception_5a/relu_5x5 -> inception_5a/5x5 (in-place)
I0410 20:03:38.725126 25951 net.cpp:124] Setting up inception_5a/relu_5x5
I0410 20:03:38.725131 25951 net.cpp:131] Top shape: 50 128 7 7 (313600)
I0410 20:03:38.725136 25951 net.cpp:139] Memory required for data: 2709429608
I0410 20:03:38.725152 25951 layer_factory.hpp:77] Creating layer inception_5a/pool
I0410 20:03:38.725160 25951 net.cpp:86] Creating Layer inception_5a/pool
I0410 20:03:38.725164 25951 net.cpp:408] inception_5a/pool <- pool4/3x3_s2_pool4/3x3_s2_0_split_3
I0410 20:03:38.725172 25951 net.cpp:382] inception_5a/pool -> inception_5a/pool
I0410 20:03:38.725209 25951 net.cpp:124] Setting up inception_5a/pool
I0410 20:03:38.725217 25951 net.cpp:131] Top shape: 50 832 7 7 (2038400)
I0410 20:03:38.725221 25951 net.cpp:139] Memory required for data: 2717583208
I0410 20:03:38.725226 25951 layer_factory.hpp:77] Creating layer inception_5a/pool_proj
I0410 20:03:38.725236 25951 net.cpp:86] Creating Layer inception_5a/pool_proj
I0410 20:03:38.725240 25951 net.cpp:408] inception_5a/pool_proj <- inception_5a/pool
I0410 20:03:38.725247 25951 net.cpp:382] inception_5a/pool_proj -> inception_5a/pool_proj
I0410 20:03:38.726871 25951 net.cpp:124] Setting up inception_5a/pool_proj
I0410 20:03:38.726884 25951 net.cpp:131] Top shape: 50 128 7 7 (313600)
I0410 20:03:38.726889 25951 net.cpp:139] Memory required for data: 2718837608
I0410 20:03:38.726897 25951 layer_factory.hpp:77] Creating layer inception_5a/relu_pool_proj
I0410 20:03:38.726904 25951 net.cpp:86] Creating Layer inception_5a/relu_pool_proj
I0410 20:03:38.726910 25951 net.cpp:408] inception_5a/relu_pool_proj <- inception_5a/pool_proj
I0410 20:03:38.726917 25951 net.cpp:369] inception_5a/relu_pool_proj -> inception_5a/pool_proj (in-place)
I0410 20:03:38.726925 25951 net.cpp:124] Setting up inception_5a/relu_pool_proj
I0410 20:03:38.726932 25951 net.cpp:131] Top shape: 50 128 7 7 (313600)
I0410 20:03:38.726935 25951 net.cpp:139] Memory required for data: 2720092008
I0410 20:03:38.726939 25951 layer_factory.hpp:77] Creating layer inception_5a/output
I0410 20:03:38.726948 25951 net.cpp:86] Creating Layer inception_5a/output
I0410 20:03:38.726953 25951 net.cpp:408] inception_5a/output <- inception_5a/1x1
I0410 20:03:38.726958 25951 net.cpp:408] inception_5a/output <- inception_5a/3x3
I0410 20:03:38.726963 25951 net.cpp:408] inception_5a/output <- inception_5a/5x5
I0410 20:03:38.726968 25951 net.cpp:408] inception_5a/output <- inception_5a/pool_proj
I0410 20:03:38.726974 25951 net.cpp:382] inception_5a/output -> inception_5a/output
I0410 20:03:38.727000 25951 net.cpp:124] Setting up inception_5a/output
I0410 20:03:38.727006 25951 net.cpp:131] Top shape: 50 832 7 7 (2038400)
I0410 20:03:38.727011 25951 net.cpp:139] Memory required for data: 2728245608
I0410 20:03:38.727016 25951 layer_factory.hpp:77] Creating layer inception_5a/output_inception_5a/output_0_split
I0410 20:03:38.727023 25951 net.cpp:86] Creating Layer inception_5a/output_inception_5a/output_0_split
I0410 20:03:38.727028 25951 net.cpp:408] inception_5a/output_inception_5a/output_0_split <- inception_5a/output
I0410 20:03:38.727035 25951 net.cpp:382] inception_5a/output_inception_5a/output_0_split -> inception_5a/output_inception_5a/output_0_split_0
I0410 20:03:38.727068 25951 net.cpp:382] inception_5a/output_inception_5a/output_0_split -> inception_5a/output_inception_5a/output_0_split_1
I0410 20:03:38.727077 25951 net.cpp:382] inception_5a/output_inception_5a/output_0_split -> inception_5a/output_inception_5a/output_0_split_2
I0410 20:03:38.727085 25951 net.cpp:382] inception_5a/output_inception_5a/output_0_split -> inception_5a/output_inception_5a/output_0_split_3
I0410 20:03:38.727144 25951 net.cpp:124] Setting up inception_5a/output_inception_5a/output_0_split
I0410 20:03:38.727151 25951 net.cpp:131] Top shape: 50 832 7 7 (2038400)
I0410 20:03:38.727157 25951 net.cpp:131] Top shape: 50 832 7 7 (2038400)
I0410 20:03:38.727162 25951 net.cpp:131] Top shape: 50 832 7 7 (2038400)
I0410 20:03:38.727169 25951 net.cpp:131] Top shape: 50 832 7 7 (2038400)
I0410 20:03:38.727174 25951 net.cpp:139] Memory required for data: 2760860008
I0410 20:03:38.727177 25951 layer_factory.hpp:77] Creating layer inception_5b/1x1
I0410 20:03:38.727188 25951 net.cpp:86] Creating Layer inception_5b/1x1
I0410 20:03:38.727193 25951 net.cpp:408] inception_5b/1x1 <- inception_5a/output_inception_5a/output_0_split_0
I0410 20:03:38.727213 25951 net.cpp:382] inception_5b/1x1 -> inception_5b/1x1
I0410 20:03:38.729313 25951 net.cpp:124] Setting up inception_5b/1x1
I0410 20:03:38.729322 25951 net.cpp:131] Top shape: 50 384 7 7 (940800)
I0410 20:03:38.729326 25951 net.cpp:139] Memory required for data: 2764623208
I0410 20:03:38.729334 25951 layer_factory.hpp:77] Creating layer inception_5b/relu_1x1
I0410 20:03:38.729341 25951 net.cpp:86] Creating Layer inception_5b/relu_1x1
I0410 20:03:38.729346 25951 net.cpp:408] inception_5b/relu_1x1 <- inception_5b/1x1
I0410 20:03:38.729352 25951 net.cpp:369] inception_5b/relu_1x1 -> inception_5b/1x1 (in-place)
I0410 20:03:38.729359 25951 net.cpp:124] Setting up inception_5b/relu_1x1
I0410 20:03:38.729365 25951 net.cpp:131] Top shape: 50 384 7 7 (940800)
I0410 20:03:38.729369 25951 net.cpp:139] Memory required for data: 2768386408
I0410 20:03:38.729373 25951 layer_factory.hpp:77] Creating layer inception_5b/3x3_reduce
I0410 20:03:38.729383 25951 net.cpp:86] Creating Layer inception_5b/3x3_reduce
I0410 20:03:38.729387 25951 net.cpp:408] inception_5b/3x3_reduce <- inception_5a/output_inception_5a/output_0_split_1
I0410 20:03:38.729395 25951 net.cpp:382] inception_5b/3x3_reduce -> inception_5b/3x3_reduce
I0410 20:03:38.731359 25951 net.cpp:124] Setting up inception_5b/3x3_reduce
I0410 20:03:38.731374 25951 net.cpp:131] Top shape: 50 192 7 7 (470400)
I0410 20:03:38.731379 25951 net.cpp:139] Memory required for data: 2770268008
I0410 20:03:38.731386 25951 layer_factory.hpp:77] Creating layer inception_5b/relu_3x3_reduce
I0410 20:03:38.731393 25951 net.cpp:86] Creating Layer inception_5b/relu_3x3_reduce
I0410 20:03:38.731400 25951 net.cpp:408] inception_5b/relu_3x3_reduce <- inception_5b/3x3_reduce
I0410 20:03:38.731406 25951 net.cpp:369] inception_5b/relu_3x3_reduce -> inception_5b/3x3_reduce (in-place)
I0410 20:03:38.731415 25951 net.cpp:124] Setting up inception_5b/relu_3x3_reduce
I0410 20:03:38.731420 25951 net.cpp:131] Top shape: 50 192 7 7 (470400)
I0410 20:03:38.731425 25951 net.cpp:139] Memory required for data: 2772149608
I0410 20:03:38.731428 25951 layer_factory.hpp:77] Creating layer inception_5b/3x3
I0410 20:03:38.731438 25951 net.cpp:86] Creating Layer inception_5b/3x3
I0410 20:03:38.731442 25951 net.cpp:408] inception_5b/3x3 <- inception_5b/3x3_reduce
I0410 20:03:38.731451 25951 net.cpp:382] inception_5b/3x3 -> inception_5b/3x3
I0410 20:03:38.740708 25951 net.cpp:124] Setting up inception_5b/3x3
I0410 20:03:38.740730 25951 net.cpp:131] Top shape: 50 384 7 7 (940800)
I0410 20:03:38.740736 25951 net.cpp:139] Memory required for data: 2775912808
I0410 20:03:38.740744 25951 layer_factory.hpp:77] Creating layer inception_5b/relu_3x3
I0410 20:03:38.740752 25951 net.cpp:86] Creating Layer inception_5b/relu_3x3
I0410 20:03:38.740758 25951 net.cpp:408] inception_5b/relu_3x3 <- inception_5b/3x3
I0410 20:03:38.740764 25951 net.cpp:369] inception_5b/relu_3x3 -> inception_5b/3x3 (in-place)
I0410 20:03:38.740774 25951 net.cpp:124] Setting up inception_5b/relu_3x3
I0410 20:03:38.740779 25951 net.cpp:131] Top shape: 50 384 7 7 (940800)
I0410 20:03:38.740783 25951 net.cpp:139] Memory required for data: 2779676008
I0410 20:03:38.740787 25951 layer_factory.hpp:77] Creating layer inception_5b/5x5_reduce
I0410 20:03:38.740798 25951 net.cpp:86] Creating Layer inception_5b/5x5_reduce
I0410 20:03:38.740803 25951 net.cpp:408] inception_5b/5x5_reduce <- inception_5a/output_inception_5a/output_0_split_2
I0410 20:03:38.740810 25951 net.cpp:382] inception_5b/5x5_reduce -> inception_5b/5x5_reduce
I0410 20:03:38.741261 25951 net.cpp:124] Setting up inception_5b/5x5_reduce
I0410 20:03:38.741271 25951 net.cpp:131] Top shape: 50 48 7 7 (117600)
I0410 20:03:38.741276 25951 net.cpp:139] Memory required for data: 2780146408
I0410 20:03:38.741282 25951 layer_factory.hpp:77] Creating layer inception_5b/relu_5x5_reduce
I0410 20:03:38.741288 25951 net.cpp:86] Creating Layer inception_5b/relu_5x5_reduce
I0410 20:03:38.741294 25951 net.cpp:408] inception_5b/relu_5x5_reduce <- inception_5b/5x5_reduce
I0410 20:03:38.741315 25951 net.cpp:369] inception_5b/relu_5x5_reduce -> inception_5b/5x5_reduce (in-place)
I0410 20:03:38.741323 25951 net.cpp:124] Setting up inception_5b/relu_5x5_reduce
I0410 20:03:38.741329 25951 net.cpp:131] Top shape: 50 48 7 7 (117600)
I0410 20:03:38.741334 25951 net.cpp:139] Memory required for data: 2780616808
I0410 20:03:38.741338 25951 layer_factory.hpp:77] Creating layer inception_5b/5x5
I0410 20:03:38.741348 25951 net.cpp:86] Creating Layer inception_5b/5x5
I0410 20:03:38.741351 25951 net.cpp:408] inception_5b/5x5 <- inception_5b/5x5_reduce
I0410 20:03:38.741358 25951 net.cpp:382] inception_5b/5x5 -> inception_5b/5x5
I0410 20:03:38.742470 25951 net.cpp:124] Setting up inception_5b/5x5
I0410 20:03:38.742477 25951 net.cpp:131] Top shape: 50 128 7 7 (313600)
I0410 20:03:38.742481 25951 net.cpp:139] Memory required for data: 2781871208
I0410 20:03:38.742489 25951 layer_factory.hpp:77] Creating layer inception_5b/relu_5x5
I0410 20:03:38.742494 25951 net.cpp:86] Creating Layer inception_5b/relu_5x5
I0410 20:03:38.742499 25951 net.cpp:408] inception_5b/relu_5x5 <- inception_5b/5x5
I0410 20:03:38.742506 25951 net.cpp:369] inception_5b/relu_5x5 -> inception_5b/5x5 (in-place)
I0410 20:03:38.742512 25951 net.cpp:124] Setting up inception_5b/relu_5x5
I0410 20:03:38.742517 25951 net.cpp:131] Top shape: 50 128 7 7 (313600)
I0410 20:03:38.742522 25951 net.cpp:139] Memory required for data: 2783125608
I0410 20:03:38.742525 25951 layer_factory.hpp:77] Creating layer inception_5b/pool
I0410 20:03:38.742532 25951 net.cpp:86] Creating Layer inception_5b/pool
I0410 20:03:38.742537 25951 net.cpp:408] inception_5b/pool <- inception_5a/output_inception_5a/output_0_split_3
I0410 20:03:38.742543 25951 net.cpp:382] inception_5b/pool -> inception_5b/pool
I0410 20:03:38.742578 25951 net.cpp:124] Setting up inception_5b/pool
I0410 20:03:38.742585 25951 net.cpp:131] Top shape: 50 832 7 7 (2038400)
I0410 20:03:38.742589 25951 net.cpp:139] Memory required for data: 2791279208
I0410 20:03:38.742594 25951 layer_factory.hpp:77] Creating layer inception_5b/pool_proj
I0410 20:03:38.742601 25951 net.cpp:86] Creating Layer inception_5b/pool_proj
I0410 20:03:38.742607 25951 net.cpp:408] inception_5b/pool_proj <- inception_5b/pool
I0410 20:03:38.742614 25951 net.cpp:382] inception_5b/pool_proj -> inception_5b/pool_proj
I0410 20:03:38.743502 25951 net.cpp:124] Setting up inception_5b/pool_proj
I0410 20:03:38.743511 25951 net.cpp:131] Top shape: 50 128 7 7 (313600)
I0410 20:03:38.743516 25951 net.cpp:139] Memory required for data: 2792533608
I0410 20:03:38.743523 25951 layer_factory.hpp:77] Creating layer inception_5b/relu_pool_proj
I0410 20:03:38.743530 25951 net.cpp:86] Creating Layer inception_5b/relu_pool_proj
I0410 20:03:38.743535 25951 net.cpp:408] inception_5b/relu_pool_proj <- inception_5b/pool_proj
I0410 20:03:38.743541 25951 net.cpp:369] inception_5b/relu_pool_proj -> inception_5b/pool_proj (in-place)
I0410 20:03:38.743548 25951 net.cpp:124] Setting up inception_5b/relu_pool_proj
I0410 20:03:38.743553 25951 net.cpp:131] Top shape: 50 128 7 7 (313600)
I0410 20:03:38.743557 25951 net.cpp:139] Memory required for data: 2793788008
I0410 20:03:38.743562 25951 layer_factory.hpp:77] Creating layer inception_5b/output
I0410 20:03:38.743569 25951 net.cpp:86] Creating Layer inception_5b/output
I0410 20:03:38.743573 25951 net.cpp:408] inception_5b/output <- inception_5b/1x1
I0410 20:03:38.743578 25951 net.cpp:408] inception_5b/output <- inception_5b/3x3
I0410 20:03:38.743584 25951 net.cpp:408] inception_5b/output <- inception_5b/5x5
I0410 20:03:38.743588 25951 net.cpp:408] inception_5b/output <- inception_5b/pool_proj
I0410 20:03:38.743594 25951 net.cpp:382] inception_5b/output -> inception_5b/output
I0410 20:03:38.743618 25951 net.cpp:124] Setting up inception_5b/output
I0410 20:03:38.743625 25951 net.cpp:131] Top shape: 50 1024 7 7 (2508800)
I0410 20:03:38.743629 25951 net.cpp:139] Memory required for data: 2803823208
I0410 20:03:38.743633 25951 layer_factory.hpp:77] Creating layer pool5/7x7_s1
I0410 20:03:38.743639 25951 net.cpp:86] Creating Layer pool5/7x7_s1
I0410 20:03:38.743654 25951 net.cpp:408] pool5/7x7_s1 <- inception_5b/output
I0410 20:03:38.743660 25951 net.cpp:382] pool5/7x7_s1 -> pool5/7x7_s1
I0410 20:03:38.743682 25951 net.cpp:124] Setting up pool5/7x7_s1
I0410 20:03:38.743690 25951 net.cpp:131] Top shape: 50 1024 1 1 (51200)
I0410 20:03:38.743695 25951 net.cpp:139] Memory required for data: 2804028008
I0410 20:03:38.743698 25951 layer_factory.hpp:77] Creating layer pool5/drop_7x7_s1
I0410 20:03:38.743706 25951 net.cpp:86] Creating Layer pool5/drop_7x7_s1
I0410 20:03:38.743710 25951 net.cpp:408] pool5/drop_7x7_s1 <- pool5/7x7_s1
I0410 20:03:38.743717 25951 net.cpp:369] pool5/drop_7x7_s1 -> pool5/7x7_s1 (in-place)
I0410 20:03:38.743738 25951 net.cpp:124] Setting up pool5/drop_7x7_s1
I0410 20:03:38.743744 25951 net.cpp:131] Top shape: 50 1024 1 1 (51200)
I0410 20:03:38.743748 25951 net.cpp:139] Memory required for data: 2804232808
I0410 20:03:38.743753 25951 layer_factory.hpp:77] Creating layer loss3/classifier-bird
I0410 20:03:38.743762 25951 net.cpp:86] Creating Layer loss3/classifier-bird
I0410 20:03:38.743765 25951 net.cpp:408] loss3/classifier-bird <- pool5/7x7_s1
I0410 20:03:38.743772 25951 net.cpp:382] loss3/classifier-bird -> loss3/classifier-bird
I0410 20:03:38.743890 25951 net.cpp:124] Setting up loss3/classifier-bird
I0410 20:03:38.743896 25951 net.cpp:131] Top shape: 50 4 (200)
I0410 20:03:38.743899 25951 net.cpp:139] Memory required for data: 2804233608
I0410 20:03:38.743906 25951 layer_factory.hpp:77] Creating layer loss3/loss3
I0410 20:03:38.743913 25951 net.cpp:86] Creating Layer loss3/loss3
I0410 20:03:38.743918 25951 net.cpp:408] loss3/loss3 <- loss3/classifier-bird
I0410 20:03:38.743923 25951 net.cpp:408] loss3/loss3 <- label_data_1_split_2
I0410 20:03:38.743929 25951 net.cpp:382] loss3/loss3 -> loss3/loss3
…
I0410 20:03:38.757194 25951 net.cpp:296] The NetState phase (1) differed from the phase (0) specified by a rule in layer data
I0410 20:03:38.758275 25951 net.cpp:53] Initializing net from parameters: 
name: "GoogleNet"
state {
  phase: TEST
}
layer {
  name: "data"
  type: "Data"
  top: "data"
  top: "label"
  include {
    phase: TEST
  }
  transform_param {
    mirror: false
    crop_size: 224
    mean_file: "/home/jungmo/Documents/autonomous/caffe/db/mean.binaryproto"
  }
  data_param {
    source: "/home/jungmo/Documents/autonomous/caffe/db/val_imageData_lmDB"
    batch_size: 50
    backend: LMDB
  }
}
layer {
  name: "conv1/7x7_s2"
  type: "Convolution"
  bottom: "data"
  top: "conv1/7x7_s2"
  param {
    lr_mult: 1
    decay_mult: 1
  }
  param {
    lr_mult: 2
    decay_mult: 0
  }
  convolution_param {
    num_output: 64
    pad: 3
    kernel_size: 7
    stride: 2
    weight_filler {
      type: "xavier"
    }
    bias_filler {
      type: "constant"
      value: 0.2
    }
  }
}
layer {
  name: "conv1/relu_7x7"
  type: "ReLU"
  bottom: "conv1/7x7_s2"
  top: "conv1/7x7_s2"
}
layer {
  name: "pool1/3x3_s2"
  type: "Pooling"
  bottom: "conv1/7x7_s2"
  top: "pool1/3x3_s2"
  pooling_param {
    pool: MAX
    kernel_size: 3
    stride: 2
  }
}
layer {
  name: "pool1/norm1"
  type: "LRN"
  bottom: "pool1/3x3_s2"
  top: "pool1/norm1"
  lrn_param {
    local_size: 5
    alpha: 0.0001
    beta: 0.75
  }
}
layer {
  name: "conv2/3x3_reduce"
  type: "Convolution"
  bottom: "pool1/norm1"
  top: "conv2/3x3_reduce"
  param {
    lr_mult: 1
    decay_mult: 1
  }
  param {
    lr_mult: 2
    decay_mult: 0
  }
  convolution_param {
    num_output: 64
    kernel_size: 1
    weight_filler {
      type: "xavier"
    }
    bias_filler {
      type: "constant"
      value: 0.2
    }
  }
}
layer {
  name: "conv2/relu_3x3_reduce"
  type: "ReLU"
  bottom: "conv2/3x3_reduce"
  top: "conv2/3x3_reduce"
}
layer {
  name: "conv2/3x3"
  type: "Convolution"
  bottom: "conv2/3x3_reduce"
  top: "conv2/3x3"
  param {
    lr_mult: 1
    decay_mult: 1
  }
  param {
    lr_mult: 2
    decay_mult: 0
  }
  convolution_param {
    num_output: 192
    pad: 1
    kernel_size: 3
    weight_filler {
      type: "xavier"
    }
    bias_filler {
      type: "constant"
      value: 0.2
    }
  }
}
layer {
  name: "conv2/relu_3x3"
  type: "ReLU"
  bottom: "conv2/3x3"
  top: "conv2/3x3"
}
layer {
  name: "conv2/norm2"
  type: "LRN"
  bottom: "conv2/3x3"
  top: "conv2/norm2"
  lrn_param {
    local_size: 5
    alpha: 0.0001
    beta: 0.75
  }
}
layer {
  name: "pool2/3x3_s2"
  type: "Pooling"
  bottom: "conv2/norm2"
  top: "pool2/3x3_s2"
  pooling_param {
    pool: MAX
    kernel_size: 3
    stride: 2
  }
}
layer {
  name: "inception_3a/1x1"
  type: "Convolution"
  bottom: "pool2/3x3_s2"
  top: "inception_3a/1x1"
  param {
    lr_mult: 1
    decay_mult: 1
  }
  param {
    lr_mult: 2
    decay_mult: 0
  }
  convolution_param {
    num_output: 64
    kernel_size: 1
    weight_filler {
      type: "xavier"
    }
    bias_filler {
      type: "constant"
      value: 0.2
    }
  }
}
layer {
  name: "inception_3a/relu_1x1"
  type: "ReLU"
  bottom: "inception_3a/1x1"
  top: "inception_3a/1x1"
}
layer {
  name: "inception_3a/3x3_reduce"
  type: "Convolution"
  bottom: "pool2/3x3_s2"
  top: "inception_3a/3x3_reduce"
  param {
    lr_mult: 1
    decay_mult: 1
  }
  param {
    lr_mult: 2
    decay_mult: 0
  }
  convolution_param {
    num_output: 96
    kernel_size: 1
    weight_filler {
      type: "xavier"
    }
    bias_filler {
      type: "constant"
      value: 0.2
    }
  }
}
layer {
  name: "inception_3a/relu_3x3_reduce"
  type: "ReLU"
  bottom: "inception_3a/3x3_reduce"
  top: "inception_3a/3x3_reduce"
}
layer {
  name: "inception_3a/3x3"
  type: "Convolution"
  bottom: "inception_3a/3x3_reduce"
  top: "inception_3a/3x3"
  param {
    lr_mult: 1
    decay_mult: 1
  }
  param {
    lr_mult: 2
    decay_mult: 0
  }
  convolution_param {
    num_output: 128
    pad: 1
    kernel_size: 3
    weight_filler {
      type: "xavier"
    }
    bias_filler {
      type: "constant"
      value: 0.2
    }
  }
}
layer {
  name: "inception_3a/relu_3x3"
  type: "ReLU"
  bottom: "inception_3a/3x3"
  top: "inception_3a/3x3"
}
layer {
  name: "inception_3a/5x5_reduce"
  type: "Convolution"
  bottom: "pool2/3x3_s2"
  top: "inception_3a/5x5_reduce"
  param {
    lr_mult: 1
    decay_mult: 1
  }
  param {
    lr_mult: 2
    decay_mult: 0
  }
  convolution_param {
    num_output: 16
    kernel_size: 1
    weight_filler {
      type: "xavier"
    }
    bias_filler {
      type: "constant"
      value: 0.2
    }
  }
}
layer {
  name: "inception_3a/relu_5x5_reduce"
  type: "ReLU"
  bottom: "inception_3a/5x5_reduce"
  top: "inception_3a/5x5_reduce"
}
layer {
  name: "inception_3a/5x5"
  type: "Convolution"
  bottom: "inception_3a/5x5_reduce"
  top: "inception_3a/5x5"
  param {
    lr_mult: 1
    decay_mult: 1
  }
  param {
    lr_mult: 2
    decay_mult: 0
  }
  convolution_param {
    num_output: 32
    pad: 2
    kernel_size: 5
    weight_filler {
      type: "xavier"
    }
    bias_filler {
      type: "constant"
      value: 0.2
    }
  }
}
layer {
  name: "inception_3a/relu_5x5"
  type: "ReLU"
  bottom: "inception_3a/5x5"
  top: "inception_3a/5x5"
}
layer {
  name: "inception_3a/pool"
  type: "Pooling"
  bottom: "pool2/3x3_s2"
  top: "inception_3a/pool"
  pooling_param {
    pool: MAX
    kernel_size: 3
    stride: 1
    pad: 1
  }
}
layer {
  name: "inception_3a/pool_proj"
  type: "Convolution"
  bottom: "inception_3a/pool"
  top: "inception_3a/pool_proj"
  param {
    lr_mult: 1
    decay_mult: 1
  }
  param {
    lr_mult: 2
    decay_mult: 0
  }
  convolution_param {
    num_output: 32
    kernel_size: 1
    weight_filler {
      type: "xavier"
    }
    bias_filler {
      type: "constant"
      value: 0.2
    }
  }
}
layer {
  name: "inception_3a/relu_pool_proj"
  type: "ReLU"
  bottom: "inception_3a/pool_proj"
  top: "inception_3a/pool_proj"
}
layer {
  name: "inception_3a/output"
  type: "Concat"
  bottom: "inception_3a/1x1"
  bottom: "inception_3a/3x3"
  bottom: "inception_3a/5x5"
  bottom: "inception_3a/pool_proj"
  top: "inception_3a/output"
}
layer {
  name: "inception_3b/1x1"
  type: "Convolution"
  bottom: "inception_3a/output"
  top: "inception_3b/1x1"
  param {
    lr_mult: 1
    decay_mult: 1
  }
  param {
    lr_mult: 2
    decay_mult: 0
  }
  convolution_param {
    num_output: 128
    kernel_size: 1
    weight_filler {
      type: "xavier"
    }
    bias_filler {
      type: "constant"
      value: 0.2
    }
  }
}
layer {
  name: "inception_3b/relu_1x1"
  type: "ReLU"
  bottom: "inception_3b/1x1"
  top: "inception_3b/1x1"
}
layer {
  name: "inception_3b/3x3_reduce"
  type: "Convolution"
  bottom: "inception_3a/output"
  top: "inception_3b/3x3_reduce"
  param {
    lr_mult: 1
    decay_mult: 1
  }
  param {
    lr_mult: 2
    decay_mult: 0
  }
  convolution_param {
    num_output: 128
    kernel_size: 1
    weight_filler {
      type: "xavier"
    }
    bias_filler {
      type: "constant"
      value: 0.2
    }
  }
}
layer {
  name: "inception_3b/relu_3x3_reduce"
  type: "ReLU"
  bottom: "inception_3b/3x3_reduce"
  top: "inception_3b/3x3_reduce"
}
layer {
  name: "inception_3b/3x3"
  type: "Convolution"
  bottom: "inception_3b/3x3_reduce"
  top: "inception_3b/3x3"
  param {
    lr_mult: 1
    decay_mult: 1
  }
  param {
    lr_mult: 2
    decay_mult: 0
  }
  convolution_param {
    num_output: 192
    pad: 1
    kernel_size: 3
    weight_filler {
      type: "xavier"
    }
    bias_filler {
      type: "constant"
      value: 0.2
    }
  }
}
layer {
  name: "inception_3b/relu_3x3"
  type: "ReLU"
  bottom: "inception_3b/3x3"
  top: "inception_3b/3x3"
}
layer {
  name: "inception_3b/5x5_reduce"
  type: "Convolution"
  bottom: "inception_3a/output"
  top: "inception_3b/5x5_reduce"
  param {
    lr_mult: 1
    decay_mult: 1
  }
  param {
    lr_mult: 2
    decay_mult: 0
  }
  convolution_param {
    num_output: 32
    kernel_size: 1
    weight_filler {
      type: "xavier"
    }
    bias_filler {
      type: "constant"
      value: 0.2
    }
  }
}
layer {
  name: "inception_3b/relu_5x5_reduce"
  type: "ReLU"
  bottom: "inception_3b/5x5_reduce"
  top: "inception_3b/5x5_reduce"
}
layer {
  name: "inception_3b/5x5"
  type: "Convolution"
  bottom: "inception_3b/5x5_reduce"
  top: "inception_3b/5x5"
  param {
    lr_mult: 1
    decay_mult: 1
  }
  param {
    lr_mult: 2
    decay_mult: 0
  }
  convolution_param {
    num_output: 96
    pad: 2
    kernel_size: 5
    weight_filler {
      type: "xavier"
    }
    bias_filler {
      type: "constant"
      value: 0.2
    }
  }
}
layer {
  name: "inception_3b/relu_5x5"
  type: "ReLU"
  bottom: "inception_3b/5x5"
  top: "inception_3b/5x5"
}
layer {
  name: "inception_3b/pool"
  type: "Pooling"
  bottom: "inception_3a/output"
  top: "inception_3b/pool"
  pooling_param {
    pool: MAX
    kernel_size: 3
    stride: 1
    pad: 1
  }
}
layer {
  name: "inception_3b/pool_proj"
  type: "Convolution"
  bottom: "inception_3b/pool"
  top: "inception_3b/pool_proj"
  param {
    lr_mult: 1
    decay_mult: 1
  }
  param {
    lr_mult: 2
    decay_mult: 0
  }
  convolution_param {
    num_output: 64
    kernel_size: 1
    weight_filler {
      type: "xavier"
    }
    bias_filler {
      type: "constant"
      value: 0.2
    }
  }
}
layer {
  name: "inception_3b/relu_pool_proj"
  type: "ReLU"
  bottom: "inception_3b/pool_proj"
  top: "inception_3b/pool_proj"
}
layer {
  name: "inception_3b/output"
  type: "Concat"
  bottom: "inception_3b/1x1"
  bottom: "inception_3b/3x3"
  bottom: "inception_3b/5x5"
  bottom: "inception_3b/pool_proj"
  top: "inception_3b/output"
}
layer {
  name: "pool3/3x3_s2"
  type: "Pooling"
  bottom: "inception_3b/output"
  top: "pool3/3x3_s2"
  pooling_param {
    pool: MAX
    kernel_size: 3
    stride: 2
  }
}
layer {
  name: "inception_4a/1x1"
  type: "Convolution"
  bottom: "pool3/3x3_s2"
  top: "inception_4a/1x1"
  param {
    lr_mult: 1
    decay_mult: 1
  }
  param {
    lr_mult: 2
    decay_mult: 0
  }
  convolution_param {
    num_output: 192
    kernel_size: 1
    weight_filler {
      type: "xavier"
    }
    bias_filler {
      type: "constant"
      value: 0.2
    }
  }
}
layer {
  name: "inception_4a/relu_1x1"
  type: "ReLU"
  bottom: "inception_4a/1x1"
  top: "inception_4a/1x1"
}
layer {
  name: "inception_4a/3x3_reduce"
  type: "Convolution"
  bottom: "pool3/3x3_s2"
  top: "inception_4a/3x3_reduce"
  param {
    lr_mult: 1
    decay_mult: 1
  }
  param {
    lr_mult: 2
    decay_mult: 0
  }
  convolution_param {
    num_output: 96
    kernel_size: 1
    weight_filler {
      type: "xavier"
    }
    bias_filler {
      type: "constant"
      value: 0.2
    }
  }
}
layer {
  name: "inception_4a/relu_3x3_reduce"
  type: "ReLU"
  bottom: "inception_4a/3x3_reduce"
  top: "inception_4a/3x3_reduce"
}
layer {
  name: "inception_4a/3x3"
  type: "Convolution"
  bottom: "inception_4a/3x3_reduce"
  top: "inception_4a/3x3"
  param {
    lr_mult: 1
    decay_mult: 1
  }
  param {
    lr_mult: 2
    decay_mult: 0
  }
  convolution_param {
    num_output: 208
    pad: 1
    kernel_size: 3
    weight_filler {
      type: "xavier"
    }
    bias_filler {
      type: "constant"
      value: 0.2
    }
  }
}
layer {
  name: "inception_4a/relu_3x3"
  type: "ReLU"
  bottom: "inception_4a/3x3"
  top: "inception_4a/3x3"
}
layer {
  name: "inception_4a/5x5_reduce"
  type: "Convolution"
  bottom: "pool3/3x3_s2"
  top: "inception_4a/5x5_reduce"
  param {
    lr_mult: 1
    decay_mult: 1
  }
  param {
    lr_mult: 2
    decay_mult: 0
  }
  convolution_param {
    num_output: 16
    kernel_size: 1
    weight_filler {
      type: "xavier"
    }
    bias_filler {
      type: "constant"
      value: 0.2
    }
  }
}
layer {
  name: "inception_4a/relu_5x5_reduce"
  type: "ReLU"
  bottom: "inception_4a/5x5_reduce"
  top: "inception_4a/5x5_reduce"
}
layer {
  name: "inception_4a/5x5"
  type: "Convolution"
  bottom: "inception_4a/5x5_reduce"
  top: "inception_4a/5x5"
  param {
    lr_mult: 1
    decay_mult: 1
  }
  param {
    lr_mult: 2
    decay_mult: 0
  }
  convolution_param {
    num_output: 48
    pad: 2
    kernel_size: 5
    weight_filler {
      type: "xavier"
    }
    bias_filler {
      type: "constant"
      value: 0.2
    }
  }
}
layer {
  name: "inception_4a/relu_5x5"
  type: "ReLU"
  bottom: "inception_4a/5x5"
  top: "inception_4a/5x5"
}
layer {
  name: "inception_4a/pool"
  type: "Pooling"
  bottom: "pool3/3x3_s2"
  top: "inception_4a/pool"
  pooling_param {
    pool: MAX
    kernel_size: 3
    stride: 1
    pad: 1
  }
}
layer {
  name: "inception_4a/pool_proj"
  type: "Convolution"
  bottom: "inception_4a/pool"
  top: "inception_4a/pool_proj"
  param {
    lr_mult: 1
    decay_mult: 1
  }
  param {
    lr_mult: 2
    decay_mult: 0
  }
  convolution_param {
    num_output: 64
    kernel_size: 1
    weight_filler {
      type: "xavier"
    }
    bias_filler {
      type: "constant"
      value: 0.2
    }
  }
}
layer {
  name: "inception_4a/relu_pool_proj"
  type: "ReLU"
  bottom: "inception_4a/pool_proj"
  top: "inception_4a/pool_proj"
}
layer {
  name: "inception_4a/output"
  type: "Concat"
  bottom: "inception_4a/1x1"
  bottom: "inception_4a/3x3"
  bottom: "inception_4a/5x5"
  bottom: "inception_4a/pool_proj"
  top: "inception_4a/output"
}
layer {
  name: "loss1/ave_pool"
  type: "Pooling"
  bottom: "inception_4a/output"
  top: "loss1/ave_pool"
  pooling_param {
    pool: AVE
    kernel_size: 5
    stride: 3
  }
}
layer {
  name: "loss1/conv"
  type: "Convolution"
  bottom: "loss1/ave_pool"
  top: "loss1/conv"
  param {
    lr_mult: 1
    decay_mult: 1
  }
  param {
    lr_mult: 2
    decay_mult: 0
  }
  convolution_param {
    num_output: 128
    kernel_size: 1
    weight_filler {
      type: "xavier"
    }
    bias_filler {
      type: "constant"
      value: 0.2
    }
  }
}
layer {
  name: "loss1/relu_conv"
  type: "ReLU"
  bottom: "loss1/conv"
  top: "loss1/conv"
}
layer {
  name: "loss1/fc"
  type: "InnerProduct"
  bottom: "loss1/conv"
  top: "loss1/fc"
  param {
    lr_mult: 1
    decay_mult: 1
  }
  param {
    lr_mult: 2
    decay_mult: 0
  }
  inner_product_param {
    num_output: 1024
    weight_filler {
      type: "xavier"
    }
    bias_filler {
      type: "constant"
      value: 0.2
    }
  }
}
layer {
  name: "loss1/relu_fc"
  type: "ReLU"
  bottom: "loss1/fc"
  top: "loss1/fc"
}
layer {
  name: "loss1/drop_fc"
  type: "Dropout"
…
I0410 20:03:38.912087 25951 net.cpp:86] Creating Layer inception_4c/pool
I0410 20:03:38.912093 25951 net.cpp:408] inception_4c/pool <- inception_4b/output_inception_4b/output_0_split_3
I0410 20:03:38.912099 25951 net.cpp:382] inception_4c/pool -> inception_4c/pool
I0410 20:03:38.912137 25951 net.cpp:124] Setting up inception_4c/pool
I0410 20:03:38.912144 25951 net.cpp:131] Top shape: 50 512 14 14 (5017600)
I0410 20:03:38.912150 25951 net.cpp:139] Memory required for data: 2209566812
I0410 20:03:38.912156 25951 layer_factory.hpp:77] Creating layer inception_4c/pool_proj
I0410 20:03:38.912166 25951 net.cpp:86] Creating Layer inception_4c/pool_proj
I0410 20:03:38.912171 25951 net.cpp:408] inception_4c/pool_proj <- inception_4c/pool
I0410 20:03:38.912179 25951 net.cpp:382] inception_4c/pool_proj -> inception_4c/pool_proj
I0410 20:03:38.912601 25951 net.cpp:124] Setting up inception_4c/pool_proj
I0410 20:03:38.912611 25951 net.cpp:131] Top shape: 50 64 14 14 (627200)
I0410 20:03:38.912629 25951 net.cpp:139] Memory required for data: 2212075612
I0410 20:03:38.912636 25951 layer_factory.hpp:77] Creating layer inception_4c/relu_pool_proj
I0410 20:03:38.912641 25951 net.cpp:86] Creating Layer inception_4c/relu_pool_proj
I0410 20:03:38.912645 25951 net.cpp:408] inception_4c/relu_pool_proj <- inception_4c/pool_proj
I0410 20:03:38.912653 25951 net.cpp:369] inception_4c/relu_pool_proj -> inception_4c/pool_proj (in-place)
I0410 20:03:38.912662 25951 net.cpp:124] Setting up inception_4c/relu_pool_proj
I0410 20:03:38.912667 25951 net.cpp:131] Top shape: 50 64 14 14 (627200)
I0410 20:03:38.912670 25951 net.cpp:139] Memory required for data: 2214584412
I0410 20:03:38.912677 25951 layer_factory.hpp:77] Creating layer inception_4c/output
I0410 20:03:38.912684 25951 net.cpp:86] Creating Layer inception_4c/output
I0410 20:03:38.912690 25951 net.cpp:408] inception_4c/output <- inception_4c/1x1
I0410 20:03:38.912705 25951 net.cpp:408] inception_4c/output <- inception_4c/3x3
I0410 20:03:38.912713 25951 net.cpp:408] inception_4c/output <- inception_4c/5x5
I0410 20:03:38.912719 25951 net.cpp:408] inception_4c/output <- inception_4c/pool_proj
I0410 20:03:38.912724 25951 net.cpp:382] inception_4c/output -> inception_4c/output
I0410 20:03:38.912755 25951 net.cpp:124] Setting up inception_4c/output
I0410 20:03:38.912761 25951 net.cpp:131] Top shape: 50 512 14 14 (5017600)
I0410 20:03:38.912766 25951 net.cpp:139] Memory required for data: 2234654812
I0410 20:03:38.912770 25951 layer_factory.hpp:77] Creating layer inception_4c/output_inception_4c/output_0_split
I0410 20:03:38.912777 25951 net.cpp:86] Creating Layer inception_4c/output_inception_4c/output_0_split
I0410 20:03:38.912782 25951 net.cpp:408] inception_4c/output_inception_4c/output_0_split <- inception_4c/output
I0410 20:03:38.912791 25951 net.cpp:382] inception_4c/output_inception_4c/output_0_split -> inception_4c/output_inception_4c/output_0_split_0
I0410 20:03:38.912798 25951 net.cpp:382] inception_4c/output_inception_4c/output_0_split -> inception_4c/output_inception_4c/output_0_split_1
I0410 20:03:38.912806 25951 net.cpp:382] inception_4c/output_inception_4c/output_0_split -> inception_4c/output_inception_4c/output_0_split_2
I0410 20:03:38.912813 25951 net.cpp:382] inception_4c/output_inception_4c/output_0_split -> inception_4c/output_inception_4c/output_0_split_3
I0410 20:03:38.912873 25951 net.cpp:124] Setting up inception_4c/output_inception_4c/output_0_split
I0410 20:03:38.912880 25951 net.cpp:131] Top shape: 50 512 14 14 (5017600)
I0410 20:03:38.912885 25951 net.cpp:131] Top shape: 50 512 14 14 (5017600)
I0410 20:03:38.912891 25951 net.cpp:131] Top shape: 50 512 14 14 (5017600)
I0410 20:03:38.912897 25951 net.cpp:131] Top shape: 50 512 14 14 (5017600)
I0410 20:03:38.912900 25951 net.cpp:139] Memory required for data: 2314936412
I0410 20:03:38.912906 25951 layer_factory.hpp:77] Creating layer inception_4d/1x1
I0410 20:03:38.912916 25951 net.cpp:86] Creating Layer inception_4d/1x1
I0410 20:03:38.912922 25951 net.cpp:408] inception_4d/1x1 <- inception_4c/output_inception_4c/output_0_split_0
I0410 20:03:38.912931 25951 net.cpp:382] inception_4d/1x1 -> inception_4d/1x1
I0410 20:03:38.913511 25951 net.cpp:124] Setting up inception_4d/1x1
I0410 20:03:38.913518 25951 net.cpp:131] Top shape: 50 112 14 14 (1097600)
I0410 20:03:38.913524 25951 net.cpp:139] Memory required for data: 2319326812
I0410 20:03:38.913530 25951 layer_factory.hpp:77] Creating layer inception_4d/relu_1x1
I0410 20:03:38.913537 25951 net.cpp:86] Creating Layer inception_4d/relu_1x1
I0410 20:03:38.913542 25951 net.cpp:408] inception_4d/relu_1x1 <- inception_4d/1x1
I0410 20:03:38.913550 25951 net.cpp:369] inception_4d/relu_1x1 -> inception_4d/1x1 (in-place)
I0410 20:03:38.913558 25951 net.cpp:124] Setting up inception_4d/relu_1x1
I0410 20:03:38.913563 25951 net.cpp:131] Top shape: 50 112 14 14 (1097600)
I0410 20:03:38.913568 25951 net.cpp:139] Memory required for data: 2323717212
I0410 20:03:38.913574 25951 layer_factory.hpp:77] Creating layer inception_4d/3x3_reduce
I0410 20:03:38.913583 25951 net.cpp:86] Creating Layer inception_4d/3x3_reduce
I0410 20:03:38.913589 25951 net.cpp:408] inception_4d/3x3_reduce <- inception_4c/output_inception_4c/output_0_split_1
I0410 20:03:38.913595 25951 net.cpp:382] inception_4d/3x3_reduce -> inception_4d/3x3_reduce
I0410 20:03:38.914250 25951 net.cpp:124] Setting up inception_4d/3x3_reduce
I0410 20:03:38.914258 25951 net.cpp:131] Top shape: 50 144 14 14 (1411200)
I0410 20:03:38.914263 25951 net.cpp:139] Memory required for data: 2329362012
I0410 20:03:38.914269 25951 layer_factory.hpp:77] Creating layer inception_4d/relu_3x3_reduce
I0410 20:03:38.914276 25951 net.cpp:86] Creating Layer inception_4d/relu_3x3_reduce
I0410 20:03:38.914280 25951 net.cpp:408] inception_4d/relu_3x3_reduce <- inception_4d/3x3_reduce
I0410 20:03:38.914304 25951 net.cpp:369] inception_4d/relu_3x3_reduce -> inception_4d/3x3_reduce (in-place)
I0410 20:03:38.914317 25951 net.cpp:124] Setting up inception_4d/relu_3x3_reduce
I0410 20:03:38.914340 25951 net.cpp:131] Top shape: 50 144 14 14 (1411200)
I0410 20:03:38.914345 25951 net.cpp:139] Memory required for data: 2335006812
I0410 20:03:38.914350 25951 layer_factory.hpp:77] Creating layer inception_4d/3x3
I0410 20:03:38.914360 25951 net.cpp:86] Creating Layer inception_4d/3x3
I0410 20:03:38.914366 25951 net.cpp:408] inception_4d/3x3 <- inception_4d/3x3_reduce
I0410 20:03:38.914372 25951 net.cpp:382] inception_4d/3x3 -> inception_4d/3x3
I0410 20:03:38.921886 25951 net.cpp:124] Setting up inception_4d/3x3
I0410 20:03:38.921901 25951 net.cpp:131] Top shape: 50 288 14 14 (2822400)
I0410 20:03:38.921908 25951 net.cpp:139] Memory required for data: 2346296412
I0410 20:03:38.921917 25951 layer_factory.hpp:77] Creating layer inception_4d/relu_3x3
I0410 20:03:38.921926 25951 net.cpp:86] Creating Layer inception_4d/relu_3x3
I0410 20:03:38.921931 25951 net.cpp:408] inception_4d/relu_3x3 <- inception_4d/3x3
I0410 20:03:38.921939 25951 net.cpp:369] inception_4d/relu_3x3 -> inception_4d/3x3 (in-place)
I0410 20:03:38.921948 25951 net.cpp:124] Setting up inception_4d/relu_3x3
I0410 20:03:38.921955 25951 net.cpp:131] Top shape: 50 288 14 14 (2822400)
I0410 20:03:38.921960 25951 net.cpp:139] Memory required for data: 2357586012
I0410 20:03:38.921964 25951 layer_factory.hpp:77] Creating layer inception_4d/5x5_reduce
I0410 20:03:38.921990 25951 net.cpp:86] Creating Layer inception_4d/5x5_reduce
I0410 20:03:38.921996 25951 net.cpp:408] inception_4d/5x5_reduce <- inception_4c/output_inception_4c/output_0_split_2
I0410 20:03:38.922005 25951 net.cpp:382] inception_4d/5x5_reduce -> inception_4d/5x5_reduce
I0410 20:03:38.922371 25951 net.cpp:124] Setting up inception_4d/5x5_reduce
I0410 20:03:38.922379 25951 net.cpp:131] Top shape: 50 32 14 14 (313600)
I0410 20:03:38.922394 25951 net.cpp:139] Memory required for data: 2358840412
I0410 20:03:38.922399 25951 layer_factory.hpp:77] Creating layer inception_4d/relu_5x5_reduce
I0410 20:03:38.922406 25951 net.cpp:86] Creating Layer inception_4d/relu_5x5_reduce
I0410 20:03:38.922411 25951 net.cpp:408] inception_4d/relu_5x5_reduce <- inception_4d/5x5_reduce
I0410 20:03:38.922417 25951 net.cpp:369] inception_4d/relu_5x5_reduce -> inception_4d/5x5_reduce (in-place)
I0410 20:03:38.922425 25951 net.cpp:124] Setting up inception_4d/relu_5x5_reduce
I0410 20:03:38.922432 25951 net.cpp:131] Top shape: 50 32 14 14 (313600)
I0410 20:03:38.922438 25951 net.cpp:139] Memory required for data: 2360094812
I0410 20:03:38.922442 25951 layer_factory.hpp:77] Creating layer inception_4d/5x5
I0410 20:03:38.922451 25951 net.cpp:86] Creating Layer inception_4d/5x5
I0410 20:03:38.922457 25951 net.cpp:408] inception_4d/5x5 <- inception_4d/5x5_reduce
I0410 20:03:38.922464 25951 net.cpp:382] inception_4d/5x5 -> inception_4d/5x5
I0410 20:03:38.922997 25951 net.cpp:124] Setting up inception_4d/5x5
I0410 20:03:38.923007 25951 net.cpp:131] Top shape: 50 64 14 14 (627200)
I0410 20:03:38.923012 25951 net.cpp:139] Memory required for data: 2362603612
I0410 20:03:38.923020 25951 layer_factory.hpp:77] Creating layer inception_4d/relu_5x5
I0410 20:03:38.923027 25951 net.cpp:86] Creating Layer inception_4d/relu_5x5
I0410 20:03:38.923034 25951 net.cpp:408] inception_4d/relu_5x5 <- inception_4d/5x5
I0410 20:03:38.923066 25951 net.cpp:369] inception_4d/relu_5x5 -> inception_4d/5x5 (in-place)
I0410 20:03:38.923074 25951 net.cpp:124] Setting up inception_4d/relu_5x5
I0410 20:03:38.923089 25951 net.cpp:131] Top shape: 50 64 14 14 (627200)
I0410 20:03:38.923094 25951 net.cpp:139] Memory required for data: 2365112412
I0410 20:03:38.923099 25951 layer_factory.hpp:77] Creating layer inception_4d/pool
I0410 20:03:38.923108 25951 net.cpp:86] Creating Layer inception_4d/pool
I0410 20:03:38.923115 25951 net.cpp:408] inception_4d/pool <- inception_4c/output_inception_4c/output_0_split_3
I0410 20:03:38.923121 25951 net.cpp:382] inception_4d/pool -> inception_4d/pool
I0410 20:03:38.923167 25951 net.cpp:124] Setting up inception_4d/pool
I0410 20:03:38.923194 25951 net.cpp:131] Top shape: 50 512 14 14 (5017600)
I0410 20:03:38.923200 25951 net.cpp:139] Memory required for data: 2385182812
I0410 20:03:38.923207 25951 layer_factory.hpp:77] Creating layer inception_4d/pool_proj
I0410 20:03:38.923218 25951 net.cpp:86] Creating Layer inception_4d/pool_proj
I0410 20:03:38.923223 25951 net.cpp:408] inception_4d/pool_proj <- inception_4d/pool
I0410 20:03:38.923231 25951 net.cpp:382] inception_4d/pool_proj -> inception_4d/pool_proj
I0410 20:03:38.923727 25951 net.cpp:124] Setting up inception_4d/pool_proj
I0410 20:03:38.923735 25951 net.cpp:131] Top shape: 50 64 14 14 (627200)
I0410 20:03:38.923740 25951 net.cpp:139] Memory required for data: 2387691612
I0410 20:03:38.923748 25951 layer_factory.hpp:77] Creating layer inception_4d/relu_pool_proj
I0410 20:03:38.923754 25951 net.cpp:86] Creating Layer inception_4d/relu_pool_proj
I0410 20:03:38.923760 25951 net.cpp:408] inception_4d/relu_pool_proj <- inception_4d/pool_proj
I0410 20:03:38.923782 25951 net.cpp:369] inception_4d/relu_pool_proj -> inception_4d/pool_proj (in-place)
I0410 20:03:38.923789 25951 net.cpp:124] Setting up inception_4d/relu_pool_proj
I0410 20:03:38.923796 25951 net.cpp:131] Top shape: 50 64 14 14 (627200)
I0410 20:03:38.923801 25951 net.cpp:139] Memory required for data: 2390200412
I0410 20:03:38.923806 25951 layer_factory.hpp:77] Creating layer inception_4d/output
I0410 20:03:38.923813 25951 net.cpp:86] Creating Layer inception_4d/output
I0410 20:03:38.923818 25951 net.cpp:408] inception_4d/output <- inception_4d/1x1
I0410 20:03:38.923825 25951 net.cpp:408] inception_4d/output <- inception_4d/3x3
I0410 20:03:38.923830 25951 net.cpp:408] inception_4d/output <- inception_4d/5x5
I0410 20:03:38.923836 25951 net.cpp:408] inception_4d/output <- inception_4d/pool_proj
I0410 20:03:38.923843 25951 net.cpp:382] inception_4d/output -> inception_4d/output
I0410 20:03:38.923869 25951 net.cpp:124] Setting up inception_4d/output
I0410 20:03:38.923876 25951 net.cpp:131] Top shape: 50 528 14 14 (5174400)
I0410 20:03:38.923880 25951 net.cpp:139] Memory required for data: 2410898012
I0410 20:03:38.923892 25951 layer_factory.hpp:77] Creating layer inception_4d/output_inception_4d/output_0_split
I0410 20:03:38.923900 25951 net.cpp:86] Creating Layer inception_4d/output_inception_4d/output_0_split
I0410 20:03:38.923905 25951 net.cpp:408] inception_4d/output_inception_4d/output_0_split <- inception_4d/output
I0410 20:03:38.923913 25951 net.cpp:382] inception_4d/output_inception_4d/output_0_split -> inception_4d/output_inception_4d/output_0_split_0
I0410 20:03:38.923921 25951 net.cpp:382] inception_4d/output_inception_4d/output_0_split -> inception_4d/output_inception_4d/output_0_split_1
I0410 20:03:38.923931 25951 net.cpp:382] inception_4d/output_inception_4d/output_0_split -> inception_4d/output_inception_4d/output_0_split_2
I0410 20:03:38.923939 25951 net.cpp:382] inception_4d/output_inception_4d/output_0_split -> inception_4d/output_inception_4d/output_0_split_3
I0410 20:03:38.923949 25951 net.cpp:382] inception_4d/output_inception_4d/output_0_split -> inception_4d/output_inception_4d/output_0_split_4
I0410 20:03:38.924021 25951 net.cpp:124] Setting up inception_4d/output_inception_4d/output_0_split
I0410 20:03:38.924027 25951 net.cpp:131] Top shape: 50 528 14 14 (5174400)
I0410 20:03:38.924034 25951 net.cpp:131] Top shape: 50 528 14 14 (5174400)
I0410 20:03:38.924041 25951 net.cpp:131] Top shape: 50 528 14 14 (5174400)
I0410 20:03:38.924046 25951 net.cpp:131] Top shape: 50 528 14 14 (5174400)
I0410 20:03:38.924053 25951 net.cpp:131] Top shape: 50 528 14 14 (5174400)
I0410 20:03:38.924057 25951 net.cpp:139] Memory required for data: 2514386012
I0410 20:03:38.924062 25951 layer_factory.hpp:77] Creating layer loss2/ave_pool
I0410 20:03:38.924069 25951 net.cpp:86] Creating Layer loss2/ave_pool
I0410 20:03:38.924075 25951 net.cpp:408] loss2/ave_pool <- inception_4d/output_inception_4d/output_0_split_0
I0410 20:03:38.924082 25951 net.cpp:382] loss2/ave_pool -> loss2/ave_pool
I0410 20:03:38.924108 25951 net.cpp:124] Setting up loss2/ave_pool
I0410 20:03:38.924123 25951 net.cpp:131] Top shape: 50 528 4 4 (422400)
I0410 20:03:38.924129 25951 net.cpp:139] Memory required for data: 2516075612
I0410 20:03:38.924134 25951 layer_factory.hpp:77] Creating layer loss2/conv
I0410 20:03:38.924144 25951 net.cpp:86] Creating Layer loss2/conv
I0410 20:03:38.924149 25951 net.cpp:408] loss2/conv <- loss2/ave_pool
I0410 20:03:38.924157 25951 net.cpp:382] loss2/conv -> loss2/conv
I0410 20:03:38.924813 25951 net.cpp:124] Setting up loss2/conv
I0410 20:03:38.924823 25951 net.cpp:131] Top shape: 50 128 4 4 (102400)
I0410 20:03:38.924827 25951 net.cpp:139] Memory required for data: 2516485212
I0410 20:03:38.924836 25951 layer_factory.hpp:77] Creating layer loss2/relu_conv
I0410 20:03:38.924844 25951 net.cpp:86] Creating Layer loss2/relu_conv
I0410 20:03:38.924849 25951 net.cpp:408] loss2/relu_conv <- loss2/conv
I0410 20:03:38.924855 25951 net.cpp:369] loss2/relu_conv -> loss2/conv (in-place)
I0410 20:03:38.924862 25951 net.cpp:124] Setting up loss2/relu_conv
I0410 20:03:38.924867 25951 net.cpp:131] Top shape: 50 128 4 4 (102400)
I0410 20:03:38.924872 25951 net.cpp:139] Memory required for data: 2516894812
I0410 20:03:38.924876 25951 layer_factory.hpp:77] Creating layer loss2/fc
I0410 20:03:38.924886 25951 net.cpp:86] Creating Layer loss2/fc
I0410 20:03:38.924890 25951 net.cpp:408] loss2/fc <- loss2/conv
I0410 20:03:38.924897 25951 net.cpp:382] loss2/fc -> loss2/fc
I0410 20:03:38.940124 25951 net.cpp:124] Setting up loss2/fc
I0410 20:03:38.940167 25951 net.cpp:131] Top shape: 50 1024 (51200)
I0410 20:03:38.940171 25951 net.cpp:139] Memory required for data: 2517099612
I0410 20:03:38.940184 25951 layer_factory.hpp:77] Creating layer loss2/relu_fc
I0410 20:03:38.940196 25951 net.cpp:86] Creating Layer loss2/relu_fc
I0410 20:03:38.940203 25951 net.cpp:408] loss2/relu_fc <- loss2/fc
I0410 20:03:38.940212 25951 net.cpp:369] loss2/relu_fc -> loss2/fc (in-place)
I0410 20:03:38.940222 25951 net.cpp:124] Setting up loss2/relu_fc
I0410 20:03:38.940227 25951 net.cpp:131] Top shape: 50 1024 (51200)
I0410 20:03:38.940232 25951 net.cpp:139] Memory required for data: 2517304412
I0410 20:03:38.940235 25951 layer_factory.hpp:77] Creating layer loss2/drop_fc
I0410 20:03:38.940243 25951 net.cpp:86] Creating Layer loss2/drop_fc
I0410 20:03:38.940248 25951 net.cpp:408] loss2/drop_fc <- loss2/fc
I0410 20:03:38.940254 25951 net.cpp:369] loss2/drop_fc -> loss2/fc (in-place)
I0410 20:03:38.940289 25951 net.cpp:124] Setting up loss2/drop_fc
I0410 20:03:38.940294 25951 net.cpp:131] Top shape: 50 1024 (51200)
I0410 20:03:38.940299 25951 net.cpp:139] Memory required for data: 2517509212
I0410 20:03:38.940304 25951 layer_factory.hpp:77] Creating layer loss2/classifier-bird
I0410 20:03:38.940312 25951 net.cpp:86] Creating Layer loss2/classifier-bird
I0410 20:03:38.940317 25951 net.cpp:408] loss2/classifier-bird <- loss2/fc
I0410 20:03:38.940325 25951 net.cpp:382] loss2/classifier-bird -> loss2/classifier
I0410 20:03:38.940500 25951 net.cpp:124] Setting up loss2/classifier-bird
I0410 20:03:38.940508 25951 net.cpp:131] Top shape: 50 4 (200)
I0410 20:03:38.940512 25951 net.cpp:139] Memory required for data: 2517510012
I0410 20:03:38.940520 25951 layer_factory.hpp:77] Creating layer loss2/classifier_loss2/classifier-bird_0_split
I0410 20:03:38.940527 25951 net.cpp:86] Creating Layer loss2/classifier_loss2/classifier-bird_0_split
I0410 20:03:38.940533 25951 net.cpp:408] loss2/classifier_loss2/classifier-bird_0_split <- loss2/classifier
I0410 20:03:38.940541 25951 net.cpp:382] loss2/classifier_loss2/classifier-bird_0_split -> loss2/classifier_loss2/classifier-bird_0_split_0
I0410 20:03:38.940548 25951 net.cpp:382] loss2/classifier_loss2/classifier-bird_0_split -> loss2/classifier_loss2/classifier-bird_0_split_1
I0410 20:03:38.940557 25951 net.cpp:382] loss2/classifier_loss2/classifier-bird_0_split -> loss2/classifier_loss2/classifier-bird_0_split_2
I0410 20:03:38.940604 25951 net.cpp:124] Setting up loss2/classifier_loss2/classifier-bird_0_split
I0410 20:03:38.940611 25951 net.cpp:131] Top shape: 50 4 (200)
I0410 20:03:38.940637 25951 net.cpp:131] Top shape: 50 4 (200)
I0410 20:03:38.940659 25951 net.cpp:131] Top shape: 50 4 (200)
I0410 20:03:38.940662 25951 net.cpp:139] Memory required for data: 2517512412
I0410 20:03:38.940666 25951 layer_factory.hpp:77] Creating layer loss2/loss
I0410 20:03:38.940673 25951 net.cpp:86] Creating Layer loss2/loss
I0410 20:03:38.940680 25951 net.cpp:408] loss2/loss <- loss2/classifier_loss2/classifier-bird_0_split_0
I0410 20:03:38.940685 25951 net.cpp:408] loss2/loss <- label_data_1_split_3
…
I0410 20:03:38.940901 25951 net.cpp:124] Setting up loss2/top-5
I0410 20:03:38.940906 25951 net.cpp:131] Top shape: (1)
I0410 20:03:38.940909 25951 net.cpp:139] Memory required for data: 2517512424
I0410 20:03:38.940914 25951 layer_factory.hpp:77] Creating layer inception_4e/1x1
I0410 20:03:38.940937 25951 net.cpp:86] Creating Layer inception_4e/1x1
I0410 20:03:38.940943 25951 net.cpp:408] inception_4e/1x1 <- inception_4d/output_inception_4d/output_0_split_1
I0410 20:03:38.940950 25951 net.cpp:382] inception_4e/1x1 -> inception_4e/1x1
I0410 20:03:38.942061 25951 net.cpp:124] Setting up inception_4e/1x1
I0410 20:03:38.942070 25951 net.cpp:131] Top shape: 50 256 14 14 (2508800)
I0410 20:03:38.942075 25951 net.cpp:139] Memory required for data: 2527547624
I0410 20:03:38.942082 25951 layer_factory.hpp:77] Creating layer inception_4e/relu_1x1
I0410 20:03:38.942090 25951 net.cpp:86] Creating Layer inception_4e/relu_1x1
I0410 20:03:38.942095 25951 net.cpp:408] inception_4e/relu_1x1 <- inception_4e/1x1
I0410 20:03:38.942101 25951 net.cpp:369] inception_4e/relu_1x1 -> inception_4e/1x1 (in-place)
I0410 20:03:38.942107 25951 net.cpp:124] Setting up inception_4e/relu_1x1
I0410 20:03:38.942113 25951 net.cpp:131] Top shape: 50 256 14 14 (2508800)
I0410 20:03:38.942117 25951 net.cpp:139] Memory required for data: 2537582824
I0410 20:03:38.942121 25951 layer_factory.hpp:77] Creating layer inception_4e/3x3_reduce
I0410 20:03:38.942169 25951 net.cpp:86] Creating Layer inception_4e/3x3_reduce
I0410 20:03:38.942175 25951 net.cpp:408] inception_4e/3x3_reduce <- inception_4d/output_inception_4d/output_0_split_2
I0410 20:03:38.942183 25951 net.cpp:382] inception_4e/3x3_reduce -> inception_4e/3x3_reduce
I0410 20:03:38.942939 25951 net.cpp:124] Setting up inception_4e/3x3_reduce
I0410 20:03:38.942947 25951 net.cpp:131] Top shape: 50 160 14 14 (1568000)
I0410 20:03:38.942952 25951 net.cpp:139] Memory required for data: 2543854824
I0410 20:03:38.942958 25951 layer_factory.hpp:77] Creating layer inception_4e/relu_3x3_reduce
I0410 20:03:38.942965 25951 net.cpp:86] Creating Layer inception_4e/relu_3x3_reduce
I0410 20:03:38.942968 25951 net.cpp:408] inception_4e/relu_3x3_reduce <- inception_4e/3x3_reduce
I0410 20:03:38.942984 25951 net.cpp:369] inception_4e/relu_3x3_reduce -> inception_4e/3x3_reduce (in-place)
I0410 20:03:38.942992 25951 net.cpp:124] Setting up inception_4e/relu_3x3_reduce
I0410 20:03:38.942997 25951 net.cpp:131] Top shape: 50 160 14 14 (1568000)
I0410 20:03:38.943002 25951 net.cpp:139] Memory required for data: 2550126824
I0410 20:03:38.943006 25951 layer_factory.hpp:77] Creating layer inception_4e/3x3
I0410 20:03:38.943015 25951 net.cpp:86] Creating Layer inception_4e/3x3
I0410 20:03:38.943019 25951 net.cpp:408] inception_4e/3x3 <- inception_4e/3x3_reduce
I0410 20:03:38.943027 25951 net.cpp:382] inception_4e/3x3 -> inception_4e/3x3
I0410 20:03:38.946846 25951 net.cpp:124] Setting up inception_4e/3x3
I0410 20:03:38.946861 25951 net.cpp:131] Top shape: 50 320 14 14 (3136000)
I0410 20:03:38.946864 25951 net.cpp:139] Memory required for data: 2562670824
I0410 20:03:38.946871 25951 layer_factory.hpp:77] Creating layer inception_4e/relu_3x3
I0410 20:03:38.946878 25951 net.cpp:86] Creating Layer inception_4e/relu_3x3
I0410 20:03:38.946884 25951 net.cpp:408] inception_4e/relu_3x3 <- inception_4e/3x3
I0410 20:03:38.946890 25951 net.cpp:369] inception_4e/relu_3x3 -> inception_4e/3x3 (in-place)
I0410 20:03:38.946898 25951 net.cpp:124] Setting up inception_4e/relu_3x3
I0410 20:03:38.946904 25951 net.cpp:131] Top shape: 50 320 14 14 (3136000)
I0410 20:03:38.946908 25951 net.cpp:139] Memory required for data: 2575214824
I0410 20:03:38.946913 25951 layer_factory.hpp:77] Creating layer inception_4e/5x5_reduce
I0410 20:03:38.946921 25951 net.cpp:86] Creating Layer inception_4e/5x5_reduce
I0410 20:03:38.946926 25951 net.cpp:408] inception_4e/5x5_reduce <- inception_4d/output_inception_4d/output_0_split_3
I0410 20:03:38.946933 25951 net.cpp:382] inception_4e/5x5_reduce -> inception_4e/5x5_reduce
I0410 20:03:38.947285 25951 net.cpp:124] Setting up inception_4e/5x5_reduce
I0410 20:03:38.947294 25951 net.cpp:131] Top shape: 50 32 14 14 (313600)
I0410 20:03:38.947299 25951 net.cpp:139] Memory required for data: 2576469224
I0410 20:03:38.947312 25951 layer_factory.hpp:77] Creating layer inception_4e/relu_5x5_reduce
I0410 20:03:38.947319 25951 net.cpp:86] Creating Layer inception_4e/relu_5x5_reduce
I0410 20:03:38.947324 25951 net.cpp:408] inception_4e/relu_5x5_reduce <- inception_4e/5x5_reduce
I0410 20:03:38.947330 25951 net.cpp:369] inception_4e/relu_5x5_reduce -> inception_4e/5x5_reduce (in-place)
I0410 20:03:38.947336 25951 net.cpp:124] Setting up inception_4e/relu_5x5_reduce
I0410 20:03:38.947342 25951 net.cpp:131] Top shape: 50 32 14 14 (313600)
I0410 20:03:38.947346 25951 net.cpp:139] Memory required for data: 2577723624
I0410 20:03:38.947350 25951 layer_factory.hpp:77] Creating layer inception_4e/5x5
I0410 20:03:38.947360 25951 net.cpp:86] Creating Layer inception_4e/5x5
I0410 20:03:38.947379 25951 net.cpp:408] inception_4e/5x5 <- inception_4e/5x5_reduce
I0410 20:03:38.947386 25951 net.cpp:382] inception_4e/5x5 -> inception_4e/5x5
I0410 20:03:38.948190 25951 net.cpp:124] Setting up inception_4e/5x5
I0410 20:03:38.948199 25951 net.cpp:131] Top shape: 50 128 14 14 (1254400)
I0410 20:03:38.948204 25951 net.cpp:139] Memory required for data: 2582741224
I0410 20:03:38.948210 25951 layer_factory.hpp:77] Creating layer inception_4e/relu_5x5
I0410 20:03:38.948216 25951 net.cpp:86] Creating Layer inception_4e/relu_5x5
I0410 20:03:38.948221 25951 net.cpp:408] inception_4e/relu_5x5 <- inception_4e/5x5
I0410 20:03:38.948225 25951 net.cpp:369] inception_4e/relu_5x5 -> inception_4e/5x5 (in-place)
I0410 20:03:38.948231 25951 net.cpp:124] Setting up inception_4e/relu_5x5
I0410 20:03:38.948237 25951 net.cpp:131] Top shape: 50 128 14 14 (1254400)
I0410 20:03:38.948241 25951 net.cpp:139] Memory required for data: 2587758824
I0410 20:03:38.948245 25951 layer_factory.hpp:77] Creating layer inception_4e/pool
I0410 20:03:38.948251 25951 net.cpp:86] Creating Layer inception_4e/pool
I0410 20:03:38.948256 25951 net.cpp:408] inception_4e/pool <- inception_4d/output_inception_4d/output_0_split_4
I0410 20:03:38.948276 25951 net.cpp:382] inception_4e/pool -> inception_4e/pool
I0410 20:03:38.948317 25951 net.cpp:124] Setting up inception_4e/pool
I0410 20:03:38.948323 25951 net.cpp:131] Top shape: 50 528 14 14 (5174400)
I0410 20:03:38.948328 25951 net.cpp:139] Memory required for data: 2608456424
I0410 20:03:38.948331 25951 layer_factory.hpp:77] Creating layer inception_4e/pool_proj
I0410 20:03:38.948339 25951 net.cpp:86] Creating Layer inception_4e/pool_proj
I0410 20:03:38.948343 25951 net.cpp:408] inception_4e/pool_proj <- inception_4e/pool
I0410 20:03:38.948351 25951 net.cpp:382] inception_4e/pool_proj -> inception_4e/pool_proj
I0410 20:03:38.948976 25951 net.cpp:124] Setting up inception_4e/pool_proj
I0410 20:03:38.948984 25951 net.cpp:131] Top shape: 50 128 14 14 (1254400)
I0410 20:03:38.948989 25951 net.cpp:139] Memory required for data: 2613474024
I0410 20:03:38.948997 25951 layer_factory.hpp:77] Creating layer inception_4e/relu_pool_proj
I0410 20:03:38.949002 25951 net.cpp:86] Creating Layer inception_4e/relu_pool_proj
I0410 20:03:38.949007 25951 net.cpp:408] inception_4e/relu_pool_proj <- inception_4e/pool_proj
I0410 20:03:38.949013 25951 net.cpp:369] inception_4e/relu_pool_proj -> inception_4e/pool_proj (in-place)
I0410 20:03:38.949020 25951 net.cpp:124] Setting up inception_4e/relu_pool_proj
I0410 20:03:38.949025 25951 net.cpp:131] Top shape: 50 128 14 14 (1254400)
I0410 20:03:38.949029 25951 net.cpp:139] Memory required for data: 2618491624
I0410 20:03:38.949033 25951 layer_factory.hpp:77] Creating layer inception_4e/output
I0410 20:03:38.949040 25951 net.cpp:86] Creating Layer inception_4e/output
I0410 20:03:38.949045 25951 net.cpp:408] inception_4e/output <- inception_4e/1x1
I0410 20:03:38.949050 25951 net.cpp:408] inception_4e/output <- inception_4e/3x3
I0410 20:03:38.949055 25951 net.cpp:408] inception_4e/output <- inception_4e/5x5
I0410 20:03:38.949060 25951 net.cpp:408] inception_4e/output <- inception_4e/pool_proj
I0410 20:03:38.949082 25951 net.cpp:382] inception_4e/output -> inception_4e/output
I0410 20:03:38.949106 25951 net.cpp:124] Setting up inception_4e/output
I0410 20:03:38.949113 25951 net.cpp:131] Top shape: 50 832 14 14 (8153600)
I0410 20:03:38.949117 25951 net.cpp:139] Memory required for data: 2651106024
I0410 20:03:38.949121 25951 layer_factory.hpp:77] Creating layer pool4/3x3_s2
I0410 20:03:38.949129 25951 net.cpp:86] Creating Layer pool4/3x3_s2
I0410 20:03:38.949132 25951 net.cpp:408] pool4/3x3_s2 <- inception_4e/output
I0410 20:03:38.949141 25951 net.cpp:382] pool4/3x3_s2 -> pool4/3x3_s2
I0410 20:03:38.949174 25951 net.cpp:124] Setting up pool4/3x3_s2
I0410 20:03:38.949180 25951 net.cpp:131] Top shape: 50 832 7 7 (2038400)
I0410 20:03:38.949184 25951 net.cpp:139] Memory required for data: 2659259624
I0410 20:03:38.949188 25951 layer_factory.hpp:77] Creating layer pool4/3x3_s2_pool4/3x3_s2_0_split
I0410 20:03:38.949195 25951 net.cpp:86] Creating Layer pool4/3x3_s2_pool4/3x3_s2_0_split
I0410 20:03:38.949200 25951 net.cpp:408] pool4/3x3_s2_pool4/3x3_s2_0_split <- pool4/3x3_s2
I0410 20:03:38.949206 25951 net.cpp:382] pool4/3x3_s2_pool4/3x3_s2_0_split -> pool4/3x3_s2_pool4/3x3_s2_0_split_0
I0410 20:03:38.949214 25951 net.cpp:382] pool4/3x3_s2_pool4/3x3_s2_0_split -> pool4/3x3_s2_pool4/3x3_s2_0_split_1
I0410 20:03:38.949221 25951 net.cpp:382] pool4/3x3_s2_pool4/3x3_s2_0_split -> pool4/3x3_s2_pool4/3x3_s2_0_split_2
I0410 20:03:38.949247 25951 net.cpp:382] pool4/3x3_s2_pool4/3x3_s2_0_split -> pool4/3x3_s2_pool4/3x3_s2_0_split_3
I0410 20:03:38.949303 25951 net.cpp:124] Setting up pool4/3x3_s2_pool4/3x3_s2_0_split
I0410 20:03:38.949311 25951 net.cpp:131] Top shape: 50 832 7 7 (2038400)
I0410 20:03:38.949316 25951 net.cpp:131] Top shape: 50 832 7 7 (2038400)
I0410 20:03:38.949321 25951 net.cpp:131] Top shape: 50 832 7 7 (2038400)
I0410 20:03:38.949326 25951 net.cpp:131] Top shape: 50 832 7 7 (2038400)
I0410 20:03:38.949329 25951 net.cpp:139] Memory required for data: 2691874024
I0410 20:03:38.949334 25951 layer_factory.hpp:77] Creating layer inception_5a/1x1
I0410 20:03:38.949342 25951 net.cpp:86] Creating Layer inception_5a/1x1
I0410 20:03:38.949354 25951 net.cpp:408] inception_5a/1x1 <- pool4/3x3_s2_pool4/3x3_s2_0_split_0
I0410 20:03:38.949363 25951 net.cpp:382] inception_5a/1x1 -> inception_5a/1x1
I0410 20:03:38.958559 25951 net.cpp:124] Setting up inception_5a/1x1
I0410 20:03:38.958573 25951 net.cpp:131] Top shape: 50 256 7 7 (627200)
I0410 20:03:38.958578 25951 net.cpp:139] Memory required for data: 2694382824
I0410 20:03:38.958586 25951 layer_factory.hpp:77] Creating layer inception_5a/relu_1x1
I0410 20:03:38.958593 25951 net.cpp:86] Creating Layer inception_5a/relu_1x1
I0410 20:03:38.958598 25951 net.cpp:408] inception_5a/relu_1x1 <- inception_5a/1x1
I0410 20:03:38.958606 25951 net.cpp:369] inception_5a/relu_1x1 -> inception_5a/1x1 (in-place)
I0410 20:03:38.958614 25951 net.cpp:124] Setting up inception_5a/relu_1x1
I0410 20:03:38.958619 25951 net.cpp:131] Top shape: 50 256 7 7 (627200)
I0410 20:03:38.958623 25951 net.cpp:139] Memory required for data: 2696891624
I0410 20:03:38.958627 25951 layer_factory.hpp:77] Creating layer inception_5a/3x3_reduce
I0410 20:03:38.958636 25951 net.cpp:86] Creating Layer inception_5a/3x3_reduce
I0410 20:03:38.958642 25951 net.cpp:408] inception_5a/3x3_reduce <- pool4/3x3_s2_pool4/3x3_s2_0_split_1
I0410 20:03:38.958648 25951 net.cpp:382] inception_5a/3x3_reduce -> inception_5a/3x3_reduce
I0410 20:03:38.959669 25951 net.cpp:124] Setting up inception_5a/3x3_reduce
I0410 20:03:38.959679 25951 net.cpp:131] Top shape: 50 160 7 7 (392000)
I0410 20:03:38.959683 25951 net.cpp:139] Memory required for data: 2698459624
I0410 20:03:38.959691 25951 layer_factory.hpp:77] Creating layer inception_5a/relu_3x3_reduce
I0410 20:03:38.959697 25951 net.cpp:86] Creating Layer inception_5a/relu_3x3_reduce
I0410 20:03:38.959702 25951 net.cpp:408] inception_5a/relu_3x3_reduce <- inception_5a/3x3_reduce
I0410 20:03:38.959708 25951 net.cpp:369] inception_5a/relu_3x3_reduce -> inception_5a/3x3_reduce (in-place)
I0410 20:03:38.959714 25951 net.cpp:124] Setting up inception_5a/relu_3x3_reduce
I0410 20:03:38.959720 25951 net.cpp:131] Top shape: 50 160 7 7 (392000)
I0410 20:03:38.959724 25951 net.cpp:139] Memory required for data: 2700027624
I0410 20:03:38.959729 25951 layer_factory.hpp:77] Creating layer inception_5a/3x3
I0410 20:03:38.959738 25951 net.cpp:86] Creating Layer inception_5a/3x3
I0410 20:03:38.959741 25951 net.cpp:408] inception_5a/3x3 <- inception_5a/3x3_reduce
I0410 20:03:38.959748 25951 net.cpp:382] inception_5a/3x3 -> inception_5a/3x3
I0410 20:03:38.963428 25951 net.cpp:124] Setting up inception_5a/3x3
I0410 20:03:38.963443 25951 net.cpp:131] Top shape: 50 320 7 7 (784000)
I0410 20:03:38.963448 25951 net.cpp:139] Memory required for data: 2703163624
I0410 20:03:38.963455 25951 layer_factory.hpp:77] Creating layer inception_5a/relu_3x3
I0410 20:03:38.963462 25951 net.cpp:86] Creating Layer inception_5a/relu_3x3
I0410 20:03:38.963467 25951 net.cpp:408] inception_5a/relu_3x3 <- inception_5a/3x3
I0410 20:03:38.963474 25951 net.cpp:369] inception_5a/relu_3x3 -> inception_5a/3x3 (in-place)
I0410 20:03:38.963482 25951 net.cpp:124] Setting up inception_5a/relu_3x3
I0410 20:03:38.963487 25951 net.cpp:131] Top shape: 50 320 7 7 (784000)
I0410 20:03:38.963491 25951 net.cpp:139] Memory required for data: 2706299624
I0410 20:03:38.963495 25951 layer_factory.hpp:77] Creating layer inception_5a/5x5_reduce
I0410 20:03:38.963505 25951 net.cpp:86] Creating Layer inception_5a/5x5_reduce
I0410 20:03:38.963510 25951 net.cpp:408] inception_5a/5x5_reduce <- pool4/3x3_s2_pool4/3x3_s2_0_split_2
I0410 20:03:38.963515 25951 net.cpp:382] inception_5a/5x5_reduce -> inception_5a/5x5_reduce
I0410 20:03:38.964692 25951 net.cpp:124] Setting up inception_5a/5x5_reduce
I0410 20:03:38.964706 25951 net.cpp:131] Top shape: 50 32 7 7 (78400)
I0410 20:03:38.964711 25951 net.cpp:139] Memory required for data: 2706613224
I0410 20:03:38.964718 25951 layer_factory.hpp:77] Creating layer inception_5a/relu_5x5_reduce
I0410 20:03:38.964725 25951 net.cpp:86] Creating Layer inception_5a/relu_5x5_reduce
I0410 20:03:38.964731 25951 net.cpp:408] inception_5a/relu_5x5_reduce <- inception_5a/5x5_reduce
I0410 20:03:38.964751 25951 net.cpp:369] inception_5a/relu_5x5_reduce -> inception_5a/5x5_reduce (in-place)
I0410 20:03:38.964758 25951 net.cpp:124] Setting up inception_5a/relu_5x5_reduce
I0410 20:03:38.964764 25951 net.cpp:131] Top shape: 50 32 7 7 (78400)
I0410 20:03:38.964769 25951 net.cpp:139] Memory required for data: 2706926824
I0410 20:03:38.964773 25951 layer_factory.hpp:77] Creating layer inception_5a/5x5
I0410 20:03:38.964782 25951 net.cpp:86] Creating Layer inception_5a/5x5
I0410 20:03:38.964787 25951 net.cpp:408] inception_5a/5x5 <- inception_5a/5x5_reduce
I0410 20:03:38.964809 25951 net.cpp:382] inception_5a/5x5 -> inception_5a/5x5
I0410 20:03:38.965615 25951 net.cpp:124] Setting up inception_5a/5x5
I0410 20:03:38.965622 25951 net.cpp:131] Top shape: 50 128 7 7 (313600)
I0410 20:03:38.965626 25951 net.cpp:139] Memory required for data: 2708181224
I0410 20:03:38.965633 25951 layer_factory.hpp:77] Creating layer inception_5a/relu_5x5
I0410 20:03:38.965639 25951 net.cpp:86] Creating Layer inception_5a/relu_5x5
I0410 20:03:38.965644 25951 net.cpp:408] inception_5a/relu_5x5 <- inception_5a/5x5
I0410 20:03:38.965651 25951 net.cpp:369] inception_5a/relu_5x5 -> inception_5a/5x5 (in-place)
I0410 20:03:38.965657 25951 net.cpp:124] Setting up inception_5a/relu_5x5
I0410 20:03:38.965662 25951 net.cpp:131] Top shape: 50 128 7 7 (313600)
I0410 20:03:38.965667 25951 net.cpp:139] Memory required for data: 2709435624
I0410 20:03:38.965672 25951 layer_factory.hpp:77] Creating layer inception_5a/pool
I0410 20:03:38.965677 25951 net.cpp:86] Creating Layer inception_5a/pool
I0410 20:03:38.965682 25951 net.cpp:408] inception_5a/pool <- pool4/3x3_s2_pool4/3x3_s2_0_split_3
I0410 20:03:38.965688 25951 net.cpp:382] inception_5a/pool -> inception_5a/pool
I0410 20:03:38.965725 25951 net.cpp:124] Setting up inception_5a/pool
I0410 20:03:38.965733 25951 net.cpp:131] Top shape: 50 832 7 7 (2038400)
I0410 20:03:38.965736 25951 net.cpp:139] Memory required for data: 2717589224
I0410 20:03:38.965740 25951 layer_factory.hpp:77] Creating layer inception_5a/pool_proj
I0410 20:03:38.965749 25951 net.cpp:86] Creating Layer inception_5a/pool_proj
I0410 20:03:38.965754 25951 net.cpp:408] inception_5a/pool_proj <- inception_5a/pool
I0410 20:03:38.965760 25951 net.cpp:382] inception_5a/pool_proj -> inception_5a/pool_proj
I0410 20:03:38.967389 25951 net.cpp:124] Setting up inception_5a/pool_proj
I0410 20:03:38.967403 25951 net.cpp:131] Top shape: 50 128 7 7 (313600)
I0410 20:03:38.967408 25951 net.cpp:139] Memory required for data: 2718843624
I0410 20:03:38.967414 25951 layer_factory.hpp:77] Creating layer inception_5a/relu_pool_proj
I0410 20:03:38.967422 25951 net.cpp:86] Creating Layer inception_5a/relu_pool_proj
I0410 20:03:38.967427 25951 net.cpp:408] inception_5a/relu_pool_proj <- inception_5a/pool_proj
I0410 20:03:38.967432 25951 net.cpp:369] inception_5a/relu_pool_proj -> inception_5a/pool_proj (in-place)
I0410 20:03:38.967439 25951 net.cpp:124] Setting up inception_5a/relu_pool_proj
I0410 20:03:38.967445 25951 net.cpp:131] Top shape: 50 128 7 7 (313600)
I0410 20:03:38.967449 25951 net.cpp:139] Memory required for data: 2720098024
I0410 20:03:38.967453 25951 layer_factory.hpp:77] Creating layer inception_5a/output
I0410 20:03:38.967459 25951 net.cpp:86] Creating Layer inception_5a/output
I0410 20:03:38.967463 25951 net.cpp:408] inception_5a/output <- inception_5a/1x1
I0410 20:03:38.967469 25951 net.cpp:408] inception_5a/output <- inception_5a/3x3
I0410 20:03:38.967474 25951 net.cpp:408] inception_5a/output <- inception_5a/5x5
I0410 20:03:38.967479 25951 net.cpp:408] inception_5a/output <- inception_5a/pool_proj
I0410 20:03:38.967485 25951 net.cpp:382] inception_5a/output -> inception_5a/output
I0410 20:03:38.967511 25951 net.cpp:124] Setting up inception_5a/output
I0410 20:03:38.967519 25951 net.cpp:131] Top shape: 50 832 7 7 (2038400)
I0410 20:03:38.967522 25951 net.cpp:139] Memory required for data: 2728251624
I0410 20:03:38.967526 25951 layer_factory.hpp:77] Creating layer inception_5a/output_inception_5a/output_0_split
I0410 20:03:38.967545 25951 net.cpp:86] Creating Layer inception_5a/output_inception_5a/output_0_split
I0410 20:03:38.967550 25951 net.cpp:408] inception_5a/output_inception_5a/output_0_split <- inception_5a/output
I0410 20:03:38.967556 25951 net.cpp:382] inception_5a/output_inception_5a/output_0_split -> inception_5a/output_inception_5a/output_0_split_0
I0410 20:03:38.967564 25951 net.cpp:382] inception_5a/output_inception_5a/output_0_split -> inception_5a/output_inception_5a/output_0_split_1
I0410 20:03:38.967571 25951 net.cpp:382] inception_5a/output_inception_5a/output_0_split -> inception_5a/output_inception_5a/output_0_split_2
I0410 20:03:38.967579 25951 net.cpp:382] inception_5a/output_inception_5a/output_0_split -> inception_5a/output_inception_5a/output_0_split_3
I0410 20:03:38.967638 25951 net.cpp:124] Setting up inception_5a/output_inception_5a/output_0_split
I0410 20:03:38.967644 25951 net.cpp:131] Top shape: 50 832 7 7 (2038400)
I0410 20:03:38.967649 25951 net.cpp:131] Top shape: 50 832 7 7 (2038400)
I0410 20:03:38.967654 25951 net.cpp:131] Top shape: 50 832 7 7 (2038400)
I0410 20:03:38.967659 25951 net.cpp:131] Top shape: 50 832 7 7 (2038400)
I0410 20:03:38.967664 25951 net.cpp:139] Memory required for data: 2760866024
I0410 20:03:38.967667 25951 layer_factory.hpp:77] Creating layer inception_5b/1x1
I0410 20:03:38.967677 25951 net.cpp:86] Creating Layer inception_5b/1x1
I0410 20:03:38.967682 25951 net.cpp:408] inception_5b/1x1 <- inception_5a/output_inception_5a/output_0_split_0
I0410 20:03:38.967689 25951 net.cpp:382] inception_5b/1x1 -> inception_5b/1x1
I0410 20:03:38.969637 25951 net.cpp:124] Setting up inception_5b/1x1
I0410 20:03:38.969645 25951 net.cpp:131] Top shape: 50 384 7 7 (940800)
I0410 20:03:38.969650 25951 net.cpp:139] Memory required for data: 2764629224
I0410 20:03:38.969656 25951 layer_factory.hpp:77] Creating layer inception_5b/relu_1x1
I0410 20:03:38.969662 25951 net.cpp:86] Creating Layer inception_5b/relu_1x1
I0410 20:03:38.969667 25951 net.cpp:408] inception_5b/relu_1x1 <- inception_5b/1x1
I0410 20:03:38.969672 25951 net.cpp:369] inception_5b/relu_1x1 -> inception_5b/1x1 (in-place)
I0410 20:03:38.969679 25951 net.cpp:124] Setting up inception_5b/relu_1x1
I0410 20:03:38.969684 25951 net.cpp:131] Top shape: 50 384 7 7 (940800)
I0410 20:03:38.969688 25951 net.cpp:139] Memory required for data: 2768392424
I0410 20:03:38.969692 25951 layer_factory.hpp:77] Creating layer inception_5b/3x3_reduce
I0410 20:03:38.969700 25951 net.cpp:86] Creating Layer inception_5b/3x3_reduce
I0410 20:03:38.969704 25951 net.cpp:408] inception_5b/3x3_reduce <- inception_5a/output_inception_5a/output_0_split_1
I0410 20:03:38.969712 25951 net.cpp:382] inception_5b/3x3_reduce -> inception_5b/3x3_reduce
I0410 20:03:38.971611 25951 net.cpp:124] Setting up inception_5b/3x3_reduce
I0410 20:03:38.971623 25951 net.cpp:131] Top shape: 50 192 7 7 (470400)
I0410 20:03:38.971627 25951 net.cpp:139] Memory required for data: 2770274024
I0410 20:03:38.971635 25951 layer_factory.hpp:77] Creating layer inception_5b/relu_3x3_reduce
I0410 20:03:38.971642 25951 net.cpp:86] Creating Layer inception_5b/relu_3x3_reduce
I0410 20:03:38.971647 25951 net.cpp:408] inception_5b/relu_3x3_reduce <- inception_5b/3x3_reduce
I0410 20:03:38.971653 25951 net.cpp:369] inception_5b/relu_3x3_reduce -> inception_5b/3x3_reduce (in-place)
I0410 20:03:38.971660 25951 net.cpp:124] Setting up inception_5b/relu_3x3_reduce
I0410 20:03:38.971667 25951 net.cpp:131] Top shape: 50 192 7 7 (470400)
I0410 20:03:38.971669 25951 net.cpp:139] Memory required for data: 2772155624
I0410 20:03:38.971673 25951 layer_factory.hpp:77] Creating layer inception_5b/3x3
I0410 20:03:38.971683 25951 net.cpp:86] Creating Layer inception_5b/3x3
I0410 20:03:38.971686 25951 net.cpp:408] inception_5b/3x3 <- inception_5b/3x3_reduce
I0410 20:03:38.971693 25951 net.cpp:382] inception_5b/3x3 -> inception_5b/3x3
I0410 20:03:38.976843 25951 net.cpp:124] Setting up inception_5b/3x3
I0410 20:03:38.976858 25951 net.cpp:131] Top shape: 50 384 7 7 (940800)
I0410 20:03:38.976873 25951 net.cpp:139] Memory required for data: 2775918824
I0410 20:03:38.976881 25951 layer_factory.hpp:77] Creating layer inception_5b/relu_3x3
I0410 20:03:38.976888 25951 net.cpp:86] Creating Layer inception_5b/relu_3x3
I0410 20:03:38.976894 25951 net.cpp:408] inception_5b/relu_3x3 <- inception_5b/3x3
I0410 20:03:38.976902 25951 net.cpp:369] inception_5b/relu_3x3 -> inception_5b/3x3 (in-place)
I0410 20:03:38.976908 25951 net.cpp:124] Setting up inception_5b/relu_3x3
I0410 20:03:38.976914 25951 net.cpp:131] Top shape: 50 384 7 7 (940800)
I0410 20:03:38.976918 25951 net.cpp:139] Memory required for data: 2779682024
I0410 20:03:38.976922 25951 layer_factory.hpp:77] Creating layer inception_5b/5x5_reduce
I0410 20:03:38.976932 25951 net.cpp:86] Creating Layer inception_5b/5x5_reduce
I0410 20:03:38.976936 25951 net.cpp:408] inception_5b/5x5_reduce <- inception_5a/output_inception_5a/output_0_split_2
I0410 20:03:38.976943 25951 net.cpp:382] inception_5b/5x5_reduce -> inception_5b/5x5_reduce
I0410 20:03:38.977424 25951 net.cpp:124] Setting up inception_5b/5x5_reduce
I0410 20:03:38.977433 25951 net.cpp:131] Top shape: 50 48 7 7 (117600)
I0410 20:03:38.977437 25951 net.cpp:139] Memory required for data: 2780152424
I0410 20:03:38.977444 25951 layer_factory.hpp:77] Creating layer inception_5b/relu_5x5_reduce
I0410 20:03:38.977450 25951 net.cpp:86] Creating Layer inception_5b/relu_5x5_reduce
I0410 20:03:38.977455 25951 net.cpp:408] inception_5b/relu_5x5_reduce <- inception_5b/5x5_reduce
I0410 20:03:38.977461 25951 net.cpp:369] inception_5b/relu_5x5_reduce -> inception_5b/5x5_reduce (in-place)
I0410 20:03:38.977468 25951 net.cpp:124] Setting up inception_5b/relu_5x5_reduce
I0410 20:03:38.977473 25951 net.cpp:131] Top shape: 50 48 7 7 (117600)
I0410 20:03:38.977478 25951 net.cpp:139] Memory required for data: 2780622824
I0410 20:03:38.977481 25951 layer_factory.hpp:77] Creating layer inception_5b/5x5
I0410 20:03:38.977490 25951 net.cpp:86] Creating Layer inception_5b/5x5
I0410 20:03:38.977494 25951 net.cpp:408] inception_5b/5x5 <- inception_5b/5x5_reduce
I0410 20:03:38.977501 25951 net.cpp:382] inception_5b/5x5 -> inception_5b/5x5
I0410 20:03:38.978631 25951 net.cpp:124] Setting up inception_5b/5x5
I0410 20:03:38.978641 25951 net.cpp:131] Top shape: 50 128 7 7 (313600)
I0410 20:03:38.978644 25951 net.cpp:139] Memory required for data: 2781877224
I0410 20:03:38.978652 25951 layer_factory.hpp:77] Creating layer inception_5b/relu_5x5
I0410 20:03:38.978657 25951 net.cpp:86] Creating Layer inception_5b/relu_5x5
I0410 20:03:38.978663 25951 net.cpp:408] inception_5b/relu_5x5 <- inception_5b/5x5
I0410 20:03:38.978670 25951 net.cpp:369] inception_5b/relu_5x5 -> inception_5b/5x5 (in-place)
I0410 20:03:38.978677 25951 net.cpp:124] Setting up inception_5b/relu_5x5
I0410 20:03:38.978682 25951 net.cpp:131] Top shape: 50 128 7 7 (313600)
I0410 20:03:38.978688 25951 net.cpp:139] Memory required for data: 2783131624
I0410 20:03:38.978691 25951 layer_factory.hpp:77] Creating layer inception_5b/pool
I0410 20:03:38.978699 25951 net.cpp:86] Creating Layer inception_5b/pool
I0410 20:03:38.978703 25951 net.cpp:408] inception_5b/pool <- inception_5a/output_inception_5a/output_0_split_3
I0410 20:03:38.978710 25951 net.cpp:382] inception_5b/pool -> inception_5b/pool
I0410 20:03:38.978752 25951 net.cpp:124] Setting up inception_5b/pool
I0410 20:03:38.978760 25951 net.cpp:131] Top shape: 50 832 7 7 (2038400)
I0410 20:03:38.978765 25951 net.cpp:139] Memory required for data: 2791285224
I0410 20:03:38.978768 25951 layer_factory.hpp:77] Creating layer inception_5b/pool_proj
I0410 20:03:38.978777 25951 net.cpp:86] Creating Layer inception_5b/pool_proj
I0410 20:03:38.978782 25951 net.cpp:408] inception_5b/pool_proj <- inception_5b/pool
I0410 20:03:38.978791 25951 net.cpp:382] inception_5b/pool_proj -> inception_5b/pool_proj
I0410 20:03:38.979696 25951 net.cpp:124] Setting up inception_5b/pool_proj
I0410 20:03:38.979706 25951 net.cpp:131] Top shape: 50 128 7 7 (313600)
I0410 20:03:38.979709 25951 net.cpp:139] Memory required for data: 2792539624
I0410 20:03:38.979724 25951 layer_factory.hpp:77] Creating layer inception_5b/relu_pool_proj
I0410 20:03:38.979732 25951 net.cpp:86] Creating Layer inception_5b/relu_pool_proj
I0410 20:03:38.979753 25951 net.cpp:408] inception_5b/relu_pool_proj <- inception_5b/pool_proj
I0410 20:03:38.979759 25951 net.cpp:369] inception_5b/relu_pool_proj -> inception_5b/pool_proj (in-place)
I0410 20:03:38.979766 25951 net.cpp:124] Setting up inception_5b/relu_pool_proj
I0410 20:03:38.979773 25951 net.cpp:131] Top shape: 50 128 7 7 (313600)
I0410 20:03:38.979776 25951 net.cpp:139] Memory required for data: 2793794024
I0410 20:03:38.979781 25951 layer_factory.hpp:77] Creating layer inception_5b/output
I0410 20:03:38.979789 25951 net.cpp:86] Creating Layer inception_5b/output
I0410 20:03:38.979794 25951 net.cpp:408] inception_5b/output <- inception_5b/1x1
I0410 20:03:38.979799 25951 net.cpp:408] inception_5b/output <- inception_5b/3x3
I0410 20:03:38.979820 25951 net.cpp:408] inception_5b/output <- inception_5b/5x5
I0410 20:03:38.979825 25951 net.cpp:408] inception_5b/output <- inception_5b/pool_proj
I0410 20:03:38.979832 25951 net.cpp:382] inception_5b/output -> inception_5b/output
I0410 20:03:38.979862 25951 net.cpp:124] Setting up inception_5b/output
I0410 20:03:38.979869 25951 net.cpp:131] Top shape: 50 1024 7 7 (2508800)
I0410 20:03:38.979873 25951 net.cpp:139] Memory required for data: 2803829224
I0410 20:03:38.979878 25951 layer_factory.hpp:77] Creating layer pool5/7x7_s1
I0410 20:03:38.979884 25951 net.cpp:86] Creating Layer pool5/7x7_s1
I0410 20:03:38.979904 25951 net.cpp:408] pool5/7x7_s1 <- inception_5b/output
I0410 20:03:38.979913 25951 net.cpp:382] pool5/7x7_s1 -> pool5/7x7_s1
I0410 20:03:38.979940 25951 net.cpp:124] Setting up pool5/7x7_s1
I0410 20:03:38.979948 25951 net.cpp:131] Top shape: 50 1024 1 1 (51200)
I0410 20:03:38.979951 25951 net.cpp:139] Memory required for data: 2804034024
I0410 20:03:38.979955 25951 layer_factory.hpp:77] Creating layer pool5/drop_7x7_s1
I0410 20:03:38.979964 25951 net.cpp:86] Creating Layer pool5/drop_7x7_s1
I0410 20:03:38.979969 25951 net.cpp:408] pool5/drop_7x7_s1 <- pool5/7x7_s1
I0410 20:03:38.979974 25951 net.cpp:369] pool5/drop_7x7_s1 -> pool5/7x7_s1 (in-place)
I0410 20:03:38.980000 25951 net.cpp:124] Setting up pool5/drop_7x7_s1
I0410 20:03:38.980007 25951 net.cpp:131] Top shape: 50 1024 1 1 (51200)
I0410 20:03:38.980012 25951 net.cpp:139] Memory required for data: 2804238824
I0410 20:03:38.980018 25951 layer_factory.hpp:77] Creating layer loss3/classifier-bird
I0410 20:03:38.980028 25951 net.cpp:86] Creating Layer loss3/classifier-bird
I0410 20:03:38.980033 25951 net.cpp:408] loss3/classifier-bird <- pool5/7x7_s1
I0410 20:03:38.980042 25951 net.cpp:382] loss3/classifier-bird -> loss3/classifier-bird
I0410 20:03:38.980196 25951 net.cpp:124] Setting up loss3/classifier-bird
I0410 20:03:38.980206 25951 net.cpp:131] Top shape: 50 4 (200)
I0410 20:03:38.980209 25951 net.cpp:139] Memory required for data: 2804239624
I0410 20:03:38.980218 25951 layer_factory.hpp:77] Creating layer loss3/classifier-bird_loss3/classifier-bird_0_split
I0410 20:03:38.980226 25951 net.cpp:86] Creating Layer loss3/classifier-bird_loss3/classifier-bird_0_split
I0410 20:03:38.980232 25951 net.cpp:408] loss3/classifier-bird_loss3/classifier-bird_0_split <- loss3/classifier-bird
I0410 20:03:38.980238 25951 net.cpp:382] loss3/classifier-bird_loss3/classifier-bird_0_split -> loss3/classifier-bird_loss3/classifier-bird_0_split_0
I0410 20:03:38.980247 25951 net.cpp:382] loss3/classifier-bird_loss3/classifier-bird_0_split -> loss3/classifier-bird_loss3/classifier-bird_0_split_1
I0410 20:03:38.980255 25951 net.cpp:382] loss3/classifier-bird_loss3/classifier-bird_0_split -> loss3/classifier-bird_loss3/classifier-bird_0_split_2
I0410 20:03:38.980312 25951 net.cpp:124] Setting up loss3/classifier-bird_loss3/classifier-bird_0_split
I0410 20:03:38.980320 25951 net.cpp:131] Top shape: 50 4 (200)
I0410 20:03:38.980342 25951 net.cpp:131] Top shape: 50 4 (200)
I0410 20:03:38.980347 25951 net.cpp:131] Top shape: 50 4 (200)
I0410 20:03:38.980351 25951 net.cpp:139] Memory required for data: 2804242024
I0410 20:03:38.980365 25951 layer_factory.hpp:77] Creating layer loss3/loss3
I0410 20:03:38.980373 25951 net.cpp:86] Creating Layer loss3/loss3
I0410 20:03:38.980378 25951 net.cpp:408] loss3/loss3 <- loss3/classifier-bird_loss3/classifier-bird_0_split_0
I0410 20:03:38.980384 25951 net.cpp:408] loss3/loss3 <- label_data_1_split_6
…
