…
I0426 17:06:19.209507  2338 net.cpp:296] The NetState phase (0) differed from the phase (1) specified by a rule in layer loss3/top-5
I0426 17:06:19.211557  2338 net.cpp:53] Initializing net from parameters: 
name: "GoogleNet"
state {
  phase: TRAIN
  level: 0
  stage: ""
}
layer {
  name: "data"
  type: "Data"
  top: "data"
  top: "label"
  include {
    phase: TRAIN
  }
  transform_param {
    mirror: true
    crop_size: 224
    mean_file: "/home/jungmo/Documents/bird/caffe/db/mean.binaryproto"
  }
  data_param {
    source: "/home/jungmo/Documents/bird/caffe/db/train_imageData_lmDB"
    batch_size: 50
    backend: LMDB
  }
}
layer {
  name: "conv1/7x7_s2"
  type: "Convolution"
  bottom: "data"
  top: "conv1/7x7_s2"
  param {
    lr_mult: 1
    decay_mult: 1
  }
  param {
    lr_mult: 2
    decay_mult: 0
  }
  convolution_param {
    num_output: 64
    pad: 3
    kernel_size: 7
    stride: 2
    weight_filler {
      type: "xavier"
    }
    bias_filler {
      type: "constant"
      value: 0.2
    }
  }
}
layer {
  name: "conv1/relu_7x7"
  type: "ReLU"
  bottom: "conv1/7x7_s2"
  top: "conv1/7x7_s2"
}
layer {
  name: "pool1/3x3_s2"
  type: "Pooling"
  bottom: "conv1/7x7_s2"
  top: "pool1/3x3_s2"
  pooling_param {
    pool: MAX
    kernel_size: 3
    stride: 2
  }
}
layer {
  name: "pool1/norm1"
  type: "LRN"
  bottom: "pool1/3x3_s2"
  top: "pool1/norm1"
  lrn_param {
    local_size: 5
    alpha: 0.0001
    beta: 0.75
  }
}
layer {
  name: "conv2/3x3_reduce"
  type: "Convolution"
  bottom: "pool1/norm1"
  top: "conv2/3x3_reduce"
  param {
    lr_mult: 1
    decay_mult: 1
  }
  param {
    lr_mult: 2
    decay_mult: 0
  }
  convolution_param {
    num_output: 64
    kernel_size: 1
    weight_filler {
      type: "xavier"
    }
    bias_filler {
      type: "constant"
      value: 0.2
    }
  }
}
layer {
  name: "conv2/relu_3x3_reduce"
  type: "ReLU"
  bottom: "conv2/3x3_reduce"
  top: "conv2/3x3_reduce"
}
layer {
  name: "conv2/3x3"
  type: "Convolution"
  bottom: "conv2/3x3_reduce"
  top: "conv2/3x3"
  param {
    lr_mult: 1
    decay_mult: 1
  }
  param {
    lr_mult: 2
    decay_mult: 0
  }
  convolution_param {
    num_output: 192
    pad: 1
    kernel_size: 3
    weight_filler {
      type: "xavier"
    }
    bias_filler {
      type: "constant"
      value: 0.2
    }
  }
}
layer {
  name: "conv2/relu_3x3"
  type: "ReLU"
  bottom: "conv2/3x3"
  top: "conv2/3x3"
}
layer {
  name: "conv2/norm2"
  type: "LRN"
  bottom: "conv2/3x3"
  top: "conv2/norm2"
  lrn_param {
    local_size: 5
    alpha: 0.0001
    beta: 0.75
  }
}
layer {
  name: "pool2/3x3_s2"
  type: "Pooling"
  bottom: "conv2/norm2"
  top: "pool2/3x3_s2"
  pooling_param {
    pool: MAX
    kernel_size: 3
    stride: 2
  }
}
layer {
  name: "inception_3a/1x1"
  type: "Convolution"
  bottom: "pool2/3x3_s2"
  top: "inception_3a/1x1"
  param {
    lr_mult: 1
    decay_mult: 1
  }
  param {
    lr_mult: 2
    decay_mult: 0
  }
  convolution_param {
    num_output: 64
    kernel_size: 1
    weight_filler {
      type: "xavier"
    }
    bias_filler {
      type: "constant"
      value: 0.2
    }
  }
}
layer {
  name: "inception_3a/relu_1x1"
  type: "ReLU"
  bottom: "inception_3a/1x1"
  top: "inception_3a/1x1"
}
layer {
  name: "inception_3a/3x3_reduce"
  type: "Convolution"
  bottom: "pool2/3x3_s2"
  top: "inception_3a/3x3_reduce"
  param {
    lr_mult: 1
    decay_mult: 1
  }
  param {
    lr_mult: 2
    decay_mult: 0
  }
  convolution_param {
    num_output: 96
    kernel_size: 1
    weight_filler {
      type: "xavier"
    }
    bias_filler {
      type: "constant"
      value: 0.2
    }
  }
}
layer {
  name: "inception_3a/relu_3x3_reduce"
  type: "ReLU"
  bottom: "inception_3a/3x3_reduce"
  top: "inception_3a/3x3_reduce"
}
layer {
  name: "inception_3a/3x3"
  type: "Convolution"
  bottom: "inception_3a/3x3_reduce"
  top: "inception_3a/3x3"
  param {
    lr_mult: 1
    decay_mult: 1
  }
  param {
    lr_mult: 2
    decay_mult: 0
  }
  convolution_param {
    num_output: 128
    pad: 1
    kernel_size: 3
    weight_filler {
      type: "xavier"
    }
    bias_filler {
      type: "constant"
      value: 0.2
    }
  }
}
layer {
  name: "inception_3a/relu_3x3"
  type: "ReLU"
  bottom: "inception_3a/3x3"
  top: "inception_3a/3x3"
}
layer {
  name: "inception_3a/5x5_reduce"
  type: "Convolution"
  bottom: "pool2/3x3_s2"
  top: "inception_3a/5x5_reduce"
  param {
    lr_mult: 1
    decay_mult: 1
  }
  param {
    lr_mult: 2
    decay_mult: 0
  }
  convolution_param {
    num_output: 16
    kernel_size: 1
    weight_filler {
      type: "xavier"
    }
    bias_filler {
      type: "constant"
      value: 0.2
    }
  }
}
layer {
  name: "inception_3a/relu_5x5_reduce"
  type: "ReLU"
  bottom: "inception_3a/5x5_reduce"
  top: "inception_3a/5x5_reduce"
}
layer {
  name: "inception_3a/5x5"
  type: "Convolution"
  bottom: "inception_3a/5x5_reduce"
  top: "inception_3a/5x5"
  param {
    lr_mult: 1
    decay_mult: 1
  }
  param {
    lr_mult: 2
    decay_mult: 0
  }
  convolution_param {
    num_output: 32
    pad: 2
    kernel_size: 5
    weight_filler {
      type: "xavier"
    }
    bias_filler {
      type: "constant"
      value: 0.2
    }
  }
}
layer {
  name: "inception_3a/relu_5x5"
  type: "ReLU"
  bottom: "inception_3a/5x5"
  top: "inception_3a/5x5"
}
layer {
  name: "inception_3a/pool"
  type: "Pooling"
  bottom: "pool2/3x3_s2"
  top: "inception_3a/pool"
  pooling_param {
    pool: MAX
    kernel_size: 3
    stride: 1
    pad: 1
  }
}
layer {
  name: "inception_3a/pool_proj"
  type: "Convolution"
  bottom: "inception_3a/pool"
  top: "inception_3a/pool_proj"
  param {
    lr_mult: 1
    decay_mult: 1
  }
  param {
    lr_mult: 2
    decay_mult: 0
  }
  convolution_param {
    num_output: 32
    kernel_size: 1
    weight_filler {
      type: "xavier"
    }
    bias_filler {
      type: "constant"
      value: 0.2
    }
  }
}
layer {
  name: "inception_3a/relu_pool_proj"
  type: "ReLU"
  bottom: "inception_3a/pool_proj"
  top: "inception_3a/pool_proj"
}
layer {
  name: "inception_3a/output"
  type: "Concat"
  bottom: "inception_3a/1x1"
  bottom: "inception_3a/3x3"
  bottom: "inception_3a/5x5"
  bottom: "inception_3a/pool_proj"
  top: "inception_3a/output"
}
layer {
  name: "inception_3b/1x1"
  type: "Convolution"
  bottom: "inception_3a/output"
  top: "inception_3b/1x1"
  param {
    lr_mult: 1
    decay_mult: 1
  }
  param {
    lr_mult: 2
    decay_mult: 0
  }
  convolution_param {
    num_output: 128
    kernel_size: 1
    weight_filler {
      type: "xavier"
    }
    bias_filler {
      type: "constant"
      value: 0.2
    }
  }
}
layer {
  name: "inception_3b/relu_1x1"
  type: "ReLU"
  bottom: "inception_3b/1x1"
  top: "inception_3b/1x1"
}
layer {
  name: "inception_3b/3x3_reduce"
  type: "Convolution"
  bottom: "inception_3a/output"
  top: "inception_3b/3x3_reduce"
  param {
    lr_mult: 1
    decay_mult: 1
  }
  param {
    lr_mult: 2
    decay_mult: 0
  }
  convolution_param {
    num_output: 128
    kernel_size: 1
    weight_filler {
      type: "xavier"
    }
    bias_filler {
      type: "constant"
      value: 0.2
    }
  }
}
layer {
  name: "inception_3b/relu_3x3_reduce"
  type: "ReLU"
  bottom: "inception_3b/3x3_reduce"
  top: "inception_3b/3x3_reduce"
}
layer {
  name: "inception_3b/3x3"
  type: "Convolution"
  bottom: "inception_3b/3x3_reduce"
  top: "inception_3b/3x3"
  param {
    lr_mult: 1
    decay_mult: 1
  }
  param {
    lr_mult: 2
    decay_mult: 0
  }
  convolution_param {
    num_output: 192
    pad: 1
    kernel_size: 3
    weight_filler {
      type: "xavier"
    }
    bias_filler {
      type: "constant"
      value: 0.2
    }
  }
}
layer {
  name: "inception_3b/relu_3x3"
  type: "ReLU"
  bottom: "inception_3b/3x3"
  top: "inception_3b/3x3"
}
layer {
  name: "inception_3b/5x5_reduce"
  type: "Convolution"
  bottom: "inception_3a/output"
  top: "inception_3b/5x5_reduce"
  param {
    lr_mult: 1
    decay_mult: 1
  }
  param {
    lr_mult: 2
    decay_mult: 0
  }
  convolution_param {
    num_output: 32
    kernel_size: 1
    weight_filler {
      type: "xavier"
    }
    bias_filler {
      type: "constant"
      value: 0.2
    }
  }
}
layer {
  name: "inception_3b/relu_5x5_reduce"
  type: "ReLU"
  bottom: "inception_3b/5x5_reduce"
  top: "inception_3b/5x5_reduce"
}
layer {
  name: "inception_3b/5x5"
  type: "Convolution"
  bottom: "inception_3b/5x5_reduce"
  top: "inception_3b/5x5"
  param {
    lr_mult: 1
    decay_mult: 1
  }
  param {
    lr_mult: 2
    decay_mult: 0
  }
  convolution_param {
    num_output: 96
    pad: 2
    kernel_size: 5
    weight_filler {
      type: "xavier"
    }
    bias_filler {
      type: "constant"
      value: 0.2
    }
  }
}
layer {
  name: "inception_3b/relu_5x5"
  type: "ReLU"
  bottom: "inception_3b/5x5"
  top: "inception_3b/5x5"
}
layer {
  name: "inception_3b/pool"
  type: "Pooling"
  bottom: "inception_3a/output"
  top: "inception_3b/pool"
  pooling_param {
    pool: MAX
    kernel_size: 3
    stride: 1
    pad: 1
  }
}
layer {
  name: "inception_3b/pool_proj"
  type: "Convolution"
  bottom: "inception_3b/pool"
  top: "inception_3b/pool_proj"
  param {
    lr_mult: 1
    decay_mult: 1
  }
  param {
    lr_mult: 2
    decay_mult: 0
  }
  convolution_param {
    num_output: 64
    kernel_size: 1
    weight_filler {
      type: "xavier"
    }
    bias_filler {
      type: "constant"
      value: 0.2
    }
  }
}
layer {
  name: "inception_3b/relu_pool_proj"
  type: "ReLU"
  bottom: "inception_3b/pool_proj"
  top: "inception_3b/pool_proj"
}
layer {
  name: "inception_3b/output"
  type: "Concat"
  bottom: "inception_3b/1x1"
  bottom: "inception_3b/3x3"
  bottom: "inception_3b/5x5"
  bottom: "inception_3b/pool_proj"
  top: "inception_3b/output"
}
layer {
  name: "pool3/3x3_s2"
  type: "Pooling"
  bottom: "inception_3b/output"
  top: "pool3/3x3_s2"
  pooling_param {
    pool: MAX
    kernel_size: 3
    stride: 2
  }
}
layer {
  name: "inception_4a/1x1"
  type: "Convolution"
  bottom: "pool3/3x3_s2"
  top: "inception_4a/1x1"
  param {
    lr_mult: 1
    decay_mult: 1
  }
  param {
    lr_mult: 2
    decay_mult: 0
  }
  convolution_param {
    num_output: 192
    kernel_size: 1
    weight_filler {
      type: "xavier"
    }
    bias_filler {
      type: "constant"
      value: 0.2
    }
  }
}
layer {
  name: "inception_4a/relu_1x1"
  type: "ReLU"
  bottom: "inception_4a/1x1"
  top: "inception_4a/1x1"
}
layer {
  name: "inception_4a/3x3_reduce"
  type: "Convolution"
  bottom: "pool3/3x3_s2"
  top: "inception_4a/3x3_reduce"
  param {
    lr_mult: 1
    decay_mult: 1
  }
  param {
    lr_mult: 2
    decay_mult: 0
  }
  convolution_param {
    num_output: 96
    kernel_size: 1
    weight_filler {
      type: "xavier"
    }
    bias_filler {
      type: "constant"
      value: 0.2
    }
  }
}
layer {
  name: "inception_4a/relu_3x3_reduce"
  type: "ReLU"
  bottom: "inception_4a/3x3_reduce"
  top: "inception_4a/3x3_reduce"
}
layer {
  name: "inception_4a/3x3"
  type: "Convolution"
  bottom: "inception_4a/3x3_reduce"
  top: "inception_4a/3x3"
  param {
    lr_mult: 1
    decay_mult: 1
  }
  param {
    lr_mult: 2
    decay_mult: 0
  }
  convolution_param {
    num_output: 208
    pad: 1
    kernel_size: 3
    weight_filler {
      type: "xavier"
    }
    bias_filler {
      type: "constant"
      value: 0.2
    }
  }
}
layer {
  name: "inception_4a/relu_3x3"
  type: "ReLU"
  bottom: "inception_4a/3x3"
  top: "inception_4a/3x3"
}
layer {
  name: "inception_4a/5x5_reduce"
  type: "Convolution"
  bottom: "pool3/3x3_s2"
  top: "inception_4a/5x5_reduce"
  param {
    lr_mult: 1
    decay_mult: 1
  }
  param {
    lr_mult: 2
    decay_mult: 0
  }
  convolution_param {
    num_output: 16
    kernel_size: 1
    weight_filler {
      type: "xavier"
    }
    bias_filler {
      type: "constant"
      value: 0.2
    }
  }
}
layer {
  name: "inception_4a/relu_5x5_reduce"
  type: "ReLU"
  bottom: "inception_4a/5x5_reduce"
  top: "inception_4a/5x5_reduce"
}
layer {
  name: "inception_4a/5x5"
  type: "Convolution"
  bottom: "inception_4a/5x5_reduce"
  top: "inception_4a/5x5"
  param {
    lr_mult: 1
    decay_mult: 1
  }
  param {
    lr_mult: 2
    decay_mult: 0
  }
  convolution_param {
    num_output: 48
    pad: 2
    kernel_size: 5
    weight_filler {
      type: "xavier"
    }
    bias_filler {
      type: "constant"
      value: 0.2
    }
  }
}
layer {
  name: "inception_4a/relu_5x5"
  type: "ReLU"
  bottom: "inception_4a/5x5"
  top: "inception_4a/5x5"
}
layer {
  name: "inception_4a/pool"
  type: "Pooling"
  bottom: "pool3/3x3_s2"
  top: "inception_4a/pool"
  pooling_param {
    pool: MAX
    kernel_size: 3
    stride: 1
    pad: 1
  }
}
layer {
  name: "inception_4a/pool_proj"
  type: "Convolution"
  bottom: "inception_4a/pool"
  top: "inception_4a/pool_proj"
  param {
    lr_mult: 1
    decay_mult: 1
  }
  param {
    lr_mult: 2
    decay_mult: 0
  }
  convolution_param {
    num_output: 64
    kernel_size: 1
    weight_filler {
      type: "xavier"
    }
    bias_filler {
      type: "constant"
      value: 0.2
    }
  }
}
layer {
  name: "inception_4a/relu_pool_proj"
  type: "ReLU"
  bottom: "inception_4a/pool_proj"
  top: "inception_4a/pool_proj"
}
layer {
  name: "inception_4a/output"
  type: "Concat"
  bottom: "inception_4a/1x1"
  bottom: "inception_4a/3x3"
  bottom: "inception_4a/5x5"
  bottom: "inception_4a/pool_proj"
  top: "inception_4a/output"
}
layer {
  name: "loss1/ave_pool"
  type: "Pooling"
  bottom: "inception_4a/output"
  top: "loss1/ave_pool"
  pooling_param {
    pool: AVE
    kernel_size: 5
    stride: 3
  }
}
layer {
  name: "loss1/conv"
  type: "Convolution"
  bottom: "loss1/ave_pool"
  top: "loss1/conv"
  param {
    lr_mult: 1
    decay_mult: 1
  }
  param {
    lr_mult: 2
    decay_mult: 0
  }
  convolution_param {
    num_output: 128
    kernel_size: 1
    weight_filler {
      type: "xavier"
    }
    bias_filler {
      type: "constant"
      value: 0.2
    }
  }
}
layer {
  name: "loss1/relu_conv"
  type: "ReLU"
  bottom: "loss1/conv"
  top: "loss1/conv"
}
layer {
  name: "loss1/fc"
  type: "InnerProduct"
  bottom: "loss1/conv"
  top: "loss1/fc"
  param {
    lr_mult: 1
    decay_mult: 1
  }
  param {
    lr_mult: 2
    decay_mult: 0
  }
  inner_product_param {
    num_output: 1024
    weight_filler {
      type: "xavier"
    }
    bias_filler {
      type: "constant"
      value: 0.2
    }
  }
}
layer {
  name: "loss1/relu_fc"
  type: "ReLU"
  bottom: "loss1/fc"
  top: "loss1/fc"
}
layer {
  name: "loss1/drop_fc"
  type: "Dropout"
  bottom: "loss1/fc"
  top: "loss1/fc"
  dropout_param {
    dropout_ratio: 0.7
  }
}
layer {
  name: "loss1/classifier-bird"
  type: "InnerProduct"
  bottom: "loss1/fc"
  top: "loss1/classifier"
  param {
    lr_mult: 1
    decay_mult: 1
  }
  param {
    lr_mult: 2
    decay_mult: 0
  }
  inner_product_param {
    num_output: 4
    weight_filler {
      type: "xavier"
    }
    bias_filler {
      type: "constant"
      value: 0
    }
  }
}
layer {
  name: "loss1/loss"
  type: "SoftmaxWithLoss"
  bottom: "loss1/classifier"
  bottom: "label"
  top: "loss1/loss1"
  loss_weight: 0.3
}
layer {
  name: "inception_4b/1x1"
  type: "Convolution"
  bottom: "inception_4a/output"
  top: "inception_4b/1x1"
  param {
    lr_mult: 1
    decay_mult: 1
  }
  param {
    lr_mult: 2
    decay_mult: 0
  }
  convolution_param {
    num_output: 160
    kernel_size: 1
    weight_filler {
      type: "xavier"
    }
    bias_filler {
      type: "constant"
      value: 0.2
    }
  }
}
layer {
  name: "inception_4b/relu_1x1"
  type: "ReLU"
  bottom: "inception_4b/1x1"
  top: "inception_4b/1x1"
}
layer {
  name: "inception_4b/3x3_reduce"
  type: "Convolution"
  bottom: "inception_4a/output"
  top: "inception_4b/3x3_reduce"
  param {
    lr_mult: 1
    decay_mult: 1
  }
  param {
    lr_mult: 2
    decay_mult: 0
  }
  convolution_param {
    num_output: 112
    kernel_size: 1
    weight_filler {
      type: "xavier"
    }
    bias_filler {
      type: "constant"
      value: 0.2
    }
  }
}
layer {
  name: "inception_4b/relu_3x3_reduce"
  type: "ReLU"
  bottom: "inception_4b/3x3_reduce"
  top: "inception_4b/3x3_reduce"
}
layer {
  name: "inception_4b/3x3"
  type: "Convolution"
  bottom: "inception_4b/3x3_reduce"
  top: "inception_4b/3x3"
  param {
    lr_mult: 1
    decay_mult: 1
  }
  param {
    lr_mult: 2
    decay_mult: 0
  }
  convolution_param {
    num_output: 224
    pad: 1
    kernel_size: 3
    weight_filler {
      type: "xavier"
    }
    bias_filler {
      type: "constant"
      value: 0.2
    }
  }
}
layer {
  name: "inception_4b/relu_3x3"
  type: "ReLU"
  bottom: "inception_4b/3x3"
  top: "inception_4b/3x3"
}
layer {
  name: "inception_4b/5x5_reduce"
  type: "Convolution"
  bottom: "inception_4a/output"
  top: "inception_4b/5x5_reduce"
  param {
    lr_mult: 1
    decay_mult: 1
  }
  param {
    lr_mult: 2
    decay_mult: 0
  }
  convolution_param {
    num_output: 24
    kernel_size: 1
    weight_filler {
      type: "xavier"
    }
    bias_filler {
      type: "constant"
      value: 0.2
    }
  }
}
layer {
  name: "inception_4b/relu_5x5_reduce"
  type: "ReLU"
  bottom: "inception_4b/5x5_reduce"
  top: "inception_4b/5x5_reduce"
}
layer {
  name: "inception_4b/5x5"
  type: "Convolution"
  bottom: "inception_4b/5x5_reduce"
  top: "inception_4b/5x5"
  param {
    lr_mult: 1
    decay_mult: 1
  }
  param {
    lr_mult: 2
    decay_mult: 0
  }
  convolution_param {
    num_output: 64
    pad: 2
    kernel_size: 5
    weight_filler {
      type: "xavier"
    }
    bias_filler {
      type: "constant"
      value: 0.2
    }
  }
}
layer {
  name: "inception_4b/relu_5x5"
  type: "ReLU"
  bottom: "inception_4b/5x5"
  top: "inception_4b/5x5"
}
layer {
  name: "inception_4b/pool"
  type: "Pooling"
  bottom: "inception_4a/output"
  top: "inception_4b/pool"
  pooling_param {
    pool: MAX
    kernel_size: 3
    stride: 1
    pad: 1
  }
}
layer {
  name: "inception_4b/pool_proj"
  type: "Convolution"
  bottom: "inception_4b/pool"
  top: "inception_4b/pool_proj"
  param {
    lr_mult: 1
    decay_mult: 1
  }
  param {
    lr_mult: 2
    decay_mult: 0
  }
  convolution_param {
    num_output: 64
    kernel_size: 1
    weight_filler {
      type: "xavier"
    }
    bias_filler {
      type: "constant"
      value: 0.2
    }
  }
}
layer {
  name: "inception_4b/relu_pool_proj"
  type: "ReLU"
  bottom: "inception_4b/pool_proj"
  top: "inception_4b/pool_proj"
}
layer {
  name: "inception_4b/output"
  type: "Concat"
  bottom: "inception_4b/1x1"
  bottom: "inception_4b/3x3"
  bottom: "inception_4b/5x5"
  bottom: "inception_4b/pool_proj"
  top: "inception_4b/output"
}
layer {
  name: "inception_4c/1x1"
  type: "Convolution"
  bottom: "inception_4b/output"
  top: "inception_4c/1x1"
  param {
    lr_mult: 1
    decay_mult: 1
  }
  param {
    lr_mult: 2
    decay_mult: 0
  }
  convolution_param {
    num_output: 128
    kernel_size: 1
    weight_filler {
      type: "xavier"
    }
    bias_filler {
      type: "constant"
      value: 0.2
    }
  }
}
layer {
  name: "inception_4c/relu_1x1"
  type: "ReLU"
  bottom: "inception_4c/1x1"
  top: "inception_4c/1x1"
}
layer {
  name: "inception_4c/3x3_reduce"
  type: "Convolution"
  bottom: "inception_4b/output"
  top: "inception_4c/3x3_reduce"
  param {
    lr_mult: 1
    decay_mult: 1
  }
  param {
    lr_mult: 2
    decay_mult: 0
  }
  convolution_param {
    num_output: 128
    kernel_size: 1
    weight_filler {
      type: "xavier"
    }
    bias_filler {
      type: "constant"
      value: 0.2
    }
  }
}
layer {
  name: "inception_4c/relu_3x3_reduce"
  type: "ReLU"
  bottom: "inception_4c/3x3_reduce"
  top: "inception_4c/3x3_reduce"
}
layer {
  name: "inception_4c/3x3"
  type: "Convolution"
  bottom: "inception_4c/3x3_reduce"
  top: "inception_4c/3x3"
  param {
    lr_mult: 1
    decay_mult: 1
  }
  param {
    lr_mult: 2
    decay_mult: 0
  }
  convolution_param {
    num_output: 256
    pad: 1
    kernel_size: 3
    weight_filler {
      type: "xavier"
    }
    bias_filler {
      type: "constant"
      value: 0.2
    }
  }
}
layer {
  name: "inception_4c/relu_3x3"
  type: "ReLU"
  bottom: "inception_4c/3x3"
  top: "inception_4c/3x3"
}
layer {
  name: "inception_4c/5x5_reduce"
  type: "Convolution"
  bottom: "inception_4b/output"
  top: "inception_4c/5x5_reduce"
  param {
    lr_mult: 1
    decay_mult: 1
  }
  param {
    lr_mult: 2
    decay_mult: 0
  }
  convolution_param {
    num_output: 24
    kernel_size: 1
    weight_filler {
      type: "xavier"
    }
    bias_filler {
      type: "constant"
      value: 0.2
    }
  }
}
layer {
  name: "inception_4c/relu_5x5_reduce"
  type: "ReLU"
  bottom: "inception_4c/5x5_reduce"
  top: "inception_4c/5x5_reduce"
}
layer {
  name: "inception_4c/5x5"
  type: "Convolution"
  bottom: "inception_4c/5x5_reduce"
  top: "inception_4c/5x5"
  param {
    lr_mult: 1
    decay_mult: 1
  }
  param {
    lr_mult: 2
    decay_mult: 0
  }
  convolution_param {
    num_output: 64
    pad: 2
    kernel_size: 5
    weight_filler {
      type: "xavier"
    }
    bias_filler {
      type: "constant"
      value: 0.2
    }
  }
}
layer {
  name: "inception_4c/relu_5x5"
  type: "ReLU"
  bottom: "inception_4c/5x5"
  top: "inception_4c/5x5"
}
layer {
  name: "inception_4c/pool"
  type: "Pooling"
  bottom: "inception_4b/output"
  top: "inception_4c/pool"
  pooling_param {
    pool: MAX
    kernel_size: 3
    stride: 1
    pad: 1
  }
}
layer {
  name: "inception_4c/pool_proj"
  type: "Convolution"
  bottom: "inception_4c/pool"
  top: "inception_4c/pool_proj"
  param {
    lr_mult: 1
    decay_mult: 1
  }
  param {
    lr_mult: 2
    decay_mult: 0
  }
  convolution_param {
    num_output: 64
    kernel_size: 1
    weight_filler {
      type: "xavier"
    }
    bias_filler {
      type: "constant"
      value: 0.2
    }
  }
}
layer {
  name: "inception_4c/relu_pool_proj"
  type: "ReLU"
  bottom: "inception_4c/pool_proj"
  top: "inception_4c/pool_proj"
}
layer {
  name: "inception_4c/output"
  type: "Concat"
  bottom: "inception_4c/1x1"
  bottom: "inception_4c/3x3"
  bottom: "inception_4c/5x5"
  bottom: "inception_4c/pool_proj"
  top: "inception_4c/output"
}
layer {
  name: "inception_4d/1x1"
  type: "Convolution"
  bottom: "inception_4c/output"
  top: "inception_4d/1x1"
  param {
    lr_mult: 1
    decay_mult: 1
  }
  param {
    lr_mult: 2
    decay_mult: 0
  }
  convolution_param {
    num_output: 112
    kernel_size: 1
    weight_filler {
      type: "xavier"
    }
    bias_filler {
      type: "constant"
      value: 0.2
    }
  }
}
layer {
  name: "inception_4d/relu_1x1"
  type: "ReLU"
  bottom: "inception_4d/1x1"
  top: "inception_4d/1x1"
}
layer {
  name: "inception_4d/3x3_reduce"
  type: "Convolution"
  bottom: "inception_4c/output"
  top: "inception_4d/3x3_reduce"
  param {
    lr_mult: 1
    decay_mult: 1
  }
  param {
    lr_mult: 2
    decay_mult: 0
  }
  convolution_param {
    num_output: 144
    kernel_size: 1
    weight_filler {
      type: "xavier"
    }
    bias_filler {
      type: "constant"
      value: 0.2
    }
  }
}
layer {
  name: "inception_4d/relu_3x3_reduce"
  type: "ReLU"
  bottom: "inception_4d/3x3_reduce"
  top: "inception_4d/3x3_reduce"
}
layer {
  name: "inception_4d/3x3"
  type: "Convolution"
  bottom: "inception_4d/3x3_reduce"
  top: "inception_4d/3x3"
  param {
    lr_mult: 1
    decay_mult: 1
  }
  param {
    lr_mult: 2
    decay_mult: 0
  }
  convolution_param {
    num_output: 288
    pad: 1
    kernel_size: 3
    weight_filler {
      type: "xavier"
    }
    bias_filler {
      type: "constant"
      value: 0.2
    }
  }
}
layer {
  name: "inception_4d/relu_3x3"
  type: "ReLU"
  bottom: "inception_4d/3x3"
  top: "inception_4d/3x3"
}
layer {
  name: "inception_4d/5x5_reduce"
  type: "Convolution"
  bottom: "inception_4c/output"
  top: "inception_4d/5x5_reduce"
  param {
    lr_mult: 1
    decay_mult: 1
  }
  param {
    lr_mult: 2
    decay_mult: 0
  }
  convolution_param {
    num_output: 32
    kernel_size: 1
    weight_filler {
      type: "xavier"
    }
    bias_filler {
      type: "constant"
      value: 0.2
    }
  }
}
layer {
  name: "inception_4d/relu_5x5_reduce"
  type: "ReLU"
  bottom: "inception_4d/5x5_reduce"
  top: "inception_4d/5x5_reduce"
}
layer {
  name: "inception_4d/5x5"
  type: "Convolution"
  bottom: "inception_4d/5x5_reduce"
  top: "inception_4d/5x5"
  param {
    lr_mult: 1
    decay_mult: 1
  }
  param {
    lr_mult: 2
    decay_mult: 0
  }
  convolution_param {
    num_output: 64
    pad: 2
    kernel_size: 5
    weight_filler {
      type: "xavier"
    }
    bias_filler {
      type: "constant"
      value: 0.2
    }
  }
}
layer {
  name: "inception_4d/relu_5x5"
  type: "ReLU"
  bottom: "inception_4d/5x5"
  top: "inception_4d/5x5"
}
layer {
  name: "inception_4d/pool"
  type: "Pooling"
  bottom: "inception_4c/output"
  top: "inception_4d/pool"
  pooling_param {
    pool: MAX
    kernel_size: 3
    stride: 1
    pad: 1
  }
}
layer {
  name: "inception_4d/pool_proj"
  type: "Convolution"
  bottom: "inception_4d/pool"
  top: "inception_4d/pool_proj"
  param {
    lr_mult: 1
    decay_mult: 1
  }
  param {
    lr_mult: 2
    decay_mult: 0
  }
  convolution_param {
    num_output: 64
    kernel_size: 1
    weight_filler {
      type: "xavier"
    }
    bias_filler {
      type: "constant"
      value: 0.2
    }
  }
}
layer {
  name: "inception_4d/relu_pool_proj"
  type: "ReLU"
  bottom: "inception_4d/pool_proj"
  top: "inception_4d/pool_proj"
}
layer {
  name: "inception_4d/output"
  type: "Concat"
  bottom: "inception_4d/1x1"
  bottom: "inception_4d/3x3"
  bottom: "inception_4d/5x5"
  bottom: "inception_4d/pool_proj"
  top: "inception_4d/output"
}
layer {
  name: "loss2/ave_pool"
  type: "Pooling"
  bottom: "inception_4d/output"
  top: "loss2/ave_pool"
  pooling_param {
    pool: AVE
    kernel_size: 5
    stride: 3
  }
}
layer {
  name: "loss2/conv"
  type: "Convolution"
  bottom: "loss2/ave_pool"
  top: "loss2/conv"
  param {
    lr_mult: 1
    decay_mult: 1
  }
  param {
    lr_mult: 2
    decay_mult: 0
  }
  convolution_param {
    num_output: 128
    kernel_size: 1
    weight_filler {
      type: "xavier"
    }
    bias_filler {
      type: "constant"
      value: 0.2
    }
  }
}
layer {
  name: "loss2/relu_conv"
  type: "ReLU"
  bottom: "loss2/conv"
  top: "loss2/conv"
}
layer {
  name: "loss2/fc"
  type: "InnerProduct"
  bottom: "loss2/conv"
  top: "loss2/fc"
  param {
    lr_mult: 1
    decay_mult: 1
  }
  param {
    lr_mult: 2
    decay_mult: 0
  }
  inner_product_param {
    num_output: 1024
    weight_filler {
      type: "xavier"
    }
    bias_filler {
      type: "constant"
      value: 0.2
    }
  }
}
layer {
  name: "loss2/relu_fc"
  type: "ReLU"
  bottom: "loss2/fc"
  top: "loss2/fc"
}
layer {
  name: "loss2/drop_fc"
  type: "Dropout"
  bottom: "loss2/fc"
  top: "loss2/fc"
  dropout_param {
    dropout_ratio: 0.7
  }
}
layer {
  name: "loss2/classifier-bird"
  type: "InnerProduct"
  bottom: "loss2/fc"
  top: "loss2/classifier"
  param {
    lr_mult: 1
    decay_mult: 1
  }
  param {
    lr_mult: 2
    decay_mult: 0
  }
  inner_product_param {
    num_output: 4
    weight_filler {
      type: "xavier"
    }
    bias_filler {
      type: "constant"
      value: 0
    }
  }
}
layer {
  name: "loss2/loss"
  type: "SoftmaxWithLoss"
  bottom: "loss2/classifier"
  bottom: "label"
  top: "loss2/loss1"
  loss_weight: 0.3
}
layer {
  name: "inception_4e/1x1"
  type: "Convolution"
  bottom: "inception_4d/output"
  top: "inception_4e/1x1"
  param {
    lr_mult: 1
    decay_mult: 1
  }
  param {
    lr_mult: 2
    decay_mult: 0
  }
  convolution_param {
    num_output: 256
    kernel_size: 1
    weight_filler {
      type: "xavier"
    }
    bias_filler {
      type: "constant"
      value: 0.2
    }
  }
}
layer {
  name: "inception_4e/relu_1x1"
  type: "ReLU"
  bottom: "inception_4e/1x1"
  top: "inception_4e/1x1"
}
layer {
  name: "inception_4e/3x3_reduce"
  type: "Convolution"
  bottom: "inception_4d/output"
  top: "inception_4e/3x3_reduce"
  param {
    lr_mult: 1
    decay_mult: 1
  }
  param {
    lr_mult: 2
    decay_mult: 0
  }
  convolution_param {
    num_output: 160
    kernel_size: 1
    weight_filler {
      type: "xavier"
    }
    bias_filler {
      type: "constant"
      value: 0.2
    }
  }
}
layer {
  name: "inception_4e/relu_3x3_reduce"
  type: "ReLU"
  bottom: "inception_4e/3x3_reduce"
  top: "inception_4e/3x3_reduce"
}
layer {
  name: "inception_4e/3x3"
  type: "Convolution"
  bottom: "inception_4e/3x3_reduce"
  top: "inception_4e/3x3"
  param {
    lr_mult: 1
    decay_mult: 1
  }
  param {
    lr_mult: 2
    decay_mult: 0
  }
  convolution_param {
    num_output: 320
    pad: 1
    kernel_size: 3
    weight_filler {
      type: "xavier"
    }
    bias_filler {
      type: "constant"
      value: 0.2
    }
  }
}
layer {
  name: "inception_4e/relu_3x3"
  type: "ReLU"
  bottom: "inception_4e/3x3"
  top: "inception_4e/3x3"
}
layer {
  name: "inception_4e/5x5_reduce"
  type: "Convolution"
  bottom: "inception_4d/output"
  top: "inception_4e/5x5_reduce"
  param {
    lr_mult: 1
    decay_mult: 1
  }
  param {
    lr_mult: 2
    decay_mult: 0
  }
  convolution_param {
    num_output: 32
    kernel_size: 1
    weight_filler {
      type: "xavier"
    }
    bias_filler {
      type: "constant"
      value: 0.2
    }
  }
}
layer {
  name: "inception_4e/relu_5x5_reduce"
  type: "ReLU"
  bottom: "inception_4e/5x5_reduce"
  top: "inception_4e/5x5_reduce"
}
layer {
  name: "inception_4e/5x5"
  type: "Convolution"
  bottom: "inception_4e/5x5_reduce"
  top: "inception_4e/5x5"
  param {
    lr_mult: 1
    decay_mult: 1
  }
  param {
    lr_mult: 2
    decay_mult: 0
  }
  convolution_param {
    num_output: 128
    pad: 2
    kernel_size: 5
    weight_filler {
      type: "xavier"
    }
    bias_filler {
      type: "constant"
      value: 0.2
    }
  }
}
layer {
  name: "inception_4e/relu_5x5"
  type: "ReLU"
  bottom: "inception_4e/5x5"
  top: "inception_4e/5x5"
}
layer {
  name: "inception_4e/pool"
  type: "Pooling"
  bottom: "inception_4d/output"
  top: "inception_4e/pool"
  pooli
I0426 17:06:19.213129  2338 layer_factory.hpp:77] Creating layer data
I0426 17:06:19.261037  2338 db_lmdb.cpp:35] Opened lmdb /home/jungmo/Documents/bird/caffe/db/train_imageData_lmDB
I0426 17:06:19.299074  2338 net.cpp:86] Creating Layer data
I0426 17:06:19.299116  2338 net.cpp:382] data -> data
I0426 17:06:19.299159  2338 net.cpp:382] data -> label
I0426 17:06:19.299181  2338 data_transformer.cpp:25] Loading mean file from: /home/jungmo/Documents/bird/caffe/db/mean.binaryproto
I0426 17:06:19.333945  2338 data_layer.cpp:45] output data size: 50,3,224,224
I0426 17:06:19.422437  2338 net.cpp:124] Setting up data
I0426 17:06:19.422482  2338 net.cpp:131] Top shape: 50 3 224 224 (7526400)
I0426 17:06:19.422488  2338 net.cpp:131] Top shape: 50 (50)
I0426 17:06:19.422493  2338 net.cpp:139] Memory required for data: 30105800
I0426 17:06:19.422513  2338 layer_factory.hpp:77] Creating layer label_data_1_split
I0426 17:06:19.422533  2338 net.cpp:86] Creating Layer label_data_1_split
I0426 17:06:19.422541  2338 net.cpp:408] label_data_1_split <- label
I0426 17:06:19.422567  2338 net.cpp:382] label_data_1_split -> label_data_1_split_0
I0426 17:06:19.422592  2338 net.cpp:382] label_data_1_split -> label_data_1_split_1
I0426 17:06:19.422603  2338 net.cpp:382] label_data_1_split -> label_data_1_split_2
I0426 17:06:19.422713  2338 net.cpp:124] Setting up label_data_1_split
I0426 17:06:19.422724  2338 net.cpp:131] Top shape: 50 (50)
I0426 17:06:19.422729  2338 net.cpp:131] Top shape: 50 (50)
I0426 17:06:19.422736  2338 net.cpp:131] Top shape: 50 (50)
I0426 17:06:19.422740  2338 net.cpp:139] Memory required for data: 30106400
I0426 17:06:19.422745  2338 layer_factory.hpp:77] Creating layer conv1/7x7_s2
I0426 17:06:19.422767  2338 net.cpp:86] Creating Layer conv1/7x7_s2
I0426 17:06:19.422775  2338 net.cpp:408] conv1/7x7_s2 <- data
I0426 17:06:19.422782  2338 net.cpp:382] conv1/7x7_s2 -> conv1/7x7_s2
I0426 17:06:19.424216  2338 net.cpp:124] Setting up conv1/7x7_s2
I0426 17:06:19.424235  2338 net.cpp:131] Top shape: 50 64 112 112 (40140800)
I0426 17:06:19.424242  2338 net.cpp:139] Memory required for data: 190669600
I0426 17:06:19.424265  2338 layer_factory.hpp:77] Creating layer conv1/relu_7x7
I0426 17:06:19.424276  2338 net.cpp:86] Creating Layer conv1/relu_7x7
I0426 17:06:19.424281  2338 net.cpp:408] conv1/relu_7x7 <- conv1/7x7_s2
I0426 17:06:19.424289  2338 net.cpp:369] conv1/relu_7x7 -> conv1/7x7_s2 (in-place)
I0426 17:06:19.424299  2338 net.cpp:124] Setting up conv1/relu_7x7
I0426 17:06:19.424305  2338 net.cpp:131] Top shape: 50 64 112 112 (40140800)
I0426 17:06:19.424309  2338 net.cpp:139] Memory required for data: 351232800
I0426 17:06:19.424315  2338 layer_factory.hpp:77] Creating layer pool1/3x3_s2
I0426 17:06:19.424324  2338 net.cpp:86] Creating Layer pool1/3x3_s2
I0426 17:06:19.424329  2338 net.cpp:408] pool1/3x3_s2 <- conv1/7x7_s2
I0426 17:06:19.424336  2338 net.cpp:382] pool1/3x3_s2 -> pool1/3x3_s2
I0426 17:06:19.429036  2338 net.cpp:124] Setting up pool1/3x3_s2
I0426 17:06:19.429075  2338 net.cpp:131] Top shape: 50 64 56 56 (10035200)
I0426 17:06:19.429085  2338 net.cpp:139] Memory required for data: 391373600
I0426 17:06:19.429093  2338 layer_factory.hpp:77] Creating layer pool1/norm1
I0426 17:06:19.429112  2338 net.cpp:86] Creating Layer pool1/norm1
I0426 17:06:19.429121  2338 net.cpp:408] pool1/norm1 <- pool1/3x3_s2
I0426 17:06:19.429136  2338 net.cpp:382] pool1/norm1 -> pool1/norm1
I0426 17:06:19.429211  2338 net.cpp:124] Setting up pool1/norm1
I0426 17:06:19.429226  2338 net.cpp:131] Top shape: 50 64 56 56 (10035200)
I0426 17:06:19.429234  2338 net.cpp:139] Memory required for data: 431514400
I0426 17:06:19.429240  2338 layer_factory.hpp:77] Creating layer conv2/3x3_reduce
I0426 17:06:19.429260  2338 net.cpp:86] Creating Layer conv2/3x3_reduce
I0426 17:06:19.429270  2338 net.cpp:408] conv2/3x3_reduce <- pool1/norm1
I0426 17:06:19.429282  2338 net.cpp:382] conv2/3x3_reduce -> conv2/3x3_reduce
I0426 17:06:19.430726  2338 net.cpp:124] Setting up conv2/3x3_reduce
I0426 17:06:19.430747  2338 net.cpp:131] Top shape: 50 64 56 56 (10035200)
I0426 17:06:19.430752  2338 net.cpp:139] Memory required for data: 471655200
I0426 17:06:19.430764  2338 layer_factory.hpp:77] Creating layer conv2/relu_3x3_reduce
I0426 17:06:19.430774  2338 net.cpp:86] Creating Layer conv2/relu_3x3_reduce
I0426 17:06:19.430779  2338 net.cpp:408] conv2/relu_3x3_reduce <- conv2/3x3_reduce
I0426 17:06:19.430807  2338 net.cpp:369] conv2/relu_3x3_reduce -> conv2/3x3_reduce (in-place)
I0426 17:06:19.430817  2338 net.cpp:124] Setting up conv2/relu_3x3_reduce
I0426 17:06:19.430824  2338 net.cpp:131] Top shape: 50 64 56 56 (10035200)
I0426 17:06:19.430829  2338 net.cpp:139] Memory required for data: 511796000
I0426 17:06:19.430833  2338 layer_factory.hpp:77] Creating layer conv2/3x3
I0426 17:06:19.430847  2338 net.cpp:86] Creating Layer conv2/3x3
I0426 17:06:19.430852  2338 net.cpp:408] conv2/3x3 <- conv2/3x3_reduce
I0426 17:06:19.430860  2338 net.cpp:382] conv2/3x3 -> conv2/3x3
I0426 17:06:19.432025  2338 net.cpp:124] Setting up conv2/3x3
I0426 17:06:19.432037  2338 net.cpp:131] Top shape: 50 192 56 56 (30105600)
I0426 17:06:19.432056  2338 net.cpp:139] Memory required for data: 632218400
I0426 17:06:19.432068  2338 layer_factory.hpp:77] Creating layer conv2/relu_3x3
I0426 17:06:19.432077  2338 net.cpp:86] Creating Layer conv2/relu_3x3
I0426 17:06:19.432083  2338 net.cpp:408] conv2/relu_3x3 <- conv2/3x3
I0426 17:06:19.432090  2338 net.cpp:369] conv2/relu_3x3 -> conv2/3x3 (in-place)
I0426 17:06:19.432097  2338 net.cpp:124] Setting up conv2/relu_3x3
I0426 17:06:19.432106  2338 net.cpp:131] Top shape: 50 192 56 56 (30105600)
I0426 17:06:19.432109  2338 net.cpp:139] Memory required for data: 752640800
I0426 17:06:19.432113  2338 layer_factory.hpp:77] Creating layer conv2/norm2
I0426 17:06:19.432121  2338 net.cpp:86] Creating Layer conv2/norm2
I0426 17:06:19.432126  2338 net.cpp:408] conv2/norm2 <- conv2/3x3
I0426 17:06:19.432133  2338 net.cpp:382] conv2/norm2 -> conv2/norm2
I0426 17:06:19.432174  2338 net.cpp:124] Setting up conv2/norm2
I0426 17:06:19.432183  2338 net.cpp:131] Top shape: 50 192 56 56 (30105600)
I0426 17:06:19.432188  2338 net.cpp:139] Memory required for data: 873063200
I0426 17:06:19.432193  2338 layer_factory.hpp:77] Creating layer pool2/3x3_s2
I0426 17:06:19.432200  2338 net.cpp:86] Creating Layer pool2/3x3_s2
I0426 17:06:19.432205  2338 net.cpp:408] pool2/3x3_s2 <- conv2/norm2
I0426 17:06:19.432212  2338 net.cpp:382] pool2/3x3_s2 -> pool2/3x3_s2
I0426 17:06:19.432265  2338 net.cpp:124] Setting up pool2/3x3_s2
I0426 17:06:19.432274  2338 net.cpp:131] Top shape: 50 192 28 28 (7526400)
I0426 17:06:19.432278  2338 net.cpp:139] Memory required for data: 903168800
I0426 17:06:19.432283  2338 layer_factory.hpp:77] Creating layer pool2/3x3_s2_pool2/3x3_s2_0_split
I0426 17:06:19.432292  2338 net.cpp:86] Creating Layer pool2/3x3_s2_pool2/3x3_s2_0_split
I0426 17:06:19.432297  2338 net.cpp:408] pool2/3x3_s2_pool2/3x3_s2_0_split <- pool2/3x3_s2
I0426 17:06:19.432306  2338 net.cpp:382] pool2/3x3_s2_pool2/3x3_s2_0_split -> pool2/3x3_s2_pool2/3x3_s2_0_split_0
I0426 17:06:19.432314  2338 net.cpp:382] pool2/3x3_s2_pool2/3x3_s2_0_split -> pool2/3x3_s2_pool2/3x3_s2_0_split_1
I0426 17:06:19.432324  2338 net.cpp:382] pool2/3x3_s2_pool2/3x3_s2_0_split -> pool2/3x3_s2_pool2/3x3_s2_0_split_2
I0426 17:06:19.432332  2338 net.cpp:382] pool2/3x3_s2_pool2/3x3_s2_0_split -> pool2/3x3_s2_pool2/3x3_s2_0_split_3
I0426 17:06:19.432394  2338 net.cpp:124] Setting up pool2/3x3_s2_pool2/3x3_s2_0_split
I0426 17:06:19.432401  2338 net.cpp:131] Top shape: 50 192 28 28 (7526400)
I0426 17:06:19.432409  2338 net.cpp:131] Top shape: 50 192 28 28 (7526400)
I0426 17:06:19.432413  2338 net.cpp:131] Top shape: 50 192 28 28 (7526400)
I0426 17:06:19.432420  2338 net.cpp:131] Top shape: 50 192 28 28 (7526400)
I0426 17:06:19.432423  2338 net.cpp:139] Memory required for data: 1023591200
I0426 17:06:19.432430  2338 layer_factory.hpp:77] Creating layer inception_3a/1x1
I0426 17:06:19.432440  2338 net.cpp:86] Creating Layer inception_3a/1x1
I0426 17:06:19.432446  2338 net.cpp:408] inception_3a/1x1 <- pool2/3x3_s2_pool2/3x3_s2_0_split_0
I0426 17:06:19.432453  2338 net.cpp:382] inception_3a/1x1 -> inception_3a/1x1
I0426 17:06:19.433842  2338 net.cpp:124] Setting up inception_3a/1x1
I0426 17:06:19.433861  2338 net.cpp:131] Top shape: 50 64 28 28 (2508800)
I0426 17:06:19.433866  2338 net.cpp:139] Memory required for data: 1033626400
I0426 17:06:19.433876  2338 layer_factory.hpp:77] Creating layer inception_3a/relu_1x1
I0426 17:06:19.433887  2338 net.cpp:86] Creating Layer inception_3a/relu_1x1
I0426 17:06:19.433892  2338 net.cpp:408] inception_3a/relu_1x1 <- inception_3a/1x1
I0426 17:06:19.433900  2338 net.cpp:369] inception_3a/relu_1x1 -> inception_3a/1x1 (in-place)
I0426 17:06:19.433909  2338 net.cpp:124] Setting up inception_3a/relu_1x1
I0426 17:06:19.433917  2338 net.cpp:131] Top shape: 50 64 28 28 (2508800)
I0426 17:06:19.433921  2338 net.cpp:139] Memory required for data: 1043661600
I0426 17:06:19.433925  2338 layer_factory.hpp:77] Creating layer inception_3a/3x3_reduce
I0426 17:06:19.433936  2338 net.cpp:86] Creating Layer inception_3a/3x3_reduce
I0426 17:06:19.433948  2338 net.cpp:408] inception_3a/3x3_reduce <- pool2/3x3_s2_pool2/3x3_s2_0_split_1
I0426 17:06:19.433964  2338 net.cpp:382] inception_3a/3x3_reduce -> inception_3a/3x3_reduce
I0426 17:06:19.435452  2338 net.cpp:124] Setting up inception_3a/3x3_reduce
I0426 17:06:19.435472  2338 net.cpp:131] Top shape: 50 96 28 28 (3763200)
I0426 17:06:19.435478  2338 net.cpp:139] Memory required for data: 1058714400
I0426 17:06:19.435492  2338 layer_factory.hpp:77] Creating layer inception_3a/relu_3x3_reduce
I0426 17:06:19.435504  2338 net.cpp:86] Creating Layer inception_3a/relu_3x3_reduce
I0426 17:06:19.435510  2338 net.cpp:408] inception_3a/relu_3x3_reduce <- inception_3a/3x3_reduce
I0426 17:06:19.435519  2338 net.cpp:369] inception_3a/relu_3x3_reduce -> inception_3a/3x3_reduce (in-place)
I0426 17:06:19.435529  2338 net.cpp:124] Setting up inception_3a/relu_3x3_reduce
I0426 17:06:19.435535  2338 net.cpp:131] Top shape: 50 96 28 28 (3763200)
I0426 17:06:19.435540  2338 net.cpp:139] Memory required for data: 1073767200
I0426 17:06:19.435545  2338 layer_factory.hpp:77] Creating layer inception_3a/3x3
I0426 17:06:19.435556  2338 net.cpp:86] Creating Layer inception_3a/3x3
I0426 17:06:19.435561  2338 net.cpp:408] inception_3a/3x3 <- inception_3a/3x3_reduce
I0426 17:06:19.435570  2338 net.cpp:382] inception_3a/3x3 -> inception_3a/3x3
I0426 17:06:19.436743  2338 net.cpp:124] Setting up inception_3a/3x3
I0426 17:06:19.436754  2338 net.cpp:131] Top shape: 50 128 28 28 (5017600)
I0426 17:06:19.436759  2338 net.cpp:139] Memory required for data: 1093837600
I0426 17:06:19.436767  2338 layer_factory.hpp:77] Creating layer inception_3a/relu_3x3
I0426 17:06:19.436776  2338 net.cpp:86] Creating Layer inception_3a/relu_3x3
I0426 17:06:19.436781  2338 net.cpp:408] inception_3a/relu_3x3 <- inception_3a/3x3
I0426 17:06:19.436789  2338 net.cpp:369] inception_3a/relu_3x3 -> inception_3a/3x3 (in-place)
I0426 17:06:19.436796  2338 net.cpp:124] Setting up inception_3a/relu_3x3
I0426 17:06:19.436803  2338 net.cpp:131] Top shape: 50 128 28 28 (5017600)
I0426 17:06:19.436808  2338 net.cpp:139] Memory required for data: 1113908000
I0426 17:06:19.436812  2338 layer_factory.hpp:77] Creating layer inception_3a/5x5_reduce
I0426 17:06:19.436822  2338 net.cpp:86] Creating Layer inception_3a/5x5_reduce
I0426 17:06:19.436828  2338 net.cpp:408] inception_3a/5x5_reduce <- pool2/3x3_s2_pool2/3x3_s2_0_split_2
I0426 17:06:19.436837  2338 net.cpp:382] inception_3a/5x5_reduce -> inception_3a/5x5_reduce
I0426 17:06:19.437130  2338 net.cpp:124] Setting up inception_3a/5x5_reduce
I0426 17:06:19.437140  2338 net.cpp:131] Top shape: 50 16 28 28 (627200)
I0426 17:06:19.437145  2338 net.cpp:139] Memory required for data: 1116416800
I0426 17:06:19.437153  2338 layer_factory.hpp:77] Creating layer inception_3a/relu_5x5_reduce
I0426 17:06:19.437161  2338 net.cpp:86] Creating Layer inception_3a/relu_5x5_reduce
I0426 17:06:19.437166  2338 net.cpp:408] inception_3a/relu_5x5_reduce <- inception_3a/5x5_reduce
I0426 17:06:19.437175  2338 net.cpp:369] inception_3a/relu_5x5_reduce -> inception_3a/5x5_reduce (in-place)
I0426 17:06:19.437181  2338 net.cpp:124] Setting up inception_3a/relu_5x5_reduce
I0426 17:06:19.437188  2338 net.cpp:131] Top shape: 50 16 28 28 (627200)
I0426 17:06:19.437192  2338 net.cpp:139] Memory required for data: 1118925600
I0426 17:06:19.437197  2338 layer_factory.hpp:77] Creating layer inception_3a/5x5
I0426 17:06:19.437207  2338 net.cpp:86] Creating Layer inception_3a/5x5
I0426 17:06:19.437212  2338 net.cpp:408] inception_3a/5x5 <- inception_3a/5x5_reduce
I0426 17:06:19.437221  2338 net.cpp:382] inception_3a/5x5 -> inception_3a/5x5
I0426 17:06:19.437598  2338 net.cpp:124] Setting up inception_3a/5x5
I0426 17:06:19.437609  2338 net.cpp:131] Top shape: 50 32 28 28 (1254400)
I0426 17:06:19.437613  2338 net.cpp:139] Memory required for data: 1123943200
I0426 17:06:19.437621  2338 layer_factory.hpp:77] Creating layer inception_3a/relu_5x5
I0426 17:06:19.437630  2338 net.cpp:86] Creating Layer inception_3a/relu_5x5
I0426 17:06:19.437641  2338 net.cpp:408] inception_3a/relu_5x5 <- inception_3a/5x5
I0426 17:06:19.437657  2338 net.cpp:369] inception_3a/relu_5x5 -> inception_3a/5x5 (in-place)
I0426 17:06:19.437665  2338 net.cpp:124] Setting up inception_3a/relu_5x5
I0426 17:06:19.437674  2338 net.cpp:131] Top shape: 50 32 28 28 (1254400)
I0426 17:06:19.437677  2338 net.cpp:139] Memory required for data: 1128960800
I0426 17:06:19.437681  2338 layer_factory.hpp:77] Creating layer inception_3a/pool
I0426 17:06:19.437690  2338 net.cpp:86] Creating Layer inception_3a/pool
I0426 17:06:19.437696  2338 net.cpp:408] inception_3a/pool <- pool2/3x3_s2_pool2/3x3_s2_0_split_3
I0426 17:06:19.437703  2338 net.cpp:382] inception_3a/pool -> inception_3a/pool
I0426 17:06:19.437747  2338 net.cpp:124] Setting up inception_3a/pool
I0426 17:06:19.437755  2338 net.cpp:131] Top shape: 50 192 28 28 (7526400)
I0426 17:06:19.437760  2338 net.cpp:139] Memory required for data: 1159066400
I0426 17:06:19.437765  2338 layer_factory.hpp:77] Creating layer inception_3a/pool_proj
I0426 17:06:19.437775  2338 net.cpp:86] Creating Layer inception_3a/pool_proj
I0426 17:06:19.437780  2338 net.cpp:408] inception_3a/pool_proj <- inception_3a/pool
I0426 17:06:19.437790  2338 net.cpp:382] inception_3a/pool_proj -> inception_3a/pool_proj
I0426 17:06:19.438105  2338 net.cpp:124] Setting up inception_3a/pool_proj
I0426 17:06:19.438115  2338 net.cpp:131] Top shape: 50 32 28 28 (1254400)
I0426 17:06:19.438120  2338 net.cpp:139] Memory required for data: 1164084000
I0426 17:06:19.438133  2338 layer_factory.hpp:77] Creating layer inception_3a/relu_pool_proj
I0426 17:06:19.438141  2338 net.cpp:86] Creating Layer inception_3a/relu_pool_proj
I0426 17:06:19.438146  2338 net.cpp:408] inception_3a/relu_pool_proj <- inception_3a/pool_proj
I0426 17:06:19.438153  2338 net.cpp:369] inception_3a/relu_pool_proj -> inception_3a/pool_proj (in-place)
I0426 17:06:19.438163  2338 net.cpp:124] Setting up inception_3a/relu_pool_proj
I0426 17:06:19.438169  2338 net.cpp:131] Top shape: 50 32 28 28 (1254400)
I0426 17:06:19.438174  2338 net.cpp:139] Memory required for data: 1169101600
I0426 17:06:19.438177  2338 layer_factory.hpp:77] Creating layer inception_3a/output
I0426 17:06:19.438186  2338 net.cpp:86] Creating Layer inception_3a/output
I0426 17:06:19.438191  2338 net.cpp:408] inception_3a/output <- inception_3a/1x1
I0426 17:06:19.438197  2338 net.cpp:408] inception_3a/output <- inception_3a/3x3
I0426 17:06:19.438202  2338 net.cpp:408] inception_3a/output <- inception_3a/5x5
I0426 17:06:19.438210  2338 net.cpp:408] inception_3a/output <- inception_3a/pool_proj
I0426 17:06:19.438215  2338 net.cpp:382] inception_3a/output -> inception_3a/output
I0426 17:06:19.438244  2338 net.cpp:124] Setting up inception_3a/output
I0426 17:06:19.438252  2338 net.cpp:131] Top shape: 50 256 28 28 (10035200)
I0426 17:06:19.438257  2338 net.cpp:139] Memory required for data: 1209242400
I0426 17:06:19.438262  2338 layer_factory.hpp:77] Creating layer inception_3a/output_inception_3a/output_0_split
I0426 17:06:19.438271  2338 net.cpp:86] Creating Layer inception_3a/output_inception_3a/output_0_split
I0426 17:06:19.438275  2338 net.cpp:408] inception_3a/output_inception_3a/output_0_split <- inception_3a/output
I0426 17:06:19.438283  2338 net.cpp:382] inception_3a/output_inception_3a/output_0_split -> inception_3a/output_inception_3a/output_0_split_0
I0426 17:06:19.438293  2338 net.cpp:382] inception_3a/output_inception_3a/output_0_split -> inception_3a/output_inception_3a/output_0_split_1
I0426 17:06:19.438302  2338 net.cpp:382] inception_3a/output_inception_3a/output_0_split -> inception_3a/output_inception_3a/output_0_split_2
I0426 17:06:19.438310  2338 net.cpp:382] inception_3a/output_inception_3a/output_0_split -> inception_3a/output_inception_3a/output_0_split_3
I0426 17:06:19.438386  2338 net.cpp:124] Setting up inception_3a/output_inception_3a/output_0_split
I0426 17:06:19.438395  2338 net.cpp:131] Top shape: 50 256 28 28 (10035200)
I0426 17:06:19.438400  2338 net.cpp:131] Top shape: 50 256 28 28 (10035200)
I0426 17:06:19.438406  2338 net.cpp:131] Top shape: 50 256 28 28 (10035200)
I0426 17:06:19.438423  2338 net.cpp:131] Top shape: 50 256 28 28 (10035200)
I0426 17:06:19.438428  2338 net.cpp:139] Memory required for data: 1369805600
I0426 17:06:19.438433  2338 layer_factory.hpp:77] Creating layer inception_3b/1x1
I0426 17:06:19.438444  2338 net.cpp:86] Creating Layer inception_3b/1x1
I0426 17:06:19.438450  2338 net.cpp:408] inception_3b/1x1 <- inception_3a/output_inception_3a/output_0_split_0
I0426 17:06:19.438459  2338 net.cpp:382] inception_3b/1x1 -> inception_3b/1x1
I0426 17:06:19.438997  2338 net.cpp:124] Setting up inception_3b/1x1
I0426 17:06:19.439009  2338 net.cpp:131] Top shape: 50 128 28 28 (5017600)
I0426 17:06:19.439015  2338 net.cpp:139] Memory required for data: 1389876000
I0426 17:06:19.439023  2338 layer_factory.hpp:77] Creating layer inception_3b/relu_1x1
I0426 17:06:19.439031  2338 net.cpp:86] Creating Layer inception_3b/relu_1x1
I0426 17:06:19.439036  2338 net.cpp:408] inception_3b/relu_1x1 <- inception_3b/1x1
I0426 17:06:19.439045  2338 net.cpp:369] inception_3b/relu_1x1 -> inception_3b/1x1 (in-place)
I0426 17:06:19.439054  2338 net.cpp:124] Setting up inception_3b/relu_1x1
I0426 17:06:19.439059  2338 net.cpp:131] Top shape: 50 128 28 28 (5017600)
I0426 17:06:19.439064  2338 net.cpp:139] Memory required for data: 1409946400
I0426 17:06:19.439069  2338 layer_factory.hpp:77] Creating layer inception_3b/3x3_reduce
I0426 17:06:19.439079  2338 net.cpp:86] Creating Layer inception_3b/3x3_reduce
I0426 17:06:19.439085  2338 net.cpp:408] inception_3b/3x3_reduce <- inception_3a/output_inception_3a/output_0_split_1
I0426 17:06:19.439092  2338 net.cpp:382] inception_3b/3x3_reduce -> inception_3b/3x3_reduce
I0426 17:06:19.439610  2338 net.cpp:124] Setting up inception_3b/3x3_reduce
I0426 17:06:19.439621  2338 net.cpp:131] Top shape: 50 128 28 28 (5017600)
I0426 17:06:19.439626  2338 net.cpp:139] Memory required for data: 1430016800
I0426 17:06:19.439635  2338 layer_factory.hpp:77] Creating layer inception_3b/relu_3x3_reduce
I0426 17:06:19.439643  2338 net.cpp:86] Creating Layer inception_3b/relu_3x3_reduce
I0426 17:06:19.439648  2338 net.cpp:408] inception_3b/relu_3x3_reduce <- inception_3b/3x3_reduce
I0426 17:06:19.439656  2338 net.cpp:369] inception_3b/relu_3x3_reduce -> inception_3b/3x3_reduce (in-place)
I0426 17:06:19.439663  2338 net.cpp:124] Setting up inception_3b/relu_3x3_reduce
I0426 17:06:19.439671  2338 net.cpp:131] Top shape: 50 128 28 28 (5017600)
I0426 17:06:19.439676  2338 net.cpp:139] Memory required for data: 1450087200
I0426 17:06:19.439679  2338 layer_factory.hpp:77] Creating layer inception_3b/3x3
I0426 17:06:19.439695  2338 net.cpp:86] Creating Layer inception_3b/3x3
I0426 17:06:19.439702  2338 net.cpp:408] inception_3b/3x3 <- inception_3b/3x3_reduce
I0426 17:06:19.439709  2338 net.cpp:382] inception_3b/3x3 -> inception_3b/3x3
I0426 17:06:19.442776  2338 net.cpp:124] Setting up inception_3b/3x3
I0426 17:06:19.442795  2338 net.cpp:131] Top shape: 50 192 28 28 (7526400)
I0426 17:06:19.442801  2338 net.cpp:139] Memory required for data: 1480192800
I0426 17:06:19.442811  2338 layer_factory.hpp:77] Creating layer inception_3b/relu_3x3
I0426 17:06:19.442819  2338 net.cpp:86] Creating Layer inception_3b/relu_3x3
I0426 17:06:19.442824  2338 net.cpp:408] inception_3b/relu_3x3 <- inception_3b/3x3
I0426 17:06:19.442833  2338 net.cpp:369] inception_3b/relu_3x3 -> inception_3b/3x3 (in-place)
I0426 17:06:19.442842  2338 net.cpp:124] Setting up inception_3b/relu_3x3
I0426 17:06:19.442848  2338 net.cpp:131] Top shape: 50 192 28 28 (7526400)
I0426 17:06:19.442852  2338 net.cpp:139] Memory required for data: 1510298400
I0426 17:06:19.442857  2338 layer_factory.hpp:77] Creating layer inception_3b/5x5_reduce
I0426 17:06:19.442868  2338 net.cpp:86] Creating Layer inception_3b/5x5_reduce
I0426 17:06:19.442873  2338 net.cpp:408] inception_3b/5x5_reduce <- inception_3a/output_inception_3a/output_0_split_2
I0426 17:06:19.442883  2338 net.cpp:382] inception_3b/5x5_reduce -> inception_3b/5x5_reduce
I0426 17:06:19.443205  2338 net.cpp:124] Setting up inception_3b/5x5_reduce
I0426 17:06:19.443222  2338 net.cpp:131] Top shape: 50 32 28 28 (1254400)
I0426 17:06:19.443233  2338 net.cpp:139] Memory required for data: 1515316000
I0426 17:06:19.443243  2338 layer_factory.hpp:77] Creating layer inception_3b/relu_5x5_reduce
I0426 17:06:19.443250  2338 net.cpp:86] Creating Layer inception_3b/relu_5x5_reduce
I0426 17:06:19.443256  2338 net.cpp:408] inception_3b/relu_5x5_reduce <- inception_3b/5x5_reduce
I0426 17:06:19.443264  2338 net.cpp:369] inception_3b/relu_5x5_reduce -> inception_3b/5x5_reduce (in-place)
I0426 17:06:19.443271  2338 net.cpp:124] Setting up inception_3b/relu_5x5_reduce
I0426 17:06:19.443279  2338 net.cpp:131] Top shape: 50 32 28 28 (1254400)
I0426 17:06:19.443282  2338 net.cpp:139] Memory required for data: 1520333600
I0426 17:06:19.443286  2338 layer_factory.hpp:77] Creating layer inception_3b/5x5
I0426 17:06:19.443295  2338 net.cpp:86] Creating Layer inception_3b/5x5
I0426 17:06:19.443301  2338 net.cpp:408] inception_3b/5x5 <- inception_3b/5x5_reduce
I0426 17:06:19.443308  2338 net.cpp:382] inception_3b/5x5 -> inception_3b/5x5
I0426 17:06:19.444159  2338 net.cpp:124] Setting up inception_3b/5x5
I0426 17:06:19.444169  2338 net.cpp:131] Top shape: 50 96 28 28 (3763200)
I0426 17:06:19.444175  2338 net.cpp:139] Memory required for data: 1535386400
I0426 17:06:19.444182  2338 layer_factory.hpp:77] Creating layer inception_3b/relu_5x5
I0426 17:06:19.444190  2338 net.cpp:86] Creating Layer inception_3b/relu_5x5
I0426 17:06:19.444195  2338 net.cpp:408] inception_3b/relu_5x5 <- inception_3b/5x5
I0426 17:06:19.444203  2338 net.cpp:369] inception_3b/relu_5x5 -> inception_3b/5x5 (in-place)
I0426 17:06:19.444211  2338 net.cpp:124] Setting up inception_3b/relu_5x5
I0426 17:06:19.444216  2338 net.cpp:131] Top shape: 50 96 28 28 (3763200)
I0426 17:06:19.444221  2338 net.cpp:139] Memory required for data: 1550439200
I0426 17:06:19.444226  2338 layer_factory.hpp:77] Creating layer inception_3b/pool
I0426 17:06:19.444233  2338 net.cpp:86] Creating Layer inception_3b/pool
I0426 17:06:19.444238  2338 net.cpp:408] inception_3b/pool <- inception_3a/output_inception_3a/output_0_split_3
I0426 17:06:19.444245  2338 net.cpp:382] inception_3b/pool -> inception_3b/pool
I0426 17:06:19.444288  2338 net.cpp:124] Setting up inception_3b/pool
I0426 17:06:19.444295  2338 net.cpp:131] Top shape: 50 256 28 28 (10035200)
I0426 17:06:19.444299  2338 net.cpp:139] Memory required for data: 1590580000
I0426 17:06:19.444303  2338 layer_factory.hpp:77] Creating layer inception_3b/pool_proj
I0426 17:06:19.444314  2338 net.cpp:86] Creating Layer inception_3b/pool_proj
I0426 17:06:19.444319  2338 net.cpp:408] inception_3b/pool_proj <- inception_3b/pool
I0426 17:06:19.444327  2338 net.cpp:382] inception_3b/pool_proj -> inception_3b/pool_proj
I0426 17:06:19.444707  2338 net.cpp:124] Setting up inception_3b/pool_proj
I0426 17:06:19.444720  2338 net.cpp:131] Top shape: 50 64 28 28 (2508800)
I0426 17:06:19.444723  2338 net.cpp:139] Memory required for data: 1600615200
I0426 17:06:19.444731  2338 layer_factory.hpp:77] Creating layer inception_3b/relu_pool_proj
I0426 17:06:19.444738  2338 net.cpp:86] Creating Layer inception_3b/relu_pool_proj
I0426 17:06:19.444746  2338 net.cpp:408] inception_3b/relu_pool_proj <- inception_3b/pool_proj
I0426 17:06:19.444751  2338 net.cpp:369] inception_3b/relu_pool_proj -> inception_3b/pool_proj (in-place)
I0426 17:06:19.444759  2338 net.cpp:124] Setting up inception_3b/relu_pool_proj
I0426 17:06:19.444766  2338 net.cpp:131] Top shape: 50 64 28 28 (2508800)
I0426 17:06:19.444771  2338 net.cpp:139] Memory required for data: 1610650400
I0426 17:06:19.444774  2338 layer_factory.hpp:77] Creating layer inception_3b/output
I0426 17:06:19.444782  2338 net.cpp:86] Creating Layer inception_3b/output
I0426 17:06:19.444785  2338 net.cpp:408] inception_3b/output <- inception_3b/1x1
I0426 17:06:19.444792  2338 net.cpp:408] inception_3b/output <- inception_3b/3x3
I0426 17:06:19.444797  2338 net.cpp:408] inception_3b/output <- inception_3b/5x5
I0426 17:06:19.444803  2338 net.cpp:408] inception_3b/output <- inception_3b/pool_proj
I0426 17:06:19.444823  2338 net.cpp:382] inception_3b/output -> inception_3b/output
I0426 17:06:19.444851  2338 net.cpp:124] Setting up inception_3b/output
I0426 17:06:19.444859  2338 net.cpp:131] Top shape: 50 480 28 28 (18816000)
I0426 17:06:19.444864  2338 net.cpp:139] Memory required for data: 1685914400
I0426 17:06:19.444867  2338 layer_factory.hpp:77] Creating layer pool3/3x3_s2
I0426 17:06:19.444875  2338 net.cpp:86] Creating Layer pool3/3x3_s2
I0426 17:06:19.444880  2338 net.cpp:408] pool3/3x3_s2 <- inception_3b/output
I0426 17:06:19.444901  2338 net.cpp:382] pool3/3x3_s2 -> pool3/3x3_s2
I0426 17:06:19.444941  2338 net.cpp:124] Setting up pool3/3x3_s2
I0426 17:06:19.444949  2338 net.cpp:131] Top shape: 50 480 14 14 (4704000)
I0426 17:06:19.444953  2338 net.cpp:139] Memory required for data: 1704730400
I0426 17:06:19.444958  2338 layer_factory.hpp:77] Creating layer pool3/3x3_s2_pool3/3x3_s2_0_split
I0426 17:06:19.444967  2338 net.cpp:86] Creating Layer pool3/3x3_s2_pool3/3x3_s2_0_split
I0426 17:06:19.444972  2338 net.cpp:408] pool3/3x3_s2_pool3/3x3_s2_0_split <- pool3/3x3_s2
I0426 17:06:19.444978  2338 net.cpp:382] pool3/3x3_s2_pool3/3x3_s2_0_split -> pool3/3x3_s2_pool3/3x3_s2_0_split_0
I0426 17:06:19.444988  2338 net.cpp:382] pool3/3x3_s2_pool3/3x3_s2_0_split -> pool3/3x3_s2_pool3/3x3_s2_0_split_1
I0426 17:06:19.444995  2338 net.cpp:382] pool3/3x3_s2_pool3/3x3_s2_0_split -> pool3/3x3_s2_pool3/3x3_s2_0_split_2
I0426 17:06:19.445004  2338 net.cpp:382] pool3/3x3_s2_pool3/3x3_s2_0_split -> pool3/3x3_s2_pool3/3x3_s2_0_split_3
I0426 17:06:19.445062  2338 net.cpp:124] Setting up pool3/3x3_s2_pool3/3x3_s2_0_split
I0426 17:06:19.445070  2338 net.cpp:131] Top shape: 50 480 14 14 (4704000)
I0426 17:06:19.445076  2338 net.cpp:131] Top shape: 50 480 14 14 (4704000)
I0426 17:06:19.445082  2338 net.cpp:131] Top shape: 50 480 14 14 (4704000)
I0426 17:06:19.445087  2338 net.cpp:131] Top shape: 50 480 14 14 (4704000)
I0426 17:06:19.445091  2338 net.cpp:139] Memory required for data: 1779994400
I0426 17:06:19.445096  2338 layer_factory.hpp:77] Creating layer inception_4a/1x1
I0426 17:06:19.445106  2338 net.cpp:86] Creating Layer inception_4a/1x1
I0426 17:06:19.445111  2338 net.cpp:408] inception_4a/1x1 <- pool3/3x3_s2_pool3/3x3_s2_0_split_0
I0426 17:06:19.445119  2338 net.cpp:382] inception_4a/1x1 -> inception_4a/1x1
I0426 17:06:19.446063  2338 net.cpp:124] Setting up inception_4a/1x1
I0426 17:06:19.446074  2338 net.cpp:131] Top shape: 50 192 14 14 (1881600)
I0426 17:06:19.446077  2338 net.cpp:139] Memory required for data: 1787520800
I0426 17:06:19.446085  2338 layer_factory.hpp:77] Creating layer inception_4a/relu_1x1
I0426 17:06:19.446092  2338 net.cpp:86] Creating Layer inception_4a/relu_1x1
I0426 17:06:19.446099  2338 net.cpp:408] inception_4a/relu_1x1 <- inception_4a/1x1
I0426 17:06:19.446105  2338 net.cpp:369] inception_4a/relu_1x1 -> inception_4a/1x1 (in-place)
I0426 17:06:19.446113  2338 net.cpp:124] Setting up inception_4a/relu_1x1
I0426 17:06:19.446120  2338 net.cpp:131] Top shape: 50 192 14 14 (1881600)
I0426 17:06:19.446125  2338 net.cpp:139] Memory required for data: 1795047200
I0426 17:06:19.446128  2338 layer_factory.hpp:77] Creating layer inception_4a/3x3_reduce
I0426 17:06:19.446138  2338 net.cpp:86] Creating Layer inception_4a/3x3_reduce
I0426 17:06:19.446142  2338 net.cpp:408] inception_4a/3x3_reduce <- pool3/3x3_s2_pool3/3x3_s2_0_split_1
I0426 17:06:19.446151  2338 net.cpp:382] inception_4a/3x3_reduce -> inception_4a/3x3_reduce
I0426 17:06:19.446765  2338 net.cpp:124] Setting up inception_4a/3x3_reduce
I0426 17:06:19.446777  2338 net.cpp:131] Top shape: 50 96 14 14 (940800)
I0426 17:06:19.446782  2338 net.cpp:139] Memory required for data: 1798810400
I0426 17:06:19.446795  2338 layer_factory.hpp:77] Creating layer inception_4a/relu_3x3_reduce
I0426 17:06:19.446815  2338 net.cpp:86] Creating Layer inception_4a/relu_3x3_reduce
I0426 17:06:19.446821  2338 net.cpp:408] inception_4a/relu_3x3_reduce <- inception_4a/3x3_reduce
I0426 17:06:19.446828  2338 net.cpp:369] inception_4a/relu_3x3_reduce -> inception_4a/3x3_reduce (in-place)
I0426 17:06:19.446848  2338 net.cpp:124] Setting up inception_4a/relu_3x3_reduce
I0426 17:06:19.446856  2338 net.cpp:131] Top shape: 50 96 14 14 (940800)
I0426 17:06:19.446873  2338 net.cpp:139] Memory required for data: 1802573600
I0426 17:06:19.446878  2338 layer_factory.hpp:77] Creating layer inception_4a/3x3
I0426 17:06:19.446889  2338 net.cpp:86] Creating Layer inception_4a/3x3
I0426 17:06:19.446894  2338 net.cpp:408] inception_4a/3x3 <- inception_4a/3x3_reduce
I0426 17:06:19.446902  2338 net.cpp:382] inception_4a/3x3 -> inception_4a/3x3
I0426 17:06:19.449524  2338 net.cpp:124] Setting up inception_4a/3x3
I0426 17:06:19.449543  2338 net.cpp:131] Top shape: 50 208 14 14 (2038400)
I0426 17:06:19.449558  2338 net.cpp:139] Memory required for data: 1810727200
I0426 17:06:19.449566  2338 layer_factory.hpp:77] Creating layer inception_4a/relu_3x3
I0426 17:06:19.449575  2338 net.cpp:86] Creating Layer inception_4a/relu_3x3
I0426 17:06:19.449582  2338 net.cpp:408] inception_4a/relu_3x3 <- inception_4a/3x3
I0426 17:06:19.449589  2338 net.cpp:369] inception_4a/relu_3x3 -> inception_4a/3x3 (in-place)
I0426 17:06:19.449599  2338 net.cpp:124] Setting up inception_4a/relu_3x3
I0426 17:06:19.449605  2338 net.cpp:131] Top shape: 50 208 14 14 (2038400)
I0426 17:06:19.449610  2338 net.cpp:139] Memory required for data: 1818880800
I0426 17:06:19.449615  2338 layer_factory.hpp:77] Creating layer inception_4a/5x5_reduce
I0426 17:06:19.449625  2338 net.cpp:86] Creating Layer inception_4a/5x5_reduce
I0426 17:06:19.449630  2338 net.cpp:408] inception_4a/5x5_reduce <- pool3/3x3_s2_pool3/3x3_s2_0_split_2
I0426 17:06:19.449640  2338 net.cpp:382] inception_4a/5x5_reduce -> inception_4a/5x5_reduce
I0426 17:06:19.449947  2338 net.cpp:124] Setting up inception_4a/5x5_reduce
I0426 17:06:19.449957  2338 net.cpp:131] Top shape: 50 16 14 14 (156800)
I0426 17:06:19.449961  2338 net.cpp:139] Memory required for data: 1819508000
I0426 17:06:19.449970  2338 layer_factory.hpp:77] Creating layer inception_4a/relu_5x5_reduce
I0426 17:06:19.449978  2338 net.cpp:86] Creating Layer inception_4a/relu_5x5_reduce
I0426 17:06:19.449983  2338 net.cpp:408] inception_4a/relu_5x5_reduce <- inception_4a/5x5_reduce
I0426 17:06:19.449990  2338 net.cpp:369] inception_4a/relu_5x5_reduce -> inception_4a/5x5_reduce (in-place)
I0426 17:06:19.449998  2338 net.cpp:124] Setting up inception_4a/relu_5x5_reduce
I0426 17:06:19.450004  2338 net.cpp:131] Top shape: 50 16 14 14 (156800)
I0426 17:06:19.450009  2338 net.cpp:139] Memory required for data: 1820135200
I0426 17:06:19.450013  2338 layer_factory.hpp:77] Creating layer inception_4a/5x5
I0426 17:06:19.450023  2338 net.cpp:86] Creating Layer inception_4a/5x5
I0426 17:06:19.450027  2338 net.cpp:408] inception_4a/5x5 <- inception_4a/5x5_reduce
I0426 17:06:19.450036  2338 net.cpp:382] inception_4a/5x5 -> inception_4a/5x5
I0426 17:06:19.450436  2338 net.cpp:124] Setting up inception_4a/5x5
I0426 17:06:19.450448  2338 net.cpp:131] Top shape: 50 48 14 14 (470400)
I0426 17:06:19.450451  2338 net.cpp:139] Memory required for data: 1822016800
I0426 17:06:19.450459  2338 layer_factory.hpp:77] Creating layer inception_4a/relu_5x5
I0426 17:06:19.450466  2338 net.cpp:86] Creating Layer inception_4a/relu_5x5
I0426 17:06:19.450472  2338 net.cpp:408] inception_4a/relu_5x5 <- inception_4a/5x5
I0426 17:06:19.450479  2338 net.cpp:369] inception_4a/relu_5x5 -> inception_4a/5x5 (in-place)
I0426 17:06:19.450486  2338 net.cpp:124] Setting up inception_4a/relu_5x5
I0426 17:06:19.450492  2338 net.cpp:131] Top shape: 50 48 14 14 (470400)
I0426 17:06:19.450497  2338 net.cpp:139] Memory required for data: 1823898400
I0426 17:06:19.450502  2338 layer_factory.hpp:77] Creating layer inception_4a/pool
I0426 17:06:19.450522  2338 net.cpp:86] Creating Layer inception_4a/pool
I0426 17:06:19.450527  2338 net.cpp:408] inception_4a/pool <- pool3/3x3_s2_pool3/3x3_s2_0_split_3
I0426 17:06:19.450536  2338 net.cpp:382] inception_4a/pool -> inception_4a/pool
I0426 17:06:19.450578  2338 net.cpp:124] Setting up inception_4a/pool
I0426 17:06:19.450592  2338 net.cpp:131] Top shape: 50 480 14 14 (4704000)
I0426 17:06:19.450604  2338 net.cpp:139] Memory required for data: 1842714400
I0426 17:06:19.450610  2338 layer_factory.hpp:77] Creating layer inception_4a/pool_proj
I0426 17:06:19.450620  2338 net.cpp:86] Creating Layer inception_4a/pool_proj
I0426 17:06:19.450625  2338 net.cpp:408] inception_4a/pool_proj <- inception_4a/pool
I0426 17:06:19.450634  2338 net.cpp:382] inception_4a/pool_proj -> inception_4a/pool_proj
I0426 17:06:19.451129  2338 net.cpp:124] Setting up inception_4a/pool_proj
I0426 17:06:19.451140  2338 net.cpp:131] Top shape: 50 64 14 14 (627200)
I0426 17:06:19.451144  2338 net.cpp:139] Memory required for data: 1845223200
I0426 17:06:19.451153  2338 layer_factory.hpp:77] Creating layer inception_4a/relu_pool_proj
I0426 17:06:19.451160  2338 net.cpp:86] Creating Layer inception_4a/relu_pool_proj
I0426 17:06:19.451166  2338 net.cpp:408] inception_4a/relu_pool_proj <- inception_4a/pool_proj
I0426 17:06:19.451174  2338 net.cpp:369] inception_4a/relu_pool_proj -> inception_4a/pool_proj (in-place)
I0426 17:06:19.451180  2338 net.cpp:124] Setting up inception_4a/relu_pool_proj
I0426 17:06:19.451187  2338 net.cpp:131] Top shape: 50 64 14 14 (627200)
I0426 17:06:19.451191  2338 net.cpp:139] Memory required for data: 1847732000
I0426 17:06:19.451196  2338 layer_factory.hpp:77] Creating layer inception_4a/output
I0426 17:06:19.451202  2338 net.cpp:86] Creating Layer inception_4a/output
I0426 17:06:19.451208  2338 net.cpp:408] inception_4a/output <- inception_4a/1x1
I0426 17:06:19.451213  2338 net.cpp:408] inception_4a/output <- inception_4a/3x3
I0426 17:06:19.451220  2338 net.cpp:408] inception_4a/output <- inception_4a/5x5
I0426 17:06:19.451225  2338 net.cpp:408] inception_4a/output <- inception_4a/pool_proj
I0426 17:06:19.451231  2338 net.cpp:382] inception_4a/output -> inception_4a/output
I0426 17:06:19.451258  2338 net.cpp:124] Setting up inception_4a/output
I0426 17:06:19.451267  2338 net.cpp:131] Top shape: 50 512 14 14 (5017600)
I0426 17:06:19.451270  2338 net.cpp:139] Memory required for data: 1867802400
I0426 17:06:19.451275  2338 layer_factory.hpp:77] Creating layer inception_4a/output_inception_4a/output_0_split
I0426 17:06:19.451283  2338 net.cpp:86] Creating Layer inception_4a/output_inception_4a/output_0_split
I0426 17:06:19.451288  2338 net.cpp:408] inception_4a/output_inception_4a/output_0_split <- inception_4a/output
I0426 17:06:19.451295  2338 net.cpp:382] inception_4a/output_inception_4a/output_0_split -> inception_4a/output_inception_4a/output_0_split_0
I0426 17:06:19.451305  2338 net.cpp:382] inception_4a/output_inception_4a/output_0_split -> inception_4a/output_inception_4a/output_0_split_1
I0426 17:06:19.451314  2338 net.cpp:382] inception_4a/output_inception_4a/output_0_split -> inception_4a/output_inception_4a/output_0_split_2
I0426 17:06:19.451323  2338 net.cpp:382] inception_4a/output_inception_4a/output_0_split -> inception_4a/output_inception_4a/output_0_split_3
I0426 17:06:19.451330  2338 net.cpp:382] inception_4a/output_inception_4a/output_0_split -> inception_4a/output_inception_4a/output_0_split_4
I0426 17:06:19.451402  2338 net.cpp:124] Setting up inception_4a/output_inception_4a/output_0_split
I0426 17:06:19.451411  2338 net.cpp:131] Top shape: 50 512 14 14 (5017600)
I0426 17:06:19.451416  2338 net.cpp:131] Top shape: 50 512 14 14 (5017600)
I0426 17:06:19.451421  2338 net.cpp:131] Top shape: 50 512 14 14 (5017600)
I0426 17:06:19.451427  2338 net.cpp:131] Top shape: 50 512 14 14 (5017600)
I0426 17:06:19.451432  2338 net.cpp:131] Top shape: 50 512 14 14 (5017600)
I0426 17:06:19.451436  2338 net.cpp:139] Memory required for data: 1968154400
I0426 17:06:19.451441  2338 layer_factory.hpp:77] Creating layer loss1/ave_pool
I0426 17:06:19.451448  2338 net.cpp:86] Creating Layer loss1/ave_pool
I0426 17:06:19.451453  2338 net.cpp:408] loss1/ave_pool <- inception_4a/output_inception_4a/output_0_split_0
I0426 17:06:19.451460  2338 net.cpp:382] loss1/ave_pool -> loss1/ave_pool
I0426 17:06:19.451484  2338 net.cpp:124] Setting up loss1/ave_pool
I0426 17:06:19.451498  2338 net.cpp:131] Top shape: 50 512 4 4 (409600)
I0426 17:06:19.451508  2338 net.cpp:139] Memory required for data: 1969792800
I0426 17:06:19.451512  2338 layer_factory.hpp:77] Creating layer loss1/conv
I0426 17:06:19.451521  2338 net.cpp:86] Creating Layer loss1/conv
I0426 17:06:19.451527  2338 net.cpp:408] loss1/conv <- loss1/ave_pool
I0426 17:06:19.451535  2338 net.cpp:382] loss1/conv -> loss1/conv
I0426 17:06:19.452293  2338 net.cpp:124] Setting up loss1/conv
I0426 17:06:19.452304  2338 net.cpp:131] Top shape: 50 128 4 4 (102400)
I0426 17:06:19.452309  2338 net.cpp:139] Memory required for data: 1970202400
I0426 17:06:19.452317  2338 layer_factory.hpp:77] Creating layer loss1/relu_conv
I0426 17:06:19.452324  2338 net.cpp:86] Creating Layer loss1/relu_conv
I0426 17:06:19.452330  2338 net.cpp:408] loss1/relu_conv <- loss1/conv
I0426 17:06:19.452337  2338 net.cpp:369] loss1/relu_conv -> loss1/conv (in-place)
I0426 17:06:19.452344  2338 net.cpp:124] Setting up loss1/relu_conv
I0426 17:06:19.452350  2338 net.cpp:131] Top shape: 50 128 4 4 (102400)
I0426 17:06:19.452354  2338 net.cpp:139] Memory required for data: 1970612000
I0426 17:06:19.452359  2338 layer_factory.hpp:77] Creating layer loss1/fc
I0426 17:06:19.452368  2338 net.cpp:86] Creating Layer loss1/fc
I0426 17:06:19.452373  2338 net.cpp:408] loss1/fc <- loss1/conv
I0426 17:06:19.452380  2338 net.cpp:382] loss1/fc -> loss1/fc
I0426 17:06:19.470175  2338 net.cpp:124] Setting up loss1/fc
I0426 17:06:19.470207  2338 net.cpp:131] Top shape: 50 1024 (51200)
I0426 17:06:19.470212  2338 net.cpp:139] Memory required for data: 1970816800
I0426 17:06:19.470223  2338 layer_factory.hpp:77] Creating layer loss1/relu_fc
I0426 17:06:19.470234  2338 net.cpp:86] Creating Layer loss1/relu_fc
I0426 17:06:19.470240  2338 net.cpp:408] loss1/relu_fc <- loss1/fc
I0426 17:06:19.470247  2338 net.cpp:369] loss1/relu_fc -> loss1/fc (in-place)
I0426 17:06:19.470257  2338 net.cpp:124] Setting up loss1/relu_fc
I0426 17:06:19.470263  2338 net.cpp:131] Top shape: 50 1024 (51200)
I0426 17:06:19.470265  2338 net.cpp:139] Memory required for data: 1971021600
I0426 17:06:19.470269  2338 layer_factory.hpp:77] Creating layer loss1/drop_fc
I0426 17:06:19.470293  2338 net.cpp:86] Creating Layer loss1/drop_fc
I0426 17:06:19.470297  2338 net.cpp:408] loss1/drop_fc <- loss1/fc
I0426 17:06:19.470304  2338 net.cpp:369] loss1/drop_fc -> loss1/fc (in-place)
I0426 17:06:19.470337  2338 net.cpp:124] Setting up loss1/drop_fc
I0426 17:06:19.470345  2338 net.cpp:131] Top shape: 50 1024 (51200)
I0426 17:06:19.470348  2338 net.cpp:139] Memory required for data: 1971226400
I0426 17:06:19.470353  2338 layer_factory.hpp:77] Creating layer loss1/classifier-bird
I0426 17:06:19.470362  2338 net.cpp:86] Creating Layer loss1/classifier-bird
I0426 17:06:19.470367  2338 net.cpp:408] loss1/classifier-bird <- loss1/fc
I0426 17:06:19.470386  2338 net.cpp:382] loss1/classifier-bird -> loss1/classifier
I0426 17:06:19.470530  2338 net.cpp:124] Setting up loss1/classifier-bird
I0426 17:06:19.470538  2338 net.cpp:131] Top shape: 50 4 (200)
I0426 17:06:19.470542  2338 net.cpp:139] Memory required for data: 1971227200
I0426 17:06:19.470549  2338 layer_factory.hpp:77] Creating layer loss1/loss
I0426 17:06:19.470558  2338 net.cpp:86] Creating Layer loss1/loss
I0426 17:06:19.470562  2338 net.cpp:408] loss1/loss <- loss1/classifier
I0426 17:06:19.470568  2338 net.cpp:408] loss1/loss <- label_data_1_split_0
I0426 17:06:19.470576  2338 net.cpp:382] loss1/loss -> loss1/loss1
I0426 17:06:19.470587  2338 layer_factory.hpp:77] Creating layer loss1/loss
I0426 17:06:19.470685  2338 net.cpp:124] Setting up loss1/loss
I0426 17:06:19.470691  2338 net.cpp:131] Top shape: (1)
I0426 17:06:19.470696  2338 net.cpp:134]     with loss weight 0.3
I0426 17:06:19.470738  2338 net.cpp:139] Memory required for data: 1971227204
I0426 17:06:19.470743  2338 layer_factory.hpp:77] Creating layer inception_4b/1x1
I0426 17:06:19.470757  2338 net.cpp:86] Creating Layer inception_4b/1x1
I0426 17:06:19.470762  2338 net.cpp:408] inception_4b/1x1 <- inception_4a/output_inception_4a/output_0_split_1
I0426 17:06:19.470788  2338 net.cpp:382] inception_4b/1x1 -> inception_4b/1x1
I0426 17:06:19.471606  2338 net.cpp:124] Setting up inception_4b/1x1
I0426 17:06:19.471616  2338 net.cpp:131] Top shape: 50 160 14 14 (1568000)
I0426 17:06:19.471621  2338 net.cpp:139] Memory required for data: 1977499204
I0426 17:06:19.471628  2338 layer_factory.hpp:77] Creating layer inception_4b/relu_1x1
I0426 17:06:19.471635  2338 net.cpp:86] Creating Layer inception_4b/relu_1x1
I0426 17:06:19.471640  2338 net.cpp:408] inception_4b/relu_1x1 <- inception_4b/1x1
I0426 17:06:19.471647  2338 net.cpp:369] inception_4b/relu_1x1 -> inception_4b/1x1 (in-place)
I0426 17:06:19.471654  2338 net.cpp:124] Setting up inception_4b/relu_1x1
I0426 17:06:19.471659  2338 net.cpp:131] Top shape: 50 160 14 14 (1568000)
I0426 17:06:19.471663  2338 net.cpp:139] Memory required for data: 1983771204
I0426 17:06:19.471668  2338 layer_factory.hpp:77] Creating layer inception_4b/3x3_reduce
I0426 17:06:19.471678  2338 net.cpp:86] Creating Layer inception_4b/3x3_reduce
I0426 17:06:19.471681  2338 net.cpp:408] inception_4b/3x3_reduce <- inception_4a/output_inception_4a/output_0_split_2
I0426 17:06:19.471689  2338 net.cpp:382] inception_4b/3x3_reduce -> inception_4b/3x3_reduce
I0426 17:06:19.472337  2338 net.cpp:124] Setting up inception_4b/3x3_reduce
I0426 17:06:19.472347  2338 net.cpp:131] Top shape: 50 112 14 14 (1097600)
I0426 17:06:19.472349  2338 net.cpp:139] Memory required for data: 1988161604
I0426 17:06:19.472357  2338 layer_factory.hpp:77] Creating layer inception_4b/relu_3x3_reduce
I0426 17:06:19.472364  2338 net.cpp:86] Creating Layer inception_4b/relu_3x3_reduce
I0426 17:06:19.472369  2338 net.cpp:408] inception_4b/relu_3x3_reduce <- inception_4b/3x3_reduce
I0426 17:06:19.472375  2338 net.cpp:369] inception_4b/relu_3x3_reduce -> inception_4b/3x3_reduce (in-place)
I0426 17:06:19.472383  2338 net.cpp:124] Setting up inception_4b/relu_3x3_reduce
I0426 17:06:19.472388  2338 net.cpp:131] Top shape: 50 112 14 14 (1097600)
I0426 17:06:19.472393  2338 net.cpp:139] Memory required for data: 1992552004
I0426 17:06:19.472396  2338 layer_factory.hpp:77] Creating layer inception_4b/3x3
I0426 17:06:19.472404  2338 net.cpp:86] Creating Layer inception_4b/3x3
I0426 17:06:19.472409  2338 net.cpp:408] inception_4b/3x3 <- inception_4b/3x3_reduce
I0426 17:06:19.472416  2338 net.cpp:382] inception_4b/3x3 -> inception_4b/3x3
I0426 17:06:19.474206  2338 net.cpp:124] Setting up inception_4b/3x3
I0426 17:06:19.474216  2338 net.cpp:131] Top shape: 50 224 14 14 (2195200)
I0426 17:06:19.474220  2338 net.cpp:139] Memory required for data: 2001332804
I0426 17:06:19.474227  2338 layer_factory.hpp:77] Creating layer inception_4b/relu_3x3
I0426 17:06:19.474234  2338 net.cpp:86] Creating Layer inception_4b/relu_3x3
I0426 17:06:19.474238  2338 net.cpp:408] inception_4b/relu_3x3 <- inception_4b/3x3
I0426 17:06:19.474246  2338 net.cpp:369] inception_4b/relu_3x3 -> inception_4b/3x3 (in-place)
I0426 17:06:19.474252  2338 net.cpp:124] Setting up inception_4b/relu_3x3
I0426 17:06:19.474257  2338 net.cpp:131] Top shape: 50 224 14 14 (2195200)
I0426 17:06:19.474261  2338 net.cpp:139] Memory required for data: 2010113604
I0426 17:06:19.474267  2338 layer_factory.hpp:77] Creating layer inception_4b/5x5_reduce
I0426 17:06:19.474285  2338 net.cpp:86] Creating Layer inception_4b/5x5_reduce
I0426 17:06:19.474290  2338 net.cpp:408] inception_4b/5x5_reduce <- inception_4a/output_inception_4a/output_0_split_3
I0426 17:06:19.474298  2338 net.cpp:382] inception_4b/5x5_reduce -> inception_4b/5x5_reduce
I0426 17:06:19.474629  2338 net.cpp:124] Setting up inception_4b/5x5_reduce
I0426 17:06:19.474640  2338 net.cpp:131] Top shape: 50 24 14 14 (235200)
I0426 17:06:19.474643  2338 net.cpp:139] Memory required for data: 2011054404
I0426 17:06:19.474650  2338 layer_factory.hpp:77] Creating layer inception_4b/relu_5x5_reduce
I0426 17:06:19.474658  2338 net.cpp:86] Creating Layer inception_4b/relu_5x5_reduce
I0426 17:06:19.474663  2338 net.cpp:408] inception_4b/relu_5x5_reduce <- inception_4b/5x5_reduce
I0426 17:06:19.474680  2338 net.cpp:369] inception_4b/relu_5x5_reduce -> inception_4b/5x5_reduce (in-place)
I0426 17:06:19.474687  2338 net.cpp:124] Setting up inception_4b/relu_5x5_reduce
I0426 17:06:19.474694  2338 net.cpp:131] Top shape: 50 24 14 14 (235200)
I0426 17:06:19.474697  2338 net.cpp:139] Memory required for data: 2011995204
I0426 17:06:19.474701  2338 layer_factory.hpp:77] Creating layer inception_4b/5x5
I0426 17:06:19.474709  2338 net.cpp:86] Creating Layer inception_4b/5x5
I0426 17:06:19.474715  2338 net.cpp:408] inception_4b/5x5 <- inception_4b/5x5_reduce
I0426 17:06:19.474721  2338 net.cpp:382] inception_4b/5x5 -> inception_4b/5x5
I0426 17:06:19.475224  2338 net.cpp:124] Setting up inception_4b/5x5
I0426 17:06:19.475232  2338 net.cpp:131] Top shape: 50 64 14 14 (627200)
I0426 17:06:19.475237  2338 net.cpp:139] Memory required for data: 2014504004
I0426 17:06:19.475244  2338 layer_factory.hpp:77] Creating layer inception_4b/relu_5x5
I0426 17:06:19.475251  2338 net.cpp:86] Creating Layer inception_4b/relu_5x5
I0426 17:06:19.475255  2338 net.cpp:408] inception_4b/relu_5x5 <- inception_4b/5x5
I0426 17:06:19.475262  2338 net.cpp:369] inception_4b/relu_5x5 -> inception_4b/5x5 (in-place)
I0426 17:06:19.475270  2338 net.cpp:124] Setting up inception_4b/relu_5x5
I0426 17:06:19.475275  2338 net.cpp:131] Top shape: 50 64 14 14 (627200)
I0426 17:06:19.475277  2338 net.cpp:139] Memory required for data: 2017012804
I0426 17:06:19.475282  2338 layer_factory.hpp:77] Creating layer inception_4b/pool
I0426 17:06:19.475289  2338 net.cpp:86] Creating Layer inception_4b/pool
I0426 17:06:19.475293  2338 net.cpp:408] inception_4b/pool <- inception_4a/output_inception_4a/output_0_split_4
I0426 17:06:19.475301  2338 net.cpp:382] inception_4b/pool -> inception_4b/pool
I0426 17:06:19.475366  2338 net.cpp:124] Setting up inception_4b/pool
I0426 17:06:19.475374  2338 net.cpp:131] Top shape: 50 512 14 14 (5017600)
I0426 17:06:19.475378  2338 net.cpp:139] Memory required for data: 2037083204
I0426 17:06:19.475383  2338 layer_factory.hpp:77] Creating layer inception_4b/pool_proj
I0426 17:06:19.475392  2338 net.cpp:86] Creating Layer inception_4b/pool_proj
I0426 17:06:19.475397  2338 net.cpp:408] inception_4b/pool_proj <- inception_4b/pool
I0426 17:06:19.475404  2338 net.cpp:382] inception_4b/pool_proj -> inception_4b/pool_proj
I0426 17:06:19.475867  2338 net.cpp:124] Setting up inception_4b/pool_proj
I0426 17:06:19.475877  2338 net.cpp:131] Top shape: 50 64 14 14 (627200)
I0426 17:06:19.475880  2338 net.cpp:139] Memory required for data: 2039592004
I0426 17:06:19.475888  2338 layer_factory.hpp:77] Creating layer inception_4b/relu_pool_proj
I0426 17:06:19.475894  2338 net.cpp:86] Creating Layer inception_4b/relu_pool_proj
I0426 17:06:19.475899  2338 net.cpp:408] inception_4b/relu_pool_proj <- inception_4b/pool_proj
I0426 17:06:19.475905  2338 net.cpp:369] inception_4b/relu_pool_proj -> inception_4b/pool_proj (in-place)
I0426 17:06:19.475913  2338 net.cpp:124] Setting up inception_4b/relu_pool_proj
I0426 17:06:19.475917  2338 net.cpp:131] Top shape: 50 64 14 14 (627200)
I0426 17:06:19.475922  2338 net.cpp:139] Memory required for data: 2042100804
I0426 17:06:19.475926  2338 layer_factory.hpp:77] Creating layer inception_4b/output
I0426 17:06:19.475942  2338 net.cpp:86] Creating Layer inception_4b/output
I0426 17:06:19.475965  2338 net.cpp:408] inception_4b/output <- inception_4b/1x1
I0426 17:06:19.475970  2338 net.cpp:408] inception_4b/output <- inception_4b/3x3
I0426 17:06:19.475975  2338 net.cpp:408] inception_4b/output <- inception_4b/5x5
I0426 17:06:19.475980  2338 net.cpp:408] inception_4b/output <- inception_4b/pool_proj
I0426 17:06:19.475986  2338 net.cpp:382] inception_4b/output -> inception_4b/output
I0426 17:06:19.476012  2338 net.cpp:124] Setting up inception_4b/output
I0426 17:06:19.476019  2338 net.cpp:131] Top shape: 50 512 14 14 (5017600)
I0426 17:06:19.476023  2338 net.cpp:139] Memory required for data: 2062171204
I0426 17:06:19.476027  2338 layer_factory.hpp:77] Creating layer inception_4b/output_inception_4b/output_0_split
I0426 17:06:19.476044  2338 net.cpp:86] Creating Layer inception_4b/output_inception_4b/output_0_split
I0426 17:06:19.476049  2338 net.cpp:408] inception_4b/output_inception_4b/output_0_split <- inception_4b/output
I0426 17:06:19.476056  2338 net.cpp:382] inception_4b/output_inception_4b/output_0_split -> inception_4b/output_inception_4b/output_0_split_0
I0426 17:06:19.476064  2338 net.cpp:382] inception_4b/output_inception_4b/output_0_split -> inception_4b/output_inception_4b/output_0_split_1
I0426 17:06:19.476073  2338 net.cpp:382] inception_4b/output_inception_4b/output_0_split -> inception_4b/output_inception_4b/output_0_split_2
I0426 17:06:19.476081  2338 net.cpp:382] inception_4b/output_inception_4b/output_0_split -> inception_4b/output_inception_4b/output_0_split_3
I0426 17:06:19.476137  2338 net.cpp:124] Setting up inception_4b/output_inception_4b/output_0_split
I0426 17:06:19.476145  2338 net.cpp:131] Top shape: 50 512 14 14 (5017600)
I0426 17:06:19.476151  2338 net.cpp:131] Top shape: 50 512 14 14 (5017600)
I0426 17:06:19.476155  2338 net.cpp:131] Top shape: 50 512 14 14 (5017600)
I0426 17:06:19.476161  2338 net.cpp:131] Top shape: 50 512 14 14 (5017600)
I0426 17:06:19.476164  2338 net.cpp:139] Memory required for data: 2142452804
I0426 17:06:19.476169  2338 layer_factory.hpp:77] Creating layer inception_4c/1x1
I0426 17:06:19.476177  2338 net.cpp:86] Creating Layer inception_4c/1x1
I0426 17:06:19.476182  2338 net.cpp:408] inception_4c/1x1 <- inception_4b/output_inception_4b/output_0_split_0
I0426 17:06:19.476189  2338 net.cpp:382] inception_4c/1x1 -> inception_4c/1x1
I0426 17:06:19.476876  2338 net.cpp:124] Setting up inception_4c/1x1
I0426 17:06:19.476886  2338 net.cpp:131] Top shape: 50 128 14 14 (1254400)
I0426 17:06:19.476889  2338 net.cpp:139] Memory required for data: 2147470404
I0426 17:06:19.476897  2338 layer_factory.hpp:77] Creating layer inception_4c/relu_1x1
I0426 17:06:19.476904  2338 net.cpp:86] Creating Layer inception_4c/relu_1x1
I0426 17:06:19.476908  2338 net.cpp:408] inception_4c/relu_1x1 <- inception_4c/1x1
I0426 17:06:19.476914  2338 net.cpp:369] inception_4c/relu_1x1 -> inception_4c/1x1 (in-place)
I0426 17:06:19.476922  2338 net.cpp:124] Setting up inception_4c/relu_1x1
I0426 17:06:19.476927  2338 net.cpp:131] Top shape: 50 128 14 14 (1254400)
I0426 17:06:19.476932  2338 net.cpp:139] Memory required for data: 2152488004
I0426 17:06:19.476934  2338 layer_factory.hpp:77] Creating layer inception_4c/3x3_reduce
I0426 17:06:19.476943  2338 net.cpp:86] Creating Layer inception_4c/3x3_reduce
I0426 17:06:19.476948  2338 net.cpp:408] inception_4c/3x3_reduce <- inception_4b/output_inception_4b/output_0_split_1
I0426 17:06:19.476955  2338 net.cpp:382] inception_4c/3x3_reduce -> inception_4c/3x3_reduce
I0426 17:06:19.477648  2338 net.cpp:124] Setting up inception_4c/3x3_reduce
I0426 17:06:19.477656  2338 net.cpp:131] Top shape: 50 128 14 14 (1254400)
I0426 17:06:19.477661  2338 net.cpp:139] Memory required for data: 2157505604
I0426 17:06:19.477669  2338 layer_factory.hpp:77] Creating layer inception_4c/relu_3x3_reduce
I0426 17:06:19.477675  2338 net.cpp:86] Creating Layer inception_4c/relu_3x3_reduce
I0426 17:06:19.477679  2338 net.cpp:408] inception_4c/relu_3x3_reduce <- inception_4c/3x3_reduce
I0426 17:06:19.477686  2338 net.cpp:369] inception_4c/relu_3x3_reduce -> inception_4c/3x3_reduce (in-place)
I0426 17:06:19.477694  2338 net.cpp:124] Setting up inception_4c/relu_3x3_reduce
I0426 17:06:19.477699  2338 net.cpp:131] Top shape: 50 128 14 14 (1254400)
I0426 17:06:19.477702  2338 net.cpp:139] Memory required for data: 2162523204
I0426 17:06:19.477706  2338 layer_factory.hpp:77] Creating layer inception_4c/3x3
I0426 17:06:19.477715  2338 net.cpp:86] Creating Layer inception_4c/3x3
I0426 17:06:19.477718  2338 net.cpp:408] inception_4c/3x3 <- inception_4c/3x3_reduce
I0426 17:06:19.477725  2338 net.cpp:382] inception_4c/3x3 -> inception_4c/3x3
I0426 17:06:19.480834  2338 net.cpp:124] Setting up inception_4c/3x3
I0426 17:06:19.480856  2338 net.cpp:131] Top shape: 50 256 14 14 (2508800)
I0426 17:06:19.480867  2338 net.cpp:139] Memory required for data: 2172558404
I0426 17:06:19.480882  2338 layer_factory.hpp:77] Creating layer inception_4c/relu_3x3
I0426 17:06:19.480891  2338 net.cpp:86] Creating Layer inception_4c/relu_3x3
I0426 17:06:19.480896  2338 net.cpp:408] inception_4c/relu_3x3 <- inception_4c/3x3
I0426 17:06:19.480903  2338 net.cpp:369] inception_4c/relu_3x3 -> inception_4c/3x3 (in-place)
I0426 17:06:19.480911  2338 net.cpp:124] Setting up inception_4c/relu_3x3
I0426 17:06:19.480917  2338 net.cpp:131] Top shape: 50 256 14 14 (2508800)
I0426 17:06:19.480921  2338 net.cpp:139] Memory required for data: 2182593604
I0426 17:06:19.480924  2338 layer_factory.hpp:77] Creating layer inception_4c/5x5_reduce
I0426 17:06:19.480933  2338 net.cpp:86] Creating Layer inception_4c/5x5_reduce
I0426 17:06:19.480939  2338 net.cpp:408] inception_4c/5x5_reduce <- inception_4b/output_inception_4b/output_0_split_2
I0426 17:06:19.480947  2338 net.cpp:382] inception_4c/5x5_reduce -> inception_4c/5x5_reduce
I0426 17:06:19.481252  2338 net.cpp:124] Setting up inception_4c/5x5_reduce
I0426 17:06:19.481261  2338 net.cpp:131] Top shape: 50 24 14 14 (235200)
I0426 17:06:19.481266  2338 net.cpp:139] Memory required for data: 2183534404
I0426 17:06:19.481272  2338 layer_factory.hpp:77] Creating layer inception_4c/relu_5x5_reduce
I0426 17:06:19.481278  2338 net.cpp:86] Creating Layer inception_4c/relu_5x5_reduce
I0426 17:06:19.481283  2338 net.cpp:408] inception_4c/relu_5x5_reduce <- inception_4c/5x5_reduce
I0426 17:06:19.481290  2338 net.cpp:369] inception_4c/relu_5x5_reduce -> inception_4c/5x5_reduce (in-place)
I0426 17:06:19.481297  2338 net.cpp:124] Setting up inception_4c/relu_5x5_reduce
I0426 17:06:19.481302  2338 net.cpp:131] Top shape: 50 24 14 14 (235200)
I0426 17:06:19.481305  2338 net.cpp:139] Memory required for data: 2184475204
I0426 17:06:19.481309  2338 layer_factory.hpp:77] Creating layer inception_4c/5x5
I0426 17:06:19.481317  2338 net.cpp:86] Creating Layer inception_4c/5x5
I0426 17:06:19.481322  2338 net.cpp:408] inception_4c/5x5 <- inception_4c/5x5_reduce
I0426 17:06:19.481328  2338 net.cpp:382] inception_4c/5x5 -> inception_4c/5x5
I0426 17:06:19.485409  2338 net.cpp:124] Setting up inception_4c/5x5
I0426 17:06:19.485425  2338 net.cpp:131] Top shape: 50 64 14 14 (627200)
I0426 17:06:19.485430  2338 net.cpp:139] Memory required for data: 2186984004
I0426 17:06:19.485437  2338 layer_factory.hpp:77] Creating layer inception_4c/relu_5x5
I0426 17:06:19.485445  2338 net.cpp:86] Creating Layer inception_4c/relu_5x5
I0426 17:06:19.485450  2338 net.cpp:408] inception_4c/relu_5x5 <- inception_4c/5x5
I0426 17:06:19.485456  2338 net.cpp:369] inception_4c/relu_5x5 -> inception_4c/5x5 (in-place)
I0426 17:06:19.485465  2338 net.cpp:124] Setting up inception_4c/relu_5x5
I0426 17:06:19.485471  2338 net.cpp:131] Top shape: 50 64 14 14 (627200)
I0426 17:06:19.485474  2338 net.cpp:139] Memory required for data: 2189492804
I0426 17:06:19.485477  2338 layer_factory.hpp:77] Creating layer inception_4c/pool
I0426 17:06:19.485484  2338 net.cpp:86] Creating Layer inception_4c/pool
I0426 17:06:19.485489  2338 net.cpp:408] inception_4c/pool <- inception_4b/output_inception_4b/output_0_split_3
I0426 17:06:19.485496  2338 net.cpp:382] inception_4c/pool -> inception_4c/pool
I0426 17:06:19.485536  2338 net.cpp:124] Setting up inception_4c/pool
I0426 17:06:19.485543  2338 net.cpp:131] Top shape: 50 512 14 14 (5017600)
I0426 17:06:19.485548  2338 net.cpp:139] Memory required for data: 2209563204
I0426 17:06:19.485551  2338 layer_factory.hpp:77] Creating layer inception_4c/pool_proj
I0426 17:06:19.485560  2338 net.cpp:86] Creating Layer inception_4c/pool_proj
I0426 17:06:19.485564  2338 net.cpp:408] inception_4c/pool_proj <- inception_4c/pool
I0426 17:06:19.485584  2338 net.cpp:382] inception_4c/pool_proj -> inception_4c/pool_proj
I0426 17:06:19.490494  2338 net.cpp:124] Setting up inception_4c/pool_proj
I0426 17:06:19.490526  2338 net.cpp:131] Top shape: 50 64 14 14 (627200)
I0426 17:06:19.490537  2338 net.cpp:139] Memory required for data: 2212072004
I0426 17:06:19.490552  2338 layer_factory.hpp:77] Creating layer inception_4c/relu_pool_proj
I0426 17:06:19.490561  2338 net.cpp:86] Creating Layer inception_4c/relu_pool_proj
I0426 17:06:19.490567  2338 net.cpp:408] inception_4c/relu_pool_proj <- inception_4c/pool_proj
I0426 17:06:19.490574  2338 net.cpp:369] inception_4c/relu_pool_proj -> inception_4c/pool_proj (in-place)
I0426 17:06:19.490583  2338 net.cpp:124] Setting up inception_4c/relu_pool_proj
I0426 17:06:19.490588  2338 net.cpp:131] Top shape: 50 64 14 14 (627200)
I0426 17:06:19.490592  2338 net.cpp:139] Memory required for data: 2214580804
I0426 17:06:19.490597  2338 layer_factory.hpp:77] Creating layer inception_4c/output
I0426 17:06:19.490603  2338 net.cpp:86] Creating Layer inception_4c/output
I0426 17:06:19.490607  2338 net.cpp:408] inception_4c/output <- inception_4c/1x1
I0426 17:06:19.490612  2338 net.cpp:408] inception_4c/output <- inception_4c/3x3
I0426 17:06:19.490617  2338 net.cpp:408] inception_4c/output <- inception_4c/5x5
I0426 17:06:19.490622  2338 net.cpp:408] inception_4c/output <- inception_4c/pool_proj
I0426 17:06:19.490628  2338 net.cpp:382] inception_4c/output -> inception_4c/output
I0426 17:06:19.490658  2338 net.cpp:124] Setting up inception_4c/output
I0426 17:06:19.490664  2338 net.cpp:131] Top shape: 50 512 14 14 (5017600)
I0426 17:06:19.490669  2338 net.cpp:139] Memory required for data: 2234651204
I0426 17:06:19.490672  2338 layer_factory.hpp:77] Creating layer inception_4c/output_inception_4c/output_0_split
I0426 17:06:19.490679  2338 net.cpp:86] Creating Layer inception_4c/output_inception_4c/output_0_split
I0426 17:06:19.490684  2338 net.cpp:408] inception_4c/output_inception_4c/output_0_split <- inception_4c/output
I0426 17:06:19.490691  2338 net.cpp:382] inception_4c/output_inception_4c/output_0_split -> inception_4c/output_inception_4c/output_0_split_0
I0426 17:06:19.490700  2338 net.cpp:382] inception_4c/output_inception_4c/output_0_split -> inception_4c/output_inception_4c/output_0_split_1
I0426 17:06:19.490706  2338 net.cpp:382] inception_4c/output_inception_4c/output_0_split -> inception_4c/output_inception_4c/output_0_split_2
I0426 17:06:19.490715  2338 net.cpp:382] inception_4c/output_inception_4c/output_0_split -> inception_4c/output_inception_4c/output_0_split_3
I0426 17:06:19.490772  2338 net.cpp:124] Setting up inception_4c/output_inception_4c/output_0_split
I0426 17:06:19.490777  2338 net.cpp:131] Top shape: 50 512 14 14 (5017600)
I0426 17:06:19.490782  2338 net.cpp:131] Top shape: 50 512 14 14 (5017600)
I0426 17:06:19.490787  2338 net.cpp:131] Top shape: 50 512 14 14 (5017600)
I0426 17:06:19.490792  2338 net.cpp:131] Top shape: 50 512 14 14 (5017600)
I0426 17:06:19.490797  2338 net.cpp:139] Memory required for data: 2314932804
I0426 17:06:19.490802  2338 layer_factory.hpp:77] Creating layer inception_4d/1x1
I0426 17:06:19.490813  2338 net.cpp:86] Creating Layer inception_4d/1x1
I0426 17:06:19.490818  2338 net.cpp:408] inception_4d/1x1 <- inception_4c/output_inception_4c/output_0_split_0
I0426 17:06:19.490824  2338 net.cpp:382] inception_4d/1x1 -> inception_4d/1x1
I0426 17:06:19.491443  2338 net.cpp:124] Setting up inception_4d/1x1
I0426 17:06:19.491453  2338 net.cpp:131] Top shape: 50 112 14 14 (1097600)
I0426 17:06:19.491457  2338 net.cpp:139] Memory required for data: 2319323204
I0426 17:06:19.491464  2338 layer_factory.hpp:77] Creating layer inception_4d/relu_1x1
I0426 17:06:19.491472  2338 net.cpp:86] Creating Layer inception_4d/relu_1x1
I0426 17:06:19.491475  2338 net.cpp:408] inception_4d/relu_1x1 <- inception_4d/1x1
I0426 17:06:19.491482  2338 net.cpp:369] inception_4d/relu_1x1 -> inception_4d/1x1 (in-place)
I0426 17:06:19.491489  2338 net.cpp:124] Setting up inception_4d/relu_1x1
I0426 17:06:19.491494  2338 net.cpp:131] Top shape: 50 112 14 14 (1097600)
I0426 17:06:19.491498  2338 net.cpp:139] Memory required for data: 2323713604
I0426 17:06:19.491503  2338 layer_factory.hpp:77] Creating layer inception_4d/3x3_reduce
I0426 17:06:19.491511  2338 net.cpp:86] Creating Layer inception_4d/3x3_reduce
I0426 17:06:19.491525  2338 net.cpp:408] inception_4d/3x3_reduce <- inception_4c/output_inception_4c/output_0_split_1
I0426 17:06:19.491533  2338 net.cpp:382] inception_4d/3x3_reduce -> inception_4d/3x3_reduce
I0426 17:06:19.492246  2338 net.cpp:124] Setting up inception_4d/3x3_reduce
I0426 17:06:19.492255  2338 net.cpp:131] Top shape: 50 144 14 14 (1411200)
I0426 17:06:19.492259  2338 net.cpp:139] Memory required for data: 2329358404
I0426 17:06:19.492265  2338 layer_factory.hpp:77] Creating layer inception_4d/relu_3x3_reduce
I0426 17:06:19.492274  2338 net.cpp:86] Creating Layer inception_4d/relu_3x3_reduce
I0426 17:06:19.492277  2338 net.cpp:408] inception_4d/relu_3x3_reduce <- inception_4d/3x3_reduce
I0426 17:06:19.492283  2338 net.cpp:369] inception_4d/relu_3x3_reduce -> inception_4d/3x3_reduce (in-place)
I0426 17:06:19.492290  2338 net.cpp:124] Setting up inception_4d/relu_3x3_reduce
I0426 17:06:19.492295  2338 net.cpp:131] Top shape: 50 144 14 14 (1411200)
I0426 17:06:19.492300  2338 net.cpp:139] Memory required for data: 2335003204
I0426 17:06:19.492302  2338 layer_factory.hpp:77] Creating layer inception_4d/3x3
I0426 17:06:19.492319  2338 net.cpp:86] Creating Layer inception_4d/3x3
I0426 17:06:19.492326  2338 net.cpp:408] inception_4d/3x3 <- inception_4d/3x3_reduce
I0426 17:06:19.492332  2338 net.cpp:382] inception_4d/3x3 -> inception_4d/3x3
I0426 17:06:19.495846  2338 net.cpp:124] Setting up inception_4d/3x3
I0426 17:06:19.495862  2338 net.cpp:131] Top shape: 50 288 14 14 (2822400)
I0426 17:06:19.495867  2338 net.cpp:139] Memory required for data: 2346292804
I0426 17:06:19.495875  2338 layer_factory.hpp:77] Creating layer inception_4d/relu_3x3
I0426 17:06:19.495883  2338 net.cpp:86] Creating Layer inception_4d/relu_3x3
I0426 17:06:19.495888  2338 net.cpp:408] inception_4d/relu_3x3 <- inception_4d/3x3
I0426 17:06:19.495895  2338 net.cpp:369] inception_4d/relu_3x3 -> inception_4d/3x3 (in-place)
I0426 17:06:19.495903  2338 net.cpp:124] Setting up inception_4d/relu_3x3
I0426 17:06:19.495909  2338 net.cpp:131] Top shape: 50 288 14 14 (2822400)
I0426 17:06:19.495913  2338 net.cpp:139] Memory required for data: 2357582404
I0426 17:06:19.495918  2338 layer_factory.hpp:77] Creating layer inception_4d/5x5_reduce
I0426 17:06:19.495926  2338 net.cpp:86] Creating Layer inception_4d/5x5_reduce
I0426 17:06:19.495931  2338 net.cpp:408] inception_4d/5x5_reduce <- inception_4c/output_inception_4c/output_0_split_2
I0426 17:06:19.495939  2338 net.cpp:382] inception_4d/5x5_reduce -> inception_4d/5x5_reduce
I0426 17:06:19.496287  2338 net.cpp:124] Setting up inception_4d/5x5_reduce
I0426 17:06:19.496297  2338 net.cpp:131] Top shape: 50 32 14 14 (313600)
I0426 17:06:19.496300  2338 net.cpp:139] Memory required for data: 2358836804
I0426 17:06:19.496307  2338 layer_factory.hpp:77] Creating layer inception_4d/relu_5x5_reduce
I0426 17:06:19.496315  2338 net.cpp:86] Creating Layer inception_4d/relu_5x5_reduce
I0426 17:06:19.496320  2338 net.cpp:408] inception_4d/relu_5x5_reduce <- inception_4d/5x5_reduce
I0426 17:06:19.496325  2338 net.cpp:369] inception_4d/relu_5x5_reduce -> inception_4d/5x5_reduce (in-place)
I0426 17:06:19.496331  2338 net.cpp:124] Setting up inception_4d/relu_5x5_reduce
I0426 17:06:19.496337  2338 net.cpp:131] Top shape: 50 32 14 14 (313600)
I0426 17:06:19.496341  2338 net.cpp:139] Memory required for data: 2360091204
I0426 17:06:19.496345  2338 layer_factory.hpp:77] Creating layer inception_4d/5x5
I0426 17:06:19.496353  2338 net.cpp:86] Creating Layer inception_4d/5x5
I0426 17:06:19.496357  2338 net.cpp:408] inception_4d/5x5 <- inception_4d/5x5_reduce
I0426 17:06:19.496364  2338 net.cpp:382] inception_4d/5x5 -> inception_4d/5x5
I0426 17:06:19.496924  2338 net.cpp:124] Setting up inception_4d/5x5
I0426 17:06:19.496933  2338 net.cpp:131] Top shape: 50 64 14 14 (627200)
I0426 17:06:19.496937  2338 net.cpp:139] Memory required for data: 2362600004
I0426 17:06:19.496944  2338 layer_factory.hpp:77] Creating layer inception_4d/relu_5x5
I0426 17:06:19.496950  2338 net.cpp:86] Creating Layer inception_4d/relu_5x5
I0426 17:06:19.496974  2338 net.cpp:408] inception_4d/relu_5x5 <- inception_4d/5x5
I0426 17:06:19.496984  2338 net.cpp:369] inception_4d/relu_5x5 -> inception_4d/5x5 (in-place)
I0426 17:06:19.496990  2338 net.cpp:124] Setting up inception_4d/relu_5x5
I0426 17:06:19.496995  2338 net.cpp:131] Top shape: 50 64 14 14 (627200)
I0426 17:06:19.496999  2338 net.cpp:139] Memory required for data: 2365108804
I0426 17:06:19.497004  2338 layer_factory.hpp:77] Creating layer inception_4d/pool
I0426 17:06:19.497010  2338 net.cpp:86] Creating Layer inception_4d/pool
I0426 17:06:19.497014  2338 net.cpp:408] inception_4d/pool <- inception_4c/output_inception_4c/output_0_split_3
I0426 17:06:19.497020  2338 net.cpp:382] inception_4d/pool -> inception_4d/pool
I0426 17:06:19.497061  2338 net.cpp:124] Setting up inception_4d/pool
I0426 17:06:19.497068  2338 net.cpp:131] Top shape: 50 512 14 14 (5017600)
I0426 17:06:19.497071  2338 net.cpp:139] Memory required for data: 2385179204
I0426 17:06:19.497076  2338 layer_factory.hpp:77] Creating layer inception_4d/pool_proj
I0426 17:06:19.497086  2338 net.cpp:86] Creating Layer inception_4d/pool_proj
I0426 17:06:19.497089  2338 net.cpp:408] inception_4d/pool_proj <- inception_4d/pool
I0426 17:06:19.497097  2338 net.cpp:382] inception_4d/pool_proj -> inception_4d/pool_proj
I0426 17:06:19.497539  2338 net.cpp:124] Setting up inception_4d/pool_proj
I0426 17:06:19.497550  2338 net.cpp:131] Top shape: 50 64 14 14 (627200)
I0426 17:06:19.497555  2338 net.cpp:139] Memory required for data: 2387688004
I0426 17:06:19.497560  2338 layer_factory.hpp:77] Creating layer inception_4d/relu_pool_proj
I0426 17:06:19.497567  2338 net.cpp:86] Creating Layer inception_4d/relu_pool_proj
I0426 17:06:19.497573  2338 net.cpp:408] inception_4d/relu_pool_proj <- inception_4d/pool_proj
I0426 17:06:19.497581  2338 net.cpp:369] inception_4d/relu_pool_proj -> inception_4d/pool_proj (in-place)
I0426 17:06:19.497587  2338 net.cpp:124] Setting up inception_4d/relu_pool_proj
I0426 17:06:19.497592  2338 net.cpp:131] Top shape: 50 64 14 14 (627200)
I0426 17:06:19.497597  2338 net.cpp:139] Memory required for data: 2390196804
I0426 17:06:19.497601  2338 layer_factory.hpp:77] Creating layer inception_4d/output
I0426 17:06:19.497606  2338 net.cpp:86] Creating Layer inception_4d/output
I0426 17:06:19.497611  2338 net.cpp:408] inception_4d/output <- inception_4d/1x1
I0426 17:06:19.497617  2338 net.cpp:408] inception_4d/output <- inception_4d/3x3
I0426 17:06:19.497622  2338 net.cpp:408] inception_4d/output <- inception_4d/5x5
I0426 17:06:19.497625  2338 net.cpp:408] inception_4d/output <- inception_4d/pool_proj
I0426 17:06:19.497632  2338 net.cpp:382] inception_4d/output -> inception_4d/output
I0426 17:06:19.497658  2338 net.cpp:124] Setting up inception_4d/output
I0426 17:06:19.497663  2338 net.cpp:131] Top shape: 50 528 14 14 (5174400)
I0426 17:06:19.497668  2338 net.cpp:139] Memory required for data: 2410894404
I0426 17:06:19.497670  2338 layer_factory.hpp:77] Creating layer inception_4d/output_inception_4d/output_0_split
I0426 17:06:19.497680  2338 net.cpp:86] Creating Layer inception_4d/output_inception_4d/output_0_split
I0426 17:06:19.497685  2338 net.cpp:408] inception_4d/output_inception_4d/output_0_split <- inception_4d/output
I0426 17:06:19.497691  2338 net.cpp:382] inception_4d/output_inception_4d/output_0_split -> inception_4d/output_inception_4d/output_0_split_0
I0426 17:06:19.497700  2338 net.cpp:382] inception_4d/output_inception_4d/output_0_split -> inception_4d/output_inception_4d/output_0_split_1
I0426 17:06:19.497709  2338 net.cpp:382] inception_4d/output_inception_4d/output_0_split -> inception_4d/output_inception_4d/output_0_split_2
I0426 17:06:19.497716  2338 net.cpp:382] inception_4d/output_inception_4d/output_0_split -> inception_4d/output_inception_4d/output_0_split_3
I0426 17:06:19.497722  2338 net.cpp:382] inception_4d/output_inception_4d/output_0_split -> inception_4d/output_inception_4d/output_0_split_4
I0426 17:06:19.497795  2338 net.cpp:124] Setting up inception_4d/output_inception_4d/output_0_split
I0426 17:06:19.497807  2338 net.cpp:131] Top shape: 50 528 14 14 (5174400)
I0426 17:06:19.497817  2338 net.cpp:131] Top shape: 50 528 14 14 (5174400)
I0426 17:06:19.497822  2338 net.cpp:131] Top shape: 50 528 14 14 (5174400)
I0426 17:06:19.497828  2338 net.cpp:131] Top shape: 50 528 14 14 (5174400)
I0426 17:06:19.497833  2338 net.cpp:131] Top shape: 50 528 14 14 (5174400)
I0426 17:06:19.497836  2338 net.cpp:139] Memory required for data: 2514382404
I0426 17:06:19.497840  2338 layer_factory.hpp:77] Creating layer loss2/ave_pool
I0426 17:06:19.497846  2338 net.cpp:86] Creating Layer loss2/ave_pool
I0426 17:06:19.497851  2338 net.cpp:408] loss2/ave_pool <- inception_4d/output_inception_4d/output_0_split_0
I0426 17:06:19.497859  2338 net.cpp:382] loss2/ave_pool -> loss2/ave_pool
I0426 17:06:19.497884  2338 net.cpp:124] Setting up loss2/ave_pool
I0426 17:06:19.497891  2338 net.cpp:131] Top shape: 50 528 4 4 (422400)
I0426 17:06:19.497895  2338 net.cpp:139] Memory required for data: 2516072004
I0426 17:06:19.497900  2338 layer_factory.hpp:77] Creating layer loss2/conv
I0426 17:06:19.497910  2338 net.cpp:86] Creating Layer loss2/conv
I0426 17:06:19.497915  2338 net.cpp:408] loss2/conv <- loss2/ave_pool
I0426 17:06:19.497922  2338 net.cpp:382] loss2/conv -> loss2/conv
I0426 17:06:19.498605  2338 net.cpp:124] Setting up loss2/conv
I0426 17:06:19.498616  2338 net.cpp:131] Top shape: 50 128 4 4 (102400)
I0426 17:06:19.498620  2338 net.cpp:139] Memory required for data: 2516481604
I0426 17:06:19.498627  2338 layer_factory.hpp:77] Creating layer loss2/relu_conv
I0426 17:06:19.498636  2338 net.cpp:86] Creating Layer loss2/relu_conv
I0426 17:06:19.498647  2338 net.cpp:408] loss2/relu_conv <- loss2/conv
I0426 17:06:19.498653  2338 net.cpp:369] loss2/relu_conv -> loss2/conv (in-place)
I0426 17:06:19.498661  2338 net.cpp:124] Setting up loss2/relu_conv
I0426 17:06:19.498667  2338 net.cpp:131] Top shape: 50 128 4 4 (102400)
I0426 17:06:19.498670  2338 net.cpp:139] Memory required for data: 2516891204
I0426 17:06:19.498673  2338 layer_factory.hpp:77] Creating layer loss2/fc
I0426 17:06:19.498683  2338 net.cpp:86] Creating Layer loss2/fc
I0426 17:06:19.498688  2338 net.cpp:408] loss2/fc <- loss2/conv
I0426 17:06:19.498694  2338 net.cpp:382] loss2/fc -> loss2/fc
I0426 17:06:19.514444  2338 net.cpp:124] Setting up loss2/fc
I0426 17:06:19.514472  2338 net.cpp:131] Top shape: 50 1024 (51200)
I0426 17:06:19.514475  2338 net.cpp:139] Memory required for data: 2517096004
I0426 17:06:19.514485  2338 layer_factory.hpp:77] Creating layer loss2/relu_fc
I0426 17:06:19.514493  2338 net.cpp:86] Creating Layer loss2/relu_fc
I0426 17:06:19.514502  2338 net.cpp:408] loss2/relu_fc <- loss2/fc
I0426 17:06:19.514516  2338 net.cpp:369] loss2/relu_fc -> loss2/fc (in-place)
I0426 17:06:19.514526  2338 net.cpp:124] Setting up loss2/relu_fc
I0426 17:06:19.514540  2338 net.cpp:131] Top shape: 50 1024 (51200)
I0426 17:06:19.514544  2338 net.cpp:139] Memory required for data: 2517300804
I0426 17:06:19.514547  2338 layer_factory.hpp:77] Creating layer loss2/drop_fc
I0426 17:06:19.514554  2338 net.cpp:86] Creating Layer loss2/drop_fc
I0426 17:06:19.514559  2338 net.cpp:408] loss2/drop_fc <- loss2/fc
I0426 17:06:19.514564  2338 net.cpp:369] loss2/drop_fc -> loss2/fc (in-place)
I0426 17:06:19.514595  2338 net.cpp:124] Setting up loss2/drop_fc
I0426 17:06:19.514601  2338 net.cpp:131] Top shape: 50 1024 (51200)
I0426 17:06:19.514605  2338 net.cpp:139] Memory required for data: 2517505604
I0426 17:06:19.514608  2338 layer_factory.hpp:77] Creating layer loss2/classifier-bird
I0426 17:06:19.514617  2338 net.cpp:86] Creating Layer loss2/classifier-bird
I0426 17:06:19.514622  2338 net.cpp:408] loss2/classifier-bird <- loss2/fc
I0426 17:06:19.514629  2338 net.cpp:382] loss2/classifier-bird -> loss2/classifier
I0426 17:06:19.514760  2338 net.cpp:124] Setting up loss2/classifier-bird
I0426 17:06:19.514768  2338 net.cpp:131] Top shape: 50 4 (200)
I0426 17:06:19.514771  2338 net.cpp:139] Memory required for data: 2517506404
I0426 17:06:19.514778  2338 layer_factory.hpp:77] Creating layer loss2/loss
I0426 17:06:19.514798  2338 net.cpp:86] Creating Layer loss2/loss
I0426 17:06:19.514803  2338 net.cpp:408] loss2/loss <- loss2/classifier
I0426 17:06:19.514809  2338 net.cpp:408] loss2/loss <- label_data_1_split_1
I0426 17:06:19.514817  2338 net.cpp:382] loss2/loss -> loss2/loss1
I0426 17:06:19.514827  2338 layer_factory.hpp:77] Creating layer loss2/loss
I0426 17:06:19.514935  2338 net.cpp:124] Setting up loss2/loss
I0426 17:06:19.514942  2338 net.cpp:131] Top shape: (1)
I0426 17:06:19.514946  2338 net.cpp:134]     with loss weight 0.3
I0426 17:06:19.514961  2338 net.cpp:139] Memory required for data: 2517506408
I0426 17:06:19.514964  2338 layer_factory.hpp:77] Creating layer inception_4e/1x1
I0426 17:06:19.514976  2338 net.cpp:86] Creating Layer inception_4e/1x1
I0426 17:06:19.514981  2338 net.cpp:408] inception_4e/1x1 <- inception_4d/output_inception_4d/output_0_split_1
I0426 17:06:19.514988  2338 net.cpp:382] inception_4e/1x1 -> inception_4e/1x1
I0426 17:06:19.516067  2338 net.cpp:124] Setting up inception_4e/1x1
I0426 17:06:19.516077  2338 net.cpp:131] Top shape: 50 256 14 14 (2508800)
I0426 17:06:19.516080  2338 net.cpp:139] Memory required for data: 2527541608
I0426 17:06:19.516086  2338 layer_factory.hpp:77] Creating layer inception_4e/relu_1x1
I0426 17:06:19.516093  2338 net.cpp:86] Creating Layer inception_4e/relu_1x1
I0426 17:06:19.516098  2338 net.cpp:408] inception_4e/relu_1x1 <- inception_4e/1x1
I0426 17:06:19.516104  2338 net.cpp:369] inception_4e/relu_1x1 -> inception_4e/1x1 (in-place)
I0426 17:06:19.516113  2338 net.cpp:124] Setting up inception_4e/relu_1x1
I0426 17:06:19.516116  2338 net.cpp:131] Top shape: 50 256 14 14 (2508800)
I0426 17:06:19.516120  2338 net.cpp:139] Memory required for data: 2537576808
I0426 17:06:19.516124  2338 layer_factory.hpp:77] Creating layer inception_4e/3x3_reduce
I0426 17:06:19.516134  2338 net.cpp:86] Creating Layer inception_4e/3x3_reduce
I0426 17:06:19.516139  2338 net.cpp:408] inception_4e/3x3_reduce <- inception_4d/output_inception_4d/output_0_split_2
I0426 17:06:19.516144  2338 net.cpp:382] inception_4e/3x3_reduce -> inception_4e/3x3_reduce
I0426 17:06:19.516891  2338 net.cpp:124] Setting up inception_4e/3x3_reduce
I0426 17:06:19.516901  2338 net.cpp:131] Top shape: 50 160 14 14 (1568000)
I0426 17:06:19.516904  2338 net.cpp:139] Memory required for data: 2543848808
I0426 17:06:19.516911  2338 layer_factory.hpp:77] Creating layer inception_4e/relu_3x3_reduce
I0426 17:06:19.516916  2338 net.cpp:86] Creating Layer inception_4e/relu_3x3_reduce
I0426 17:06:19.516921  2338 net.cpp:408] inception_4e/relu_3x3_reduce <- inception_4e/3x3_reduce
I0426 17:06:19.516928  2338 net.cpp:369] inception_4e/relu_3x3_reduce -> inception_4e/3x3_reduce (in-place)
I0426 17:06:19.516934  2338 net.cpp:124] Setting up inception_4e/relu_3x3_reduce
I0426 17:06:19.516939  2338 net.cpp:131] Top shape: 50 160 14 14 (1568000)
I0426 17:06:19.516943  2338 net.cpp:139] Memory required for data: 2550120808
I0426 17:06:19.516947  2338 layer_factory.hpp:77] Creating layer inception_4e/3x3
I0426 17:06:19.516955  2338 net.cpp:86] Creating Layer inception_4e/3x3
I0426 17:06:19.516959  2338 net.cpp:408] inception_4e/3x3 <- inception_4e/3x3_reduce
I0426 17:06:19.516968  2338 net.cpp:382] inception_4e/3x3 -> inception_4e/3x3
I0426 17:06:19.520804  2338 net.cpp:124] Setting up inception_4e/3x3
I0426 17:06:19.520820  2338 net.cpp:131] Top shape: 50 320 14 14 (3136000)
I0426 17:06:19.520824  2338 net.cpp:139] Memory required for data: 2562664808
I0426 17:06:19.520833  2338 layer_factory.hpp:77] Creating layer inception_4e/relu_3x3
I0426 17:06:19.520839  2338 net.cpp:86] Creating Layer inception_4e/relu_3x3
I0426 17:06:19.520844  2338 net.cpp:408] inception_4e/relu_3x3 <- inception_4e/3x3
I0426 17:06:19.520851  2338 net.cpp:369] inception_4e/relu_3x3 -> inception_4e/3x3 (in-place)
I0426 17:06:19.520859  2338 net.cpp:124] Setting up inception_4e/relu_3x3
I0426 17:06:19.520865  2338 net.cpp:131] Top shape: 50 320 14 14 (3136000)
I0426 17:06:19.520869  2338 net.cpp:139] Memory required for data: 2575208808
I0426 17:06:19.520876  2338 layer_factory.hpp:77] Creating layer inception_4e/5x5_reduce
I0426 17:06:19.520895  2338 net.cpp:86] Creating Layer inception_4e/5x5_reduce
I0426 17:06:19.520900  2338 net.cpp:408] inception_4e/5x5_reduce <- inception_4d/output_inception_4d/output_0_split_3
I0426 17:06:19.520906  2338 net.cpp:382] inception_4e/5x5_reduce -> inception_4e/5x5_reduce
I0426 17:06:19.521251  2338 net.cpp:124] Setting up inception_4e/5x5_reduce
I0426 17:06:19.521260  2338 net.cpp:131] Top shape: 50 32 14 14 (313600)
I0426 17:06:19.521265  2338 net.cpp:139] Memory required for data: 2576463208
I0426 17:06:19.521270  2338 layer_factory.hpp:77] Creating layer inception_4e/relu_5x5_reduce
I0426 17:06:19.521276  2338 net.cpp:86] Creating Layer inception_4e/relu_5x5_reduce
I0426 17:06:19.521283  2338 net.cpp:408] inception_4e/relu_5x5_reduce <- inception_4e/5x5_reduce
I0426 17:06:19.521288  2338 net.cpp:369] inception_4e/relu_5x5_reduce -> inception_4e/5x5_reduce (in-place)
I0426 17:06:19.521294  2338 net.cpp:124] Setting up inception_4e/relu_5x5_reduce
I0426 17:06:19.521299  2338 net.cpp:131] Top shape: 50 32 14 14 (313600)
I0426 17:06:19.521303  2338 net.cpp:139] Memory required for data: 2577717608
I0426 17:06:19.521306  2338 layer_factory.hpp:77] Creating layer inception_4e/5x5
I0426 17:06:19.521345  2338 net.cpp:86] Creating Layer inception_4e/5x5
I0426 17:06:19.521350  2338 net.cpp:408] inception_4e/5x5 <- inception_4e/5x5_reduce
I0426 17:06:19.521358  2338 net.cpp:382] inception_4e/5x5 -> inception_4e/5x5
I0426 17:06:19.522218  2338 net.cpp:124] Setting up inception_4e/5x5
I0426 17:06:19.522228  2338 net.cpp:131] Top shape: 50 128 14 14 (1254400)
I0426 17:06:19.522230  2338 net.cpp:139] Memory required for data: 2582735208
I0426 17:06:19.522238  2338 layer_factory.hpp:77] Creating layer inception_4e/relu_5x5
I0426 17:06:19.522243  2338 net.cpp:86] Creating Layer inception_4e/relu_5x5
I0426 17:06:19.522248  2338 net.cpp:408] inception_4e/relu_5x5 <- inception_4e/5x5
I0426 17:06:19.522254  2338 net.cpp:369] inception_4e/relu_5x5 -> inception_4e/5x5 (in-place)
I0426 17:06:19.522261  2338 net.cpp:124] Setting up inception_4e/relu_5x5
I0426 17:06:19.522266  2338 net.cpp:131] Top shape: 50 128 14 14 (1254400)
I0426 17:06:19.522269  2338 net.cpp:139] Memory required for data: 2587752808
I0426 17:06:19.522274  2338 layer_factory.hpp:77] Creating layer inception_4e/pool
I0426 17:06:19.522280  2338 net.cpp:86] Creating Layer inception_4e/pool
I0426 17:06:19.522284  2338 net.cpp:408] inception_4e/pool <- inception_4d/output_inception_4d/output_0_split_4
I0426 17:06:19.522291  2338 net.cpp:382] inception_4e/pool -> inception_4e/pool
I0426 17:06:19.522327  2338 net.cpp:124] Setting up inception_4e/pool
I0426 17:06:19.522336  2338 net.cpp:131] Top shape: 50 528 14 14 (5174400)
I0426 17:06:19.522338  2338 net.cpp:139] Memory required for data: 2608450408
I0426 17:06:19.522341  2338 layer_factory.hpp:77] Creating layer inception_4e/pool_proj
I0426 17:06:19.522351  2338 net.cpp:86] Creating Layer inception_4e/pool_proj
I0426 17:06:19.522357  2338 net.cpp:408] inception_4e/pool_proj <- inception_4e/pool
I0426 17:06:19.522363  2338 net.cpp:382] inception_4e/pool_proj -> inception_4e/pool_proj
I0426 17:06:19.523022  2338 net.cpp:124] Setting up inception_4e/pool_proj
I0426 17:06:19.523032  2338 net.cpp:131] Top shape: 50 128 14 14 (1254400)
I0426 17:06:19.523036  2338 net.cpp:139] Memory required for data: 2613468008
I0426 17:06:19.523042  2338 layer_factory.hpp:77] Creating layer inception_4e/relu_pool_proj
I0426 17:06:19.523049  2338 net.cpp:86] Creating Layer inception_4e/relu_pool_proj
I0426 17:06:19.523054  2338 net.cpp:408] inception_4e/relu_pool_proj <- inception_4e/pool_proj
I0426 17:06:19.523062  2338 net.cpp:369] inception_4e/relu_pool_proj -> inception_4e/pool_proj (in-place)
I0426 17:06:19.523068  2338 net.cpp:124] Setting up inception_4e/relu_pool_proj
I0426 17:06:19.523073  2338 net.cpp:131] Top shape: 50 128 14 14 (1254400)
I0426 17:06:19.523077  2338 net.cpp:139] Memory required for data: 2618485608
I0426 17:06:19.523094  2338 layer_factory.hpp:77] Creating layer inception_4e/output
I0426 17:06:19.523108  2338 net.cpp:86] Creating Layer inception_4e/output
I0426 17:06:19.523111  2338 net.cpp:408] inception_4e/output <- inception_4e/1x1
I0426 17:06:19.523116  2338 net.cpp:408] inception_4e/output <- inception_4e/3x3
I0426 17:06:19.523121  2338 net.cpp:408] inception_4e/output <- inception_4e/5x5
I0426 17:06:19.523125  2338 net.cpp:408] inception_4e/output <- inception_4e/pool_proj
I0426 17:06:19.523130  2338 net.cpp:382] inception_4e/output -> inception_4e/output
I0426 17:06:19.523157  2338 net.cpp:124] Setting up inception_4e/output
I0426 17:06:19.523164  2338 net.cpp:131] Top shape: 50 832 14 14 (8153600)
I0426 17:06:19.523169  2338 net.cpp:139] Memory required for data: 2651100008
I0426 17:06:19.523171  2338 layer_factory.hpp:77] Creating layer pool4/3x3_s2
I0426 17:06:19.523177  2338 net.cpp:86] Creating Layer pool4/3x3_s2
I0426 17:06:19.523182  2338 net.cpp:408] pool4/3x3_s2 <- inception_4e/output
I0426 17:06:19.523190  2338 net.cpp:382] pool4/3x3_s2 -> pool4/3x3_s2
I0426 17:06:19.523223  2338 net.cpp:124] Setting up pool4/3x3_s2
I0426 17:06:19.523231  2338 net.cpp:131] Top shape: 50 832 7 7 (2038400)
I0426 17:06:19.523236  2338 net.cpp:139] Memory required for data: 2659253608
I0426 17:06:19.523238  2338 layer_factory.hpp:77] Creating layer pool4/3x3_s2_pool4/3x3_s2_0_split
I0426 17:06:19.523246  2338 net.cpp:86] Creating Layer pool4/3x3_s2_pool4/3x3_s2_0_split
I0426 17:06:19.523249  2338 net.cpp:408] pool4/3x3_s2_pool4/3x3_s2_0_split <- pool4/3x3_s2
I0426 17:06:19.523257  2338 net.cpp:382] pool4/3x3_s2_pool4/3x3_s2_0_split -> pool4/3x3_s2_pool4/3x3_s2_0_split_0
I0426 17:06:19.523263  2338 net.cpp:382] pool4/3x3_s2_pool4/3x3_s2_0_split -> pool4/3x3_s2_pool4/3x3_s2_0_split_1
I0426 17:06:19.523270  2338 net.cpp:382] pool4/3x3_s2_pool4/3x3_s2_0_split -> pool4/3x3_s2_pool4/3x3_s2_0_split_2
I0426 17:06:19.523277  2338 net.cpp:382] pool4/3x3_s2_pool4/3x3_s2_0_split -> pool4/3x3_s2_pool4/3x3_s2_0_split_3
I0426 17:06:19.523331  2338 net.cpp:124] Setting up pool4/3x3_s2_pool4/3x3_s2_0_split
I0426 17:06:19.523337  2338 net.cpp:131] Top shape: 50 832 7 7 (2038400)
I0426 17:06:19.523342  2338 net.cpp:131] Top shape: 50 832 7 7 (2038400)
I0426 17:06:19.523346  2338 net.cpp:131] Top shape: 50 832 7 7 (2038400)
I0426 17:06:19.523351  2338 net.cpp:131] Top shape: 50 832 7 7 (2038400)
I0426 17:06:19.523355  2338 net.cpp:139] Memory required for data: 2691868008
I0426 17:06:19.523357  2338 layer_factory.hpp:77] Creating layer inception_5a/1x1
I0426 17:06:19.523376  2338 net.cpp:86] Creating Layer inception_5a/1x1
I0426 17:06:19.523382  2338 net.cpp:408] inception_5a/1x1 <- pool4/3x3_s2_pool4/3x3_s2_0_split_0
I0426 17:06:19.523388  2338 net.cpp:382] inception_5a/1x1 -> inception_5a/1x1
I0426 17:06:19.525676  2338 net.cpp:124] Setting up inception_5a/1x1
I0426 17:06:19.525689  2338 net.cpp:131] Top shape: 50 256 7 7 (627200)
I0426 17:06:19.525694  2338 net.cpp:139] Memory required for data: 2694376808
I0426 17:06:19.525701  2338 layer_factory.hpp:77] Creating layer inception_5a/relu_1x1
I0426 17:06:19.525708  2338 net.cpp:86] Creating Layer inception_5a/relu_1x1
I0426 17:06:19.525712  2338 net.cpp:408] inception_5a/relu_1x1 <- inception_5a/1x1
I0426 17:06:19.525720  2338 net.cpp:369] inception_5a/relu_1x1 -> inception_5a/1x1 (in-place)
I0426 17:06:19.525728  2338 net.cpp:124] Setting up inception_5a/relu_1x1
I0426 17:06:19.525733  2338 net.cpp:131] Top shape: 50 256 7 7 (627200)
I0426 17:06:19.525737  2338 net.cpp:139] Memory required for data: 2696885608
I0426 17:06:19.525741  2338 layer_factory.hpp:77] Creating layer inception_5a/3x3_reduce
I0426 17:06:19.525750  2338 net.cpp:86] Creating Layer inception_5a/3x3_reduce
I0426 17:06:19.525755  2338 net.cpp:408] inception_5a/3x3_reduce <- pool4/3x3_s2_pool4/3x3_s2_0_split_1
I0426 17:06:19.525763  2338 net.cpp:382] inception_5a/3x3_reduce -> inception_5a/3x3_reduce
I0426 17:06:19.526798  2338 net.cpp:124] Setting up inception_5a/3x3_reduce
I0426 17:06:19.526808  2338 net.cpp:131] Top shape: 50 160 7 7 (392000)
I0426 17:06:19.526821  2338 net.cpp:139] Memory required for data: 2698453608
I0426 17:06:19.526828  2338 layer_factory.hpp:77] Creating layer inception_5a/relu_3x3_reduce
I0426 17:06:19.526835  2338 net.cpp:86] Creating Layer inception_5a/relu_3x3_reduce
I0426 17:06:19.526850  2338 net.cpp:408] inception_5a/relu_3x3_reduce <- inception_5a/3x3_reduce
I0426 17:06:19.526855  2338 net.cpp:369] inception_5a/relu_3x3_reduce -> inception_5a/3x3_reduce (in-place)
I0426 17:06:19.526861  2338 net.cpp:124] Setting up inception_5a/relu_3x3_reduce
I0426 17:06:19.526867  2338 net.cpp:131] Top shape: 50 160 7 7 (392000)
I0426 17:06:19.526870  2338 net.cpp:139] Memory required for data: 2700021608
I0426 17:06:19.526873  2338 layer_factory.hpp:77] Creating layer inception_5a/3x3
I0426 17:06:19.526883  2338 net.cpp:86] Creating Layer inception_5a/3x3
I0426 17:06:19.526888  2338 net.cpp:408] inception_5a/3x3 <- inception_5a/3x3_reduce
I0426 17:06:19.526895  2338 net.cpp:382] inception_5a/3x3 -> inception_5a/3x3
I0426 17:06:19.530535  2338 net.cpp:124] Setting up inception_5a/3x3
I0426 17:06:19.530550  2338 net.cpp:131] Top shape: 50 320 7 7 (784000)
I0426 17:06:19.530555  2338 net.cpp:139] Memory required for data: 2703157608
I0426 17:06:19.530561  2338 layer_factory.hpp:77] Creating layer inception_5a/relu_3x3
I0426 17:06:19.530568  2338 net.cpp:86] Creating Layer inception_5a/relu_3x3
I0426 17:06:19.530573  2338 net.cpp:408] inception_5a/relu_3x3 <- inception_5a/3x3
I0426 17:06:19.530588  2338 net.cpp:369] inception_5a/relu_3x3 -> inception_5a/3x3 (in-place)
I0426 17:06:19.530596  2338 net.cpp:124] Setting up inception_5a/relu_3x3
I0426 17:06:19.530601  2338 net.cpp:131] Top shape: 50 320 7 7 (784000)
I0426 17:06:19.530606  2338 net.cpp:139] Memory required for data: 2706293608
I0426 17:06:19.530608  2338 layer_factory.hpp:77] Creating layer inception_5a/5x5_reduce
I0426 17:06:19.530618  2338 net.cpp:86] Creating Layer inception_5a/5x5_reduce
I0426 17:06:19.530623  2338 net.cpp:408] inception_5a/5x5_reduce <- pool4/3x3_s2_pool4/3x3_s2_0_split_2
I0426 17:06:19.530629  2338 net.cpp:382] inception_5a/5x5_reduce -> inception_5a/5x5_reduce
I0426 17:06:19.531015  2338 net.cpp:124] Setting up inception_5a/5x5_reduce
I0426 17:06:19.531024  2338 net.cpp:131] Top shape: 50 32 7 7 (78400)
I0426 17:06:19.531028  2338 net.cpp:139] Memory required for data: 2706607208
I0426 17:06:19.531033  2338 layer_factory.hpp:77] Creating layer inception_5a/relu_5x5_reduce
I0426 17:06:19.531040  2338 net.cpp:86] Creating Layer inception_5a/relu_5x5_reduce
I0426 17:06:19.531045  2338 net.cpp:408] inception_5a/relu_5x5_reduce <- inception_5a/5x5_reduce
I0426 17:06:19.531051  2338 net.cpp:369] inception_5a/relu_5x5_reduce -> inception_5a/5x5_reduce (in-place)
I0426 17:06:19.531057  2338 net.cpp:124] Setting up inception_5a/relu_5x5_reduce
I0426 17:06:19.531064  2338 net.cpp:131] Top shape: 50 32 7 7 (78400)
I0426 17:06:19.531066  2338 net.cpp:139] Memory required for data: 2706920808
I0426 17:06:19.531069  2338 layer_factory.hpp:77] Creating layer inception_5a/5x5
I0426 17:06:19.531077  2338 net.cpp:86] Creating Layer inception_5a/5x5
I0426 17:06:19.531082  2338 net.cpp:408] inception_5a/5x5 <- inception_5a/5x5_reduce
I0426 17:06:19.531088  2338 net.cpp:382] inception_5a/5x5 -> inception_5a/5x5
I0426 17:06:19.531891  2338 net.cpp:124] Setting up inception_5a/5x5
I0426 17:06:19.531899  2338 net.cpp:131] Top shape: 50 128 7 7 (313600)
I0426 17:06:19.531903  2338 net.cpp:139] Memory required for data: 2708175208
I0426 17:06:19.531909  2338 layer_factory.hpp:77] Creating layer inception_5a/relu_5x5
I0426 17:06:19.531922  2338 net.cpp:86] Creating Layer inception_5a/relu_5x5
I0426 17:06:19.531927  2338 net.cpp:408] inception_5a/relu_5x5 <- inception_5a/5x5
I0426 17:06:19.531934  2338 net.cpp:369] inception_5a/relu_5x5 -> inception_5a/5x5 (in-place)
I0426 17:06:19.531940  2338 net.cpp:124] Setting up inception_5a/relu_5x5
I0426 17:06:19.531945  2338 net.cpp:131] Top shape: 50 128 7 7 (313600)
I0426 17:06:19.531949  2338 net.cpp:139] Memory required for data: 2709429608
I0426 17:06:19.531962  2338 layer_factory.hpp:77] Creating layer inception_5a/pool
I0426 17:06:19.531968  2338 net.cpp:86] Creating Layer inception_5a/pool
I0426 17:06:19.531972  2338 net.cpp:408] inception_5a/pool <- pool4/3x3_s2_pool4/3x3_s2_0_split_3
I0426 17:06:19.531978  2338 net.cpp:382] inception_5a/pool -> inception_5a/pool
I0426 17:06:19.532017  2338 net.cpp:124] Setting up inception_5a/pool
I0426 17:06:19.532024  2338 net.cpp:131] Top shape: 50 832 7 7 (2038400)
I0426 17:06:19.532027  2338 net.cpp:139] Memory required for data: 2717583208
I0426 17:06:19.532030  2338 layer_factory.hpp:77] Creating layer inception_5a/pool_proj
I0426 17:06:19.532040  2338 net.cpp:86] Creating Layer inception_5a/pool_proj
I0426 17:06:19.532044  2338 net.cpp:408] inception_5a/pool_proj <- inception_5a/pool
I0426 17:06:19.532052  2338 net.cpp:382] inception_5a/pool_proj -> inception_5a/pool_proj
I0426 17:06:19.533625  2338 net.cpp:124] Setting up inception_5a/pool_proj
I0426 17:06:19.533640  2338 net.cpp:131] Top shape: 50 128 7 7 (313600)
I0426 17:06:19.533643  2338 net.cpp:139] Memory required for data: 2718837608
I0426 17:06:19.533653  2338 layer_factory.hpp:77] Creating layer inception_5a/relu_pool_proj
I0426 17:06:19.533665  2338 net.cpp:86] Creating Layer inception_5a/relu_pool_proj
I0426 17:06:19.533671  2338 net.cpp:408] inception_5a/relu_pool_proj <- inception_5a/pool_proj
I0426 17:06:19.533679  2338 net.cpp:369] inception_5a/relu_pool_proj -> inception_5a/pool_proj (in-place)
I0426 17:06:19.533686  2338 net.cpp:124] Setting up inception_5a/relu_pool_proj
I0426 17:06:19.533691  2338 net.cpp:131] Top shape: 50 128 7 7 (313600)
I0426 17:06:19.533695  2338 net.cpp:139] Memory required for data: 2720092008
I0426 17:06:19.533699  2338 layer_factory.hpp:77] Creating layer inception_5a/output
I0426 17:06:19.533704  2338 net.cpp:86] Creating Layer inception_5a/output
I0426 17:06:19.533709  2338 net.cpp:408] inception_5a/output <- inception_5a/1x1
I0426 17:06:19.533713  2338 net.cpp:408] inception_5a/output <- inception_5a/3x3
I0426 17:06:19.533717  2338 net.cpp:408] inception_5a/output <- inception_5a/5x5
I0426 17:06:19.533721  2338 net.cpp:408] inception_5a/output <- inception_5a/pool_proj
I0426 17:06:19.533727  2338 net.cpp:382] inception_5a/output -> inception_5a/output
I0426 17:06:19.533754  2338 net.cpp:124] Setting up inception_5a/output
I0426 17:06:19.533761  2338 net.cpp:131] Top shape: 50 832 7 7 (2038400)
I0426 17:06:19.533764  2338 net.cpp:139] Memory required for data: 2728245608
I0426 17:06:19.533767  2338 layer_factory.hpp:77] Creating layer inception_5a/output_inception_5a/output_0_split
I0426 17:06:19.533776  2338 net.cpp:86] Creating Layer inception_5a/output_inception_5a/output_0_split
I0426 17:06:19.533781  2338 net.cpp:408] inception_5a/output_inception_5a/output_0_split <- inception_5a/output
I0426 17:06:19.533787  2338 net.cpp:382] inception_5a/output_inception_5a/output_0_split -> inception_5a/output_inception_5a/output_0_split_0
I0426 17:06:19.533793  2338 net.cpp:382] inception_5a/output_inception_5a/output_0_split -> inception_5a/output_inception_5a/output_0_split_1
I0426 17:06:19.533802  2338 net.cpp:382] inception_5a/output_inception_5a/output_0_split -> inception_5a/output_inception_5a/output_0_split_2
I0426 17:06:19.533809  2338 net.cpp:382] inception_5a/output_inception_5a/output_0_split -> inception_5a/output_inception_5a/output_0_split_3
I0426 17:06:19.533874  2338 net.cpp:124] Setting up inception_5a/output_inception_5a/output_0_split
I0426 17:06:19.533881  2338 net.cpp:131] Top shape: 50 832 7 7 (2038400)
I0426 17:06:19.533886  2338 net.cpp:131] Top shape: 50 832 7 7 (2038400)
I0426 17:06:19.533890  2338 net.cpp:131] Top shape: 50 832 7 7 (2038400)
I0426 17:06:19.533895  2338 net.cpp:131] Top shape: 50 832 7 7 (2038400)
I0426 17:06:19.533897  2338 net.cpp:139] Memory required for data: 2760860008
I0426 17:06:19.533901  2338 layer_factory.hpp:77] Creating layer inception_5b/1x1
I0426 17:06:19.533911  2338 net.cpp:86] Creating Layer inception_5b/1x1
I0426 17:06:19.533921  2338 net.cpp:408] inception_5b/1x1 <- inception_5a/output_inception_5a/output_0_split_0
I0426 17:06:19.533932  2338 net.cpp:382] inception_5b/1x1 -> inception_5b/1x1
I0426 17:06:19.535989  2338 net.cpp:124] Setting up inception_5b/1x1
I0426 17:06:19.536000  2338 net.cpp:131] Top shape: 50 384 7 7 (940800)
I0426 17:06:19.536003  2338 net.cpp:139] Memory required for data: 2764623208
I0426 17:06:19.536010  2338 layer_factory.hpp:77] Creating layer inception_5b/relu_1x1
I0426 17:06:19.536016  2338 net.cpp:86] Creating Layer inception_5b/relu_1x1
I0426 17:06:19.536020  2338 net.cpp:408] inception_5b/relu_1x1 <- inception_5b/1x1
I0426 17:06:19.536026  2338 net.cpp:369] inception_5b/relu_1x1 -> inception_5b/1x1 (in-place)
I0426 17:06:19.536033  2338 net.cpp:124] Setting up inception_5b/relu_1x1
I0426 17:06:19.536038  2338 net.cpp:131] Top shape: 50 384 7 7 (940800)
I0426 17:06:19.536041  2338 net.cpp:139] Memory required for data: 2768386408
I0426 17:06:19.536046  2338 layer_factory.hpp:77] Creating layer inception_5b/3x3_reduce
I0426 17:06:19.536052  2338 net.cpp:86] Creating Layer inception_5b/3x3_reduce
I0426 17:06:19.536057  2338 net.cpp:408] inception_5b/3x3_reduce <- inception_5a/output_inception_5a/output_0_split_1
I0426 17:06:19.536064  2338 net.cpp:382] inception_5b/3x3_reduce -> inception_5b/3x3_reduce
I0426 17:06:19.537947  2338 net.cpp:124] Setting up inception_5b/3x3_reduce
I0426 17:06:19.537961  2338 net.cpp:131] Top shape: 50 192 7 7 (470400)
I0426 17:06:19.537966  2338 net.cpp:139] Memory required for data: 2770268008
I0426 17:06:19.537972  2338 layer_factory.hpp:77] Creating layer inception_5b/relu_3x3_reduce
I0426 17:06:19.537981  2338 net.cpp:86] Creating Layer inception_5b/relu_3x3_reduce
I0426 17:06:19.537986  2338 net.cpp:408] inception_5b/relu_3x3_reduce <- inception_5b/3x3_reduce
I0426 17:06:19.537992  2338 net.cpp:369] inception_5b/relu_3x3_reduce -> inception_5b/3x3_reduce (in-place)
I0426 17:06:19.537999  2338 net.cpp:124] Setting up inception_5b/relu_3x3_reduce
I0426 17:06:19.538003  2338 net.cpp:131] Top shape: 50 192 7 7 (470400)
I0426 17:06:19.538007  2338 net.cpp:139] Memory required for data: 2772149608
I0426 17:06:19.538010  2338 layer_factory.hpp:77] Creating layer inception_5b/3x3
I0426 17:06:19.538020  2338 net.cpp:86] Creating Layer inception_5b/3x3
I0426 17:06:19.538024  2338 net.cpp:408] inception_5b/3x3 <- inception_5b/3x3_reduce
I0426 17:06:19.538033  2338 net.cpp:382] inception_5b/3x3 -> inception_5b/3x3
I0426 17:06:19.547973  2338 net.cpp:124] Setting up inception_5b/3x3
I0426 17:06:19.547992  2338 net.cpp:131] Top shape: 50 384 7 7 (940800)
I0426 17:06:19.547996  2338 net.cpp:139] Memory required for data: 2775912808
I0426 17:06:19.548003  2338 layer_factory.hpp:77] Creating layer inception_5b/relu_3x3
I0426 17:06:19.548012  2338 net.cpp:86] Creating Layer inception_5b/relu_3x3
I0426 17:06:19.548015  2338 net.cpp:408] inception_5b/relu_3x3 <- inception_5b/3x3
I0426 17:06:19.548023  2338 net.cpp:369] inception_5b/relu_3x3 -> inception_5b/3x3 (in-place)
I0426 17:06:19.548032  2338 net.cpp:124] Setting up inception_5b/relu_3x3
I0426 17:06:19.548036  2338 net.cpp:131] Top shape: 50 384 7 7 (940800)
I0426 17:06:19.548039  2338 net.cpp:139] Memory required for data: 2779676008
I0426 17:06:19.548043  2338 layer_factory.hpp:77] Creating layer inception_5b/5x5_reduce
I0426 17:06:19.548051  2338 net.cpp:86] Creating Layer inception_5b/5x5_reduce
I0426 17:06:19.548055  2338 net.cpp:408] inception_5b/5x5_reduce <- inception_5a/output_inception_5a/output_0_split_2
I0426 17:06:19.548065  2338 net.cpp:382] inception_5b/5x5_reduce -> inception_5b/5x5_reduce
I0426 17:06:19.548527  2338 net.cpp:124] Setting up inception_5b/5x5_reduce
I0426 17:06:19.548535  2338 net.cpp:131] Top shape: 50 48 7 7 (117600)
I0426 17:06:19.548539  2338 net.cpp:139] Memory required for data: 2780146408
I0426 17:06:19.548545  2338 layer_factory.hpp:77] Creating layer inception_5b/relu_5x5_reduce
I0426 17:06:19.548552  2338 net.cpp:86] Creating Layer inception_5b/relu_5x5_reduce
I0426 17:06:19.548555  2338 net.cpp:408] inception_5b/relu_5x5_reduce <- inception_5b/5x5_reduce
I0426 17:06:19.548573  2338 net.cpp:369] inception_5b/relu_5x5_reduce -> inception_5b/5x5_reduce (in-place)
I0426 17:06:19.548579  2338 net.cpp:124] Setting up inception_5b/relu_5x5_reduce
I0426 17:06:19.548583  2338 net.cpp:131] Top shape: 50 48 7 7 (117600)
I0426 17:06:19.548588  2338 net.cpp:139] Memory required for data: 2780616808
I0426 17:06:19.548590  2338 layer_factory.hpp:77] Creating layer inception_5b/5x5
I0426 17:06:19.548599  2338 net.cpp:86] Creating Layer inception_5b/5x5
I0426 17:06:19.548604  2338 net.cpp:408] inception_5b/5x5 <- inception_5b/5x5_reduce
I0426 17:06:19.548609  2338 net.cpp:382] inception_5b/5x5 -> inception_5b/5x5
I0426 17:06:19.549685  2338 net.cpp:124] Setting up inception_5b/5x5
I0426 17:06:19.549693  2338 net.cpp:131] Top shape: 50 128 7 7 (313600)
I0426 17:06:19.549696  2338 net.cpp:139] Memory required for data: 2781871208
I0426 17:06:19.549702  2338 layer_factory.hpp:77] Creating layer inception_5b/relu_5x5
I0426 17:06:19.549708  2338 net.cpp:86] Creating Layer inception_5b/relu_5x5
I0426 17:06:19.549712  2338 net.cpp:408] inception_5b/relu_5x5 <- inception_5b/5x5
I0426 17:06:19.549718  2338 net.cpp:369] inception_5b/relu_5x5 -> inception_5b/5x5 (in-place)
I0426 17:06:19.549726  2338 net.cpp:124] Setting up inception_5b/relu_5x5
I0426 17:06:19.549731  2338 net.cpp:131] Top shape: 50 128 7 7 (313600)
I0426 17:06:19.549733  2338 net.cpp:139] Memory required for data: 2783125608
I0426 17:06:19.549736  2338 layer_factory.hpp:77] Creating layer inception_5b/pool
I0426 17:06:19.549742  2338 net.cpp:86] Creating Layer inception_5b/pool
I0426 17:06:19.549746  2338 net.cpp:408] inception_5b/pool <- inception_5a/output_inception_5a/output_0_split_3
I0426 17:06:19.549752  2338 net.cpp:382] inception_5b/pool -> inception_5b/pool
I0426 17:06:19.549789  2338 net.cpp:124] Setting up inception_5b/pool
I0426 17:06:19.549796  2338 net.cpp:131] Top shape: 50 832 7 7 (2038400)
I0426 17:06:19.549800  2338 net.cpp:139] Memory required for data: 2791279208
I0426 17:06:19.549803  2338 layer_factory.hpp:77] Creating layer inception_5b/pool_proj
I0426 17:06:19.549811  2338 net.cpp:86] Creating Layer inception_5b/pool_proj
I0426 17:06:19.549815  2338 net.cpp:408] inception_5b/pool_proj <- inception_5b/pool
I0426 17:06:19.549823  2338 net.cpp:382] inception_5b/pool_proj -> inception_5b/pool_proj
I0426 17:06:19.550638  2338 net.cpp:124] Setting up inception_5b/pool_proj
I0426 17:06:19.550647  2338 net.cpp:131] Top shape: 50 128 7 7 (313600)
I0426 17:06:19.550652  2338 net.cpp:139] Memory required for data: 2792533608
I0426 17:06:19.550657  2338 layer_factory.hpp:77] Creating layer inception_5b/relu_pool_proj
I0426 17:06:19.550664  2338 net.cpp:86] Creating Layer inception_5b/relu_pool_proj
I0426 17:06:19.550668  2338 net.cpp:408] inception_5b/relu_pool_proj <- inception_5b/pool_proj
I0426 17:06:19.550674  2338 net.cpp:369] inception_5b/relu_pool_proj -> inception_5b/pool_proj (in-place)
I0426 17:06:19.550680  2338 net.cpp:124] Setting up inception_5b/relu_pool_proj
I0426 17:06:19.550685  2338 net.cpp:131] Top shape: 50 128 7 7 (313600)
I0426 17:06:19.550688  2338 net.cpp:139] Memory required for data: 2793788008
I0426 17:06:19.550691  2338 layer_factory.hpp:77] Creating layer inception_5b/output
I0426 17:06:19.550698  2338 net.cpp:86] Creating Layer inception_5b/output
I0426 17:06:19.550701  2338 net.cpp:408] inception_5b/output <- inception_5b/1x1
I0426 17:06:19.550705  2338 net.cpp:408] inception_5b/output <- inception_5b/3x3
I0426 17:06:19.550709  2338 net.cpp:408] inception_5b/output <- inception_5b/5x5
I0426 17:06:19.550714  2338 net.cpp:408] inception_5b/output <- inception_5b/pool_proj
I0426 17:06:19.550719  2338 net.cpp:382] inception_5b/output -> inception_5b/output
I0426 17:06:19.550743  2338 net.cpp:124] Setting up inception_5b/output
I0426 17:06:19.550750  2338 net.cpp:131] Top shape: 50 1024 7 7 (2508800)
I0426 17:06:19.550753  2338 net.cpp:139] Memory required for data: 2803823208
I0426 17:06:19.550756  2338 layer_factory.hpp:77] Creating layer pool5/7x7_s1
I0426 17:06:19.550765  2338 net.cpp:86] Creating Layer pool5/7x7_s1
I0426 17:06:19.550776  2338 net.cpp:408] pool5/7x7_s1 <- inception_5b/output
I0426 17:06:19.550782  2338 net.cpp:382] pool5/7x7_s1 -> pool5/7x7_s1
I0426 17:06:19.550806  2338 net.cpp:124] Setting up pool5/7x7_s1
I0426 17:06:19.550812  2338 net.cpp:131] Top shape: 50 1024 1 1 (51200)
I0426 17:06:19.550815  2338 net.cpp:139] Memory required for data: 2804028008
I0426 17:06:19.550819  2338 layer_factory.hpp:77] Creating layer pool5/drop_7x7_s1
I0426 17:06:19.550827  2338 net.cpp:86] Creating Layer pool5/drop_7x7_s1
I0426 17:06:19.550832  2338 net.cpp:408] pool5/drop_7x7_s1 <- pool5/7x7_s1
I0426 17:06:19.550837  2338 net.cpp:369] pool5/drop_7x7_s1 -> pool5/7x7_s1 (in-place)
I0426 17:06:19.550858  2338 net.cpp:124] Setting up pool5/drop_7x7_s1
I0426 17:06:19.550864  2338 net.cpp:131] Top shape: 50 1024 1 1 (51200)
I0426 17:06:19.550868  2338 net.cpp:139] Memory required for data: 2804232808
I0426 17:06:19.550871  2338 layer_factory.hpp:77] Creating layer loss3/classifier-bird
I0426 17:06:19.550890  2338 net.cpp:86] Creating Layer loss3/classifier-bird
I0426 17:06:19.550894  2338 net.cpp:408] loss3/classifier-bird <- pool5/7x7_s1
I0426 17:06:19.550900  2338 net.cpp:382] loss3/classifier-bird -> loss3/classifier-bird
I0426 17:06:19.551029  2338 net.cpp:124] Setting up loss3/classifier-bird
I0426 17:06:19.551038  2338 net.cpp:131] Top shape: 50 4 (200)
I0426 17:06:19.551040  2338 net.cpp:139] Memory required for data: 2804233608
I0426 17:06:19.551045  2338 layer_factory.hpp:77] Creating layer loss3/loss3
I0426 17:06:19.551053  2338 net.cpp:86] Creating Layer loss3/loss3
I0426 17:06:19.551056  2338 net.cpp:408] loss3/loss3 <- loss3/classifier-bird
I0426 17:06:19.551061  2338 net.cpp:408] loss3/loss3 <- label_data_1_split_2
I0426 17:06:19.551066  2338 net.cpp:382] loss3/loss3 -> loss3/loss3
…
I0426 17:06:19.553799  2338 net.cpp:296] The NetState phase (1) differed from the phase (0) specified by a rule in layer data
I0426 17:06:19.554810  2338 net.cpp:53] Initializing net from parameters: 
name: "GoogleNet"
state {
  phase: TEST
}
layer {
  name: "data"
  type: "Data"
  top: "data"
  top: "label"
  include {
    phase: TEST
  }
  transform_param {
    mirror: false
    crop_size: 224
    mean_file: "/home/jungmo/Documents/bird/caffe/db/mean.binaryproto"
  }
  data_param {
    source: "/home/jungmo/Documents/bird/caffe/db/val_imageData_lmDB"
    batch_size: 50
    backend: LMDB
  }
}
layer {
  name: "conv1/7x7_s2"
  type: "Convolution"
  bottom: "data"
  top: "conv1/7x7_s2"
  param {
    lr_mult: 1
    decay_mult: 1
  }
  param {
    lr_mult: 2
    decay_mult: 0
  }
  convolution_param {
    num_output: 64
    pad: 3
    kernel_size: 7
    stride: 2
    weight_filler {
      type: "xavier"
    }
    bias_filler {
      type: "constant"
      value: 0.2
    }
  }
}
layer {
  name: "conv1/relu_7x7"
  type: "ReLU"
  bottom: "conv1/7x7_s2"
  top: "conv1/7x7_s2"
}
layer {
  name: "pool1/3x3_s2"
  type: "Pooling"
  bottom: "conv1/7x7_s2"
  top: "pool1/3x3_s2"
  pooling_param {
    pool: MAX
    kernel_size: 3
    stride: 2
  }
}
layer {
  name: "pool1/norm1"
  type: "LRN"
  bottom: "pool1/3x3_s2"
  top: "pool1/norm1"
  lrn_param {
    local_size: 5
    alpha: 0.0001
    beta: 0.75
  }
}
layer {
  name: "conv2/3x3_reduce"
  type: "Convolution"
  bottom: "pool1/norm1"
  top: "conv2/3x3_reduce"
  param {
    lr_mult: 1
    decay_mult: 1
  }
  param {
    lr_mult: 2
    decay_mult: 0
  }
  convolution_param {
    num_output: 64
    kernel_size: 1
    weight_filler {
      type: "xavier"
    }
    bias_filler {
      type: "constant"
      value: 0.2
    }
  }
}
layer {
  name: "conv2/relu_3x3_reduce"
  type: "ReLU"
  bottom: "conv2/3x3_reduce"
  top: "conv2/3x3_reduce"
}
layer {
  name: "conv2/3x3"
  type: "Convolution"
  bottom: "conv2/3x3_reduce"
  top: "conv2/3x3"
  param {
    lr_mult: 1
    decay_mult: 1
  }
  param {
    lr_mult: 2
    decay_mult: 0
  }
  convolution_param {
    num_output: 192
    pad: 1
    kernel_size: 3
    weight_filler {
      type: "xavier"
    }
    bias_filler {
      type: "constant"
      value: 0.2
    }
  }
}
layer {
  name: "conv2/relu_3x3"
  type: "ReLU"
  bottom: "conv2/3x3"
  top: "conv2/3x3"
}
layer {
  name: "conv2/norm2"
  type: "LRN"
  bottom: "conv2/3x3"
  top: "conv2/norm2"
  lrn_param {
    local_size: 5
    alpha: 0.0001
    beta: 0.75
  }
}
layer {
  name: "pool2/3x3_s2"
  type: "Pooling"
  bottom: "conv2/norm2"
  top: "pool2/3x3_s2"
  pooling_param {
    pool: MAX
    kernel_size: 3
    stride: 2
  }
}
layer {
  name: "inception_3a/1x1"
  type: "Convolution"
  bottom: "pool2/3x3_s2"
  top: "inception_3a/1x1"
  param {
    lr_mult: 1
    decay_mult: 1
  }
  param {
    lr_mult: 2
    decay_mult: 0
  }
  convolution_param {
    num_output: 64
    kernel_size: 1
    weight_filler {
      type: "xavier"
    }
    bias_filler {
      type: "constant"
      value: 0.2
    }
  }
}
layer {
  name: "inception_3a/relu_1x1"
  type: "ReLU"
  bottom: "inception_3a/1x1"
  top: "inception_3a/1x1"
}
layer {
  name: "inception_3a/3x3_reduce"
  type: "Convolution"
  bottom: "pool2/3x3_s2"
  top: "inception_3a/3x3_reduce"
  param {
    lr_mult: 1
    decay_mult: 1
  }
  param {
    lr_mult: 2
    decay_mult: 0
  }
  convolution_param {
    num_output: 96
    kernel_size: 1
    weight_filler {
      type: "xavier"
    }
    bias_filler {
      type: "constant"
      value: 0.2
    }
  }
}
layer {
  name: "inception_3a/relu_3x3_reduce"
  type: "ReLU"
  bottom: "inception_3a/3x3_reduce"
  top: "inception_3a/3x3_reduce"
}
layer {
  name: "inception_3a/3x3"
  type: "Convolution"
  bottom: "inception_3a/3x3_reduce"
  top: "inception_3a/3x3"
  param {
    lr_mult: 1
    decay_mult: 1
  }
  param {
    lr_mult: 2
    decay_mult: 0
  }
  convolution_param {
    num_output: 128
    pad: 1
    kernel_size: 3
    weight_filler {
      type: "xavier"
    }
    bias_filler {
      type: "constant"
      value: 0.2
    }
  }
}
layer {
  name: "inception_3a/relu_3x3"
  type: "ReLU"
  bottom: "inception_3a/3x3"
  top: "inception_3a/3x3"
}
layer {
  name: "inception_3a/5x5_reduce"
  type: "Convolution"
  bottom: "pool2/3x3_s2"
  top: "inception_3a/5x5_reduce"
  param {
    lr_mult: 1
    decay_mult: 1
  }
  param {
    lr_mult: 2
    decay_mult: 0
  }
  convolution_param {
    num_output: 16
    kernel_size: 1
    weight_filler {
      type: "xavier"
    }
    bias_filler {
      type: "constant"
      value: 0.2
    }
  }
}
layer {
  name: "inception_3a/relu_5x5_reduce"
  type: "ReLU"
  bottom: "inception_3a/5x5_reduce"
  top: "inception_3a/5x5_reduce"
}
layer {
  name: "inception_3a/5x5"
  type: "Convolution"
  bottom: "inception_3a/5x5_reduce"
  top: "inception_3a/5x5"
  param {
    lr_mult: 1
    decay_mult: 1
  }
  param {
    lr_mult: 2
    decay_mult: 0
  }
  convolution_param {
    num_output: 32
    pad: 2
    kernel_size: 5
    weight_filler {
      type: "xavier"
    }
    bias_filler {
      type: "constant"
      value: 0.2
    }
  }
}
layer {
  name: "inception_3a/relu_5x5"
  type: "ReLU"
  bottom: "inception_3a/5x5"
  top: "inception_3a/5x5"
}
layer {
  name: "inception_3a/pool"
  type: "Pooling"
  bottom: "pool2/3x3_s2"
  top: "inception_3a/pool"
  pooling_param {
    pool: MAX
    kernel_size: 3
    stride: 1
    pad: 1
  }
}
layer {
  name: "inception_3a/pool_proj"
  type: "Convolution"
  bottom: "inception_3a/pool"
  top: "inception_3a/pool_proj"
  param {
    lr_mult: 1
    decay_mult: 1
  }
  param {
    lr_mult: 2
    decay_mult: 0
  }
  convolution_param {
    num_output: 32
    kernel_size: 1
    weight_filler {
      type: "xavier"
    }
    bias_filler {
      type: "constant"
      value: 0.2
    }
  }
}
layer {
  name: "inception_3a/relu_pool_proj"
  type: "ReLU"
  bottom: "inception_3a/pool_proj"
  top: "inception_3a/pool_proj"
}
layer {
  name: "inception_3a/output"
  type: "Concat"
  bottom: "inception_3a/1x1"
  bottom: "inception_3a/3x3"
  bottom: "inception_3a/5x5"
  bottom: "inception_3a/pool_proj"
  top: "inception_3a/output"
}
layer {
  name: "inception_3b/1x1"
  type: "Convolution"
  bottom: "inception_3a/output"
  top: "inception_3b/1x1"
  param {
    lr_mult: 1
    decay_mult: 1
  }
  param {
    lr_mult: 2
    decay_mult: 0
  }
  convolution_param {
    num_output: 128
    kernel_size: 1
    weight_filler {
      type: "xavier"
    }
    bias_filler {
      type: "constant"
      value: 0.2
    }
  }
}
layer {
  name: "inception_3b/relu_1x1"
  type: "ReLU"
  bottom: "inception_3b/1x1"
  top: "inception_3b/1x1"
}
layer {
  name: "inception_3b/3x3_reduce"
  type: "Convolution"
  bottom: "inception_3a/output"
  top: "inception_3b/3x3_reduce"
  param {
    lr_mult: 1
    decay_mult: 1
  }
  param {
    lr_mult: 2
    decay_mult: 0
  }
  convolution_param {
    num_output: 128
    kernel_size: 1
    weight_filler {
      type: "xavier"
    }
    bias_filler {
      type: "constant"
      value: 0.2
    }
  }
}
layer {
  name: "inception_3b/relu_3x3_reduce"
  type: "ReLU"
  bottom: "inception_3b/3x3_reduce"
  top: "inception_3b/3x3_reduce"
}
layer {
  name: "inception_3b/3x3"
  type: "Convolution"
  bottom: "inception_3b/3x3_reduce"
  top: "inception_3b/3x3"
  param {
    lr_mult: 1
    decay_mult: 1
  }
  param {
    lr_mult: 2
    decay_mult: 0
  }
  convolution_param {
    num_output: 192
    pad: 1
    kernel_size: 3
    weight_filler {
      type: "xavier"
    }
    bias_filler {
      type: "constant"
      value: 0.2
    }
  }
}
layer {
  name: "inception_3b/relu_3x3"
  type: "ReLU"
  bottom: "inception_3b/3x3"
  top: "inception_3b/3x3"
}
layer {
  name: "inception_3b/5x5_reduce"
  type: "Convolution"
  bottom: "inception_3a/output"
  top: "inception_3b/5x5_reduce"
  param {
    lr_mult: 1
    decay_mult: 1
  }
  param {
    lr_mult: 2
    decay_mult: 0
  }
  convolution_param {
    num_output: 32
    kernel_size: 1
    weight_filler {
      type: "xavier"
    }
    bias_filler {
      type: "constant"
      value: 0.2
    }
  }
}
layer {
  name: "inception_3b/relu_5x5_reduce"
  type: "ReLU"
  bottom: "inception_3b/5x5_reduce"
  top: "inception_3b/5x5_reduce"
}
layer {
  name: "inception_3b/5x5"
  type: "Convolution"
  bottom: "inception_3b/5x5_reduce"
  top: "inception_3b/5x5"
  param {
    lr_mult: 1
    decay_mult: 1
  }
  param {
    lr_mult: 2
    decay_mult: 0
  }
  convolution_param {
    num_output: 96
    pad: 2
    kernel_size: 5
    weight_filler {
      type: "xavier"
    }
    bias_filler {
      type: "constant"
      value: 0.2
    }
  }
}
layer {
  name: "inception_3b/relu_5x5"
  type: "ReLU"
  bottom: "inception_3b/5x5"
  top: "inception_3b/5x5"
}
layer {
  name: "inception_3b/pool"
  type: "Pooling"
  bottom: "inception_3a/output"
  top: "inception_3b/pool"
  pooling_param {
    pool: MAX
    kernel_size: 3
    stride: 1
    pad: 1
  }
}
layer {
  name: "inception_3b/pool_proj"
  type: "Convolution"
  bottom: "inception_3b/pool"
  top: "inception_3b/pool_proj"
  param {
    lr_mult: 1
    decay_mult: 1
  }
  param {
    lr_mult: 2
    decay_mult: 0
  }
  convolution_param {
    num_output: 64
    kernel_size: 1
    weight_filler {
      type: "xavier"
    }
    bias_filler {
      type: "constant"
      value: 0.2
    }
  }
}
layer {
  name: "inception_3b/relu_pool_proj"
  type: "ReLU"
  bottom: "inception_3b/pool_proj"
  top: "inception_3b/pool_proj"
}
layer {
  name: "inception_3b/output"
  type: "Concat"
  bottom: "inception_3b/1x1"
  bottom: "inception_3b/3x3"
  bottom: "inception_3b/5x5"
  bottom: "inception_3b/pool_proj"
  top: "inception_3b/output"
}
layer {
  name: "pool3/3x3_s2"
  type: "Pooling"
  bottom: "inception_3b/output"
  top: "pool3/3x3_s2"
  pooling_param {
    pool: MAX
    kernel_size: 3
    stride: 2
  }
}
layer {
  name: "inception_4a/1x1"
  type: "Convolution"
  bottom: "pool3/3x3_s2"
  top: "inception_4a/1x1"
  param {
    lr_mult: 1
    decay_mult: 1
  }
  param {
    lr_mult: 2
    decay_mult: 0
  }
  convolution_param {
    num_output: 192
    kernel_size: 1
    weight_filler {
      type: "xavier"
    }
    bias_filler {
      type: "constant"
      value: 0.2
    }
  }
}
layer {
  name: "inception_4a/relu_1x1"
  type: "ReLU"
  bottom: "inception_4a/1x1"
  top: "inception_4a/1x1"
}
layer {
  name: "inception_4a/3x3_reduce"
  type: "Convolution"
  bottom: "pool3/3x3_s2"
  top: "inception_4a/3x3_reduce"
  param {
    lr_mult: 1
    decay_mult: 1
  }
  param {
    lr_mult: 2
    decay_mult: 0
  }
  convolution_param {
    num_output: 96
    kernel_size: 1
    weight_filler {
      type: "xavier"
    }
    bias_filler {
      type: "constant"
      value: 0.2
    }
  }
}
layer {
  name: "inception_4a/relu_3x3_reduce"
  type: "ReLU"
  bottom: "inception_4a/3x3_reduce"
  top: "inception_4a/3x3_reduce"
}
layer {
  name: "inception_4a/3x3"
  type: "Convolution"
  bottom: "inception_4a/3x3_reduce"
  top: "inception_4a/3x3"
  param {
    lr_mult: 1
    decay_mult: 1
  }
  param {
    lr_mult: 2
    decay_mult: 0
  }
  convolution_param {
    num_output: 208
    pad: 1
    kernel_size: 3
    weight_filler {
      type: "xavier"
    }
    bias_filler {
      type: "constant"
      value: 0.2
    }
  }
}
layer {
  name: "inception_4a/relu_3x3"
  type: "ReLU"
  bottom: "inception_4a/3x3"
  top: "inception_4a/3x3"
}
layer {
  name: "inception_4a/5x5_reduce"
  type: "Convolution"
  bottom: "pool3/3x3_s2"
  top: "inception_4a/5x5_reduce"
  param {
    lr_mult: 1
    decay_mult: 1
  }
  param {
    lr_mult: 2
    decay_mult: 0
  }
  convolution_param {
    num_output: 16
    kernel_size: 1
    weight_filler {
      type: "xavier"
    }
    bias_filler {
      type: "constant"
      value: 0.2
    }
  }
}
layer {
  name: "inception_4a/relu_5x5_reduce"
  type: "ReLU"
  bottom: "inception_4a/5x5_reduce"
  top: "inception_4a/5x5_reduce"
}
layer {
  name: "inception_4a/5x5"
  type: "Convolution"
  bottom: "inception_4a/5x5_reduce"
  top: "inception_4a/5x5"
  param {
    lr_mult: 1
    decay_mult: 1
  }
  param {
    lr_mult: 2
    decay_mult: 0
  }
  convolution_param {
    num_output: 48
    pad: 2
    kernel_size: 5
    weight_filler {
      type: "xavier"
    }
    bias_filler {
      type: "constant"
      value: 0.2
    }
  }
}
layer {
  name: "inception_4a/relu_5x5"
  type: "ReLU"
  bottom: "inception_4a/5x5"
  top: "inception_4a/5x5"
}
layer {
  name: "inception_4a/pool"
  type: "Pooling"
  bottom: "pool3/3x3_s2"
  top: "inception_4a/pool"
  pooling_param {
    pool: MAX
    kernel_size: 3
    stride: 1
    pad: 1
  }
}
layer {
  name: "inception_4a/pool_proj"
  type: "Convolution"
  bottom: "inception_4a/pool"
  top: "inception_4a/pool_proj"
  param {
    lr_mult: 1
    decay_mult: 1
  }
  param {
    lr_mult: 2
    decay_mult: 0
  }
  convolution_param {
    num_output: 64
    kernel_size: 1
    weight_filler {
      type: "xavier"
    }
    bias_filler {
      type: "constant"
      value: 0.2
    }
  }
}
layer {
  name: "inception_4a/relu_pool_proj"
  type: "ReLU"
  bottom: "inception_4a/pool_proj"
  top: "inception_4a/pool_proj"
}
layer {
  name: "inception_4a/output"
  type: "Concat"
  bottom: "inception_4a/1x1"
  bottom: "inception_4a/3x3"
  bottom: "inception_4a/5x5"
  bottom: "inception_4a/pool_proj"
  top: "inception_4a/output"
}
layer {
  name: "loss1/ave_pool"
  type: "Pooling"
  bottom: "inception_4a/output"
  top: "loss1/ave_pool"
  pooling_param {
    pool: AVE
    kernel_size: 5
    stride: 3
  }
}
layer {
  name: "loss1/conv"
  type: "Convolution"
  bottom: "loss1/ave_pool"
  top: "loss1/conv"
  param {
    lr_mult: 1
    decay_mult: 1
  }
  param {
    lr_mult: 2
    decay_mult: 0
  }
  convolution_param {
    num_output: 128
    kernel_size: 1
    weight_filler {
      type: "xavier"
    }
    bias_filler {
      type: "constant"
      value: 0.2
    }
  }
}
layer {
  name: "loss1/relu_conv"
  type: "ReLU"
  bottom: "loss1/conv"
  top: "loss1/conv"
}
layer {
  name: "loss1/fc"
  type: "InnerProduct"
  bottom: "loss1/conv"
  top: "loss1/fc"
  param {
    lr_mult: 1
    decay_mult: 1
  }
  param {
    lr_mult: 2
    decay_mult: 0
  }
  inner_product_param {
    num_output: 1024
    weight_filler {
      type: "xavier"
    }
    bias_filler {
      type: "constant"
      value: 0.2
    }
  }
}
layer {
  name: "loss1/relu_fc"
  type: "ReLU"
  bottom: "loss1/fc"
  top: "loss1/fc"
}
layer {
  name: "loss1/drop_fc"
  type: "Dropout"
  bottom: "loss1/fc"
…
I0427 12:36:46.659108  2308 net.cpp:131] Top shape: 10 512 14 14 (1003520)
I0427 12:36:46.659112  2308 net.cpp:131] Top shape: 10 512 14 14 (1003520)
I0427 12:36:46.659116  2308 net.cpp:131] Top shape: 10 512 14 14 (1003520)
I0427 12:36:46.659119  2308 net.cpp:131] Top shape: 10 512 14 14 (1003520)
I0427 12:36:46.659122  2308 net.cpp:139] Memory required for data: 423861760
I0427 12:36:46.659124  2308 layer_factory.hpp:77] Creating layer inception_4c/1x1
I0427 12:36:46.659132  2308 net.cpp:86] Creating Layer inception_4c/1x1
I0427 12:36:46.659135  2308 net.cpp:408] inception_4c/1x1 <- inception_4b/output_inception_4b/output_0_split_0
I0427 12:36:46.659142  2308 net.cpp:382] inception_4c/1x1 -> inception_4c/1x1
I0427 12:36:46.659628  2308 net.cpp:124] Setting up inception_4c/1x1
I0427 12:36:46.659636  2308 net.cpp:131] Top shape: 10 128 14 14 (250880)
I0427 12:36:46.659638  2308 net.cpp:139] Memory required for data: 424865280
I0427 12:36:46.659643  2308 layer_factory.hpp:77] Creating layer inception_4c/relu_1x1
I0427 12:36:46.659647  2308 net.cpp:86] Creating Layer inception_4c/relu_1x1
I0427 12:36:46.659651  2308 net.cpp:408] inception_4c/relu_1x1 <- inception_4c/1x1
I0427 12:36:46.659656  2308 net.cpp:369] inception_4c/relu_1x1 -> inception_4c/1x1 (in-place)
I0427 12:36:46.659659  2308 net.cpp:124] Setting up inception_4c/relu_1x1
I0427 12:36:46.659663  2308 net.cpp:131] Top shape: 10 128 14 14 (250880)
I0427 12:36:46.659667  2308 net.cpp:139] Memory required for data: 425868800
I0427 12:36:46.659669  2308 layer_factory.hpp:77] Creating layer inception_4c/3x3_reduce
I0427 12:36:46.659677  2308 net.cpp:86] Creating Layer inception_4c/3x3_reduce
I0427 12:36:46.659679  2308 net.cpp:408] inception_4c/3x3_reduce <- inception_4b/output_inception_4b/output_0_split_1
I0427 12:36:46.659687  2308 net.cpp:382] inception_4c/3x3_reduce -> inception_4c/3x3_reduce
I0427 12:36:46.660171  2308 net.cpp:124] Setting up inception_4c/3x3_reduce
I0427 12:36:46.660177  2308 net.cpp:131] Top shape: 10 128 14 14 (250880)
I0427 12:36:46.660181  2308 net.cpp:139] Memory required for data: 426872320
I0427 12:36:46.660185  2308 layer_factory.hpp:77] Creating layer inception_4c/relu_3x3_reduce
I0427 12:36:46.660190  2308 net.cpp:86] Creating Layer inception_4c/relu_3x3_reduce
I0427 12:36:46.660194  2308 net.cpp:408] inception_4c/relu_3x3_reduce <- inception_4c/3x3_reduce
I0427 12:36:46.660197  2308 net.cpp:369] inception_4c/relu_3x3_reduce -> inception_4c/3x3_reduce (in-place)
I0427 12:36:46.660202  2308 net.cpp:124] Setting up inception_4c/relu_3x3_reduce
I0427 12:36:46.660207  2308 net.cpp:131] Top shape: 10 128 14 14 (250880)
I0427 12:36:46.660209  2308 net.cpp:139] Memory required for data: 427875840
I0427 12:36:46.660212  2308 layer_factory.hpp:77] Creating layer inception_4c/3x3
I0427 12:36:46.660219  2308 net.cpp:86] Creating Layer inception_4c/3x3
I0427 12:36:46.660223  2308 net.cpp:408] inception_4c/3x3 <- inception_4c/3x3_reduce
I0427 12:36:46.660228  2308 net.cpp:382] inception_4c/3x3 -> inception_4c/3x3
I0427 12:36:46.661826  2308 net.cpp:124] Setting up inception_4c/3x3
I0427 12:36:46.661834  2308 net.cpp:131] Top shape: 10 256 14 14 (501760)
I0427 12:36:46.661836  2308 net.cpp:139] Memory required for data: 429882880
I0427 12:36:46.661841  2308 layer_factory.hpp:77] Creating layer inception_4c/relu_3x3
I0427 12:36:46.661845  2308 net.cpp:86] Creating Layer inception_4c/relu_3x3
I0427 12:36:46.661849  2308 net.cpp:408] inception_4c/relu_3x3 <- inception_4c/3x3
I0427 12:36:46.661854  2308 net.cpp:369] inception_4c/relu_3x3 -> inception_4c/3x3 (in-place)
I0427 12:36:46.661857  2308 net.cpp:124] Setting up inception_4c/relu_3x3
I0427 12:36:46.661861  2308 net.cpp:131] Top shape: 10 256 14 14 (501760)
I0427 12:36:46.661864  2308 net.cpp:139] Memory required for data: 431889920
I0427 12:36:46.661867  2308 layer_factory.hpp:77] Creating layer inception_4c/5x5_reduce
I0427 12:36:46.661875  2308 net.cpp:86] Creating Layer inception_4c/5x5_reduce
I0427 12:36:46.661878  2308 net.cpp:408] inception_4c/5x5_reduce <- inception_4b/output_inception_4b/output_0_split_2
I0427 12:36:46.661883  2308 net.cpp:382] inception_4c/5x5_reduce -> inception_4c/5x5_reduce
I0427 12:36:46.662124  2308 net.cpp:124] Setting up inception_4c/5x5_reduce
I0427 12:36:46.662132  2308 net.cpp:131] Top shape: 10 24 14 14 (47040)
I0427 12:36:46.662134  2308 net.cpp:139] Memory required for data: 432078080
I0427 12:36:46.662139  2308 layer_factory.hpp:77] Creating layer inception_4c/relu_5x5_reduce
I0427 12:36:46.662144  2308 net.cpp:86] Creating Layer inception_4c/relu_5x5_reduce
I0427 12:36:46.662148  2308 net.cpp:408] inception_4c/relu_5x5_reduce <- inception_4c/5x5_reduce
I0427 12:36:46.662153  2308 net.cpp:369] inception_4c/relu_5x5_reduce -> inception_4c/5x5_reduce (in-place)
I0427 12:36:46.662159  2308 net.cpp:124] Setting up inception_4c/relu_5x5_reduce
I0427 12:36:46.662164  2308 net.cpp:131] Top shape: 10 24 14 14 (47040)
I0427 12:36:46.662166  2308 net.cpp:139] Memory required for data: 432266240
I0427 12:36:46.662169  2308 layer_factory.hpp:77] Creating layer inception_4c/5x5
I0427 12:36:46.662176  2308 net.cpp:86] Creating Layer inception_4c/5x5
I0427 12:36:46.662180  2308 net.cpp:408] inception_4c/5x5 <- inception_4c/5x5_reduce
I0427 12:36:46.662185  2308 net.cpp:382] inception_4c/5x5 -> inception_4c/5x5
I0427 12:36:46.662550  2308 net.cpp:124] Setting up inception_4c/5x5
I0427 12:36:46.662559  2308 net.cpp:131] Top shape: 10 64 14 14 (125440)
I0427 12:36:46.662562  2308 net.cpp:139] Memory required for data: 432768000
I0427 12:36:46.662567  2308 layer_factory.hpp:77] Creating layer inception_4c/relu_5x5
I0427 12:36:46.662573  2308 net.cpp:86] Creating Layer inception_4c/relu_5x5
I0427 12:36:46.662576  2308 net.cpp:408] inception_4c/relu_5x5 <- inception_4c/5x5
I0427 12:36:46.662581  2308 net.cpp:369] inception_4c/relu_5x5 -> inception_4c/5x5 (in-place)
I0427 12:36:46.662585  2308 net.cpp:124] Setting up inception_4c/relu_5x5
I0427 12:36:46.662590  2308 net.cpp:131] Top shape: 10 64 14 14 (125440)
I0427 12:36:46.662592  2308 net.cpp:139] Memory required for data: 433269760
I0427 12:36:46.662595  2308 layer_factory.hpp:77] Creating layer inception_4c/pool
I0427 12:36:46.662600  2308 net.cpp:86] Creating Layer inception_4c/pool
I0427 12:36:46.662603  2308 net.cpp:408] inception_4c/pool <- inception_4b/output_inception_4b/output_0_split_3
I0427 12:36:46.662608  2308 net.cpp:382] inception_4c/pool -> inception_4c/pool
I0427 12:36:46.662637  2308 net.cpp:124] Setting up inception_4c/pool
I0427 12:36:46.662642  2308 net.cpp:131] Top shape: 10 512 14 14 (1003520)
I0427 12:36:46.662645  2308 net.cpp:139] Memory required for data: 437283840
I0427 12:36:46.662648  2308 layer_factory.hpp:77] Creating layer inception_4c/pool_proj
I0427 12:36:46.662657  2308 net.cpp:86] Creating Layer inception_4c/pool_proj
I0427 12:36:46.662659  2308 net.cpp:408] inception_4c/pool_proj <- inception_4c/pool
I0427 12:36:46.662664  2308 net.cpp:382] inception_4c/pool_proj -> inception_4c/pool_proj
I0427 12:36:46.662992  2308 net.cpp:124] Setting up inception_4c/pool_proj
I0427 12:36:46.662998  2308 net.cpp:131] Top shape: 10 64 14 14 (125440)
I0427 12:36:46.663000  2308 net.cpp:139] Memory required for data: 437785600
I0427 12:36:46.663013  2308 layer_factory.hpp:77] Creating layer inception_4c/relu_pool_proj
I0427 12:36:46.663018  2308 net.cpp:86] Creating Layer inception_4c/relu_pool_proj
I0427 12:36:46.663022  2308 net.cpp:408] inception_4c/relu_pool_proj <- inception_4c/pool_proj
I0427 12:36:46.663027  2308 net.cpp:369] inception_4c/relu_pool_proj -> inception_4c/pool_proj (in-place)
I0427 12:36:46.663031  2308 net.cpp:124] Setting up inception_4c/relu_pool_proj
I0427 12:36:46.663035  2308 net.cpp:131] Top shape: 10 64 14 14 (125440)
I0427 12:36:46.663038  2308 net.cpp:139] Memory required for data: 438287360
I0427 12:36:46.663041  2308 layer_factory.hpp:77] Creating layer inception_4c/output
I0427 12:36:46.663046  2308 net.cpp:86] Creating Layer inception_4c/output
I0427 12:36:46.663048  2308 net.cpp:408] inception_4c/output <- inception_4c/1x1
I0427 12:36:46.663053  2308 net.cpp:408] inception_4c/output <- inception_4c/3x3
I0427 12:36:46.663055  2308 net.cpp:408] inception_4c/output <- inception_4c/5x5
I0427 12:36:46.663059  2308 net.cpp:408] inception_4c/output <- inception_4c/pool_proj
I0427 12:36:46.663064  2308 net.cpp:382] inception_4c/output -> inception_4c/output
I0427 12:36:46.663084  2308 net.cpp:124] Setting up inception_4c/output
I0427 12:36:46.663089  2308 net.cpp:131] Top shape: 10 512 14 14 (1003520)
I0427 12:36:46.663091  2308 net.cpp:139] Memory required for data: 442301440
I0427 12:36:46.663094  2308 layer_factory.hpp:77] Creating layer inception_4c/output_inception_4c/output_0_split
I0427 12:36:46.663100  2308 net.cpp:86] Creating Layer inception_4c/output_inception_4c/output_0_split
I0427 12:36:46.663105  2308 net.cpp:408] inception_4c/output_inception_4c/output_0_split <- inception_4c/output
I0427 12:36:46.663111  2308 net.cpp:382] inception_4c/output_inception_4c/output_0_split -> inception_4c/output_inception_4c/output_0_split_0
I0427 12:36:46.663116  2308 net.cpp:382] inception_4c/output_inception_4c/output_0_split -> inception_4c/output_inception_4c/output_0_split_1
I0427 12:36:46.663123  2308 net.cpp:382] inception_4c/output_inception_4c/output_0_split -> inception_4c/output_inception_4c/output_0_split_2
I0427 12:36:46.663128  2308 net.cpp:382] inception_4c/output_inception_4c/output_0_split -> inception_4c/output_inception_4c/output_0_split_3
I0427 12:36:46.663172  2308 net.cpp:124] Setting up inception_4c/output_inception_4c/output_0_split
I0427 12:36:46.663177  2308 net.cpp:131] Top shape: 10 512 14 14 (1003520)
I0427 12:36:46.663180  2308 net.cpp:131] Top shape: 10 512 14 14 (1003520)
I0427 12:36:46.663184  2308 net.cpp:131] Top shape: 10 512 14 14 (1003520)
I0427 12:36:46.663187  2308 net.cpp:131] Top shape: 10 512 14 14 (1003520)
I0427 12:36:46.663190  2308 net.cpp:139] Memory required for data: 458357760
I0427 12:36:46.663193  2308 layer_factory.hpp:77] Creating layer inception_4d/1x1
I0427 12:36:46.663200  2308 net.cpp:86] Creating Layer inception_4d/1x1
I0427 12:36:46.663203  2308 net.cpp:408] inception_4d/1x1 <- inception_4c/output_inception_4c/output_0_split_0
I0427 12:36:46.663209  2308 net.cpp:382] inception_4d/1x1 -> inception_4d/1x1
I0427 12:36:46.664338  2308 net.cpp:124] Setting up inception_4d/1x1
I0427 12:36:46.664350  2308 net.cpp:131] Top shape: 10 112 14 14 (219520)
I0427 12:36:46.664352  2308 net.cpp:139] Memory required for data: 459235840
I0427 12:36:46.664358  2308 layer_factory.hpp:77] Creating layer inception_4d/relu_1x1
I0427 12:36:46.664364  2308 net.cpp:86] Creating Layer inception_4d/relu_1x1
I0427 12:36:46.664367  2308 net.cpp:408] inception_4d/relu_1x1 <- inception_4d/1x1
I0427 12:36:46.664373  2308 net.cpp:369] inception_4d/relu_1x1 -> inception_4d/1x1 (in-place)
I0427 12:36:46.664378  2308 net.cpp:124] Setting up inception_4d/relu_1x1
I0427 12:36:46.664383  2308 net.cpp:131] Top shape: 10 112 14 14 (219520)
I0427 12:36:46.664386  2308 net.cpp:139] Memory required for data: 460113920
I0427 12:36:46.664388  2308 layer_factory.hpp:77] Creating layer inception_4d/3x3_reduce
I0427 12:36:46.664397  2308 net.cpp:86] Creating Layer inception_4d/3x3_reduce
I0427 12:36:46.664400  2308 net.cpp:408] inception_4d/3x3_reduce <- inception_4c/output_inception_4c/output_0_split_1
I0427 12:36:46.664405  2308 net.cpp:382] inception_4d/3x3_reduce -> inception_4d/3x3_reduce
I0427 12:36:46.664940  2308 net.cpp:124] Setting up inception_4d/3x3_reduce
I0427 12:36:46.664947  2308 net.cpp:131] Top shape: 10 144 14 14 (282240)
I0427 12:36:46.664950  2308 net.cpp:139] Memory required for data: 461242880
I0427 12:36:46.664955  2308 layer_factory.hpp:77] Creating layer inception_4d/relu_3x3_reduce
I0427 12:36:46.664959  2308 net.cpp:86] Creating Layer inception_4d/relu_3x3_reduce
I0427 12:36:46.664963  2308 net.cpp:408] inception_4d/relu_3x3_reduce <- inception_4d/3x3_reduce
I0427 12:36:46.664968  2308 net.cpp:369] inception_4d/relu_3x3_reduce -> inception_4d/3x3_reduce (in-place)
I0427 12:36:46.664973  2308 net.cpp:124] Setting up inception_4d/relu_3x3_reduce
I0427 12:36:46.664978  2308 net.cpp:131] Top shape: 10 144 14 14 (282240)
I0427 12:36:46.664979  2308 net.cpp:139] Memory required for data: 462371840
I0427 12:36:46.664983  2308 layer_factory.hpp:77] Creating layer inception_4d/3x3
I0427 12:36:46.664989  2308 net.cpp:86] Creating Layer inception_4d/3x3
I0427 12:36:46.664993  2308 net.cpp:408] inception_4d/3x3 <- inception_4d/3x3_reduce
I0427 12:36:46.664997  2308 net.cpp:382] inception_4d/3x3 -> inception_4d/3x3
I0427 12:36:46.667706  2308 net.cpp:124] Setting up inception_4d/3x3
I0427 12:36:46.667717  2308 net.cpp:131] Top shape: 10 288 14 14 (564480)
I0427 12:36:46.667721  2308 net.cpp:139] Memory required for data: 464629760
I0427 12:36:46.667726  2308 layer_factory.hpp:77] Creating layer inception_4d/relu_3x3
I0427 12:36:46.667737  2308 net.cpp:86] Creating Layer inception_4d/relu_3x3
I0427 12:36:46.667740  2308 net.cpp:408] inception_4d/relu_3x3 <- inception_4d/3x3
I0427 12:36:46.667745  2308 net.cpp:369] inception_4d/relu_3x3 -> inception_4d/3x3 (in-place)
I0427 12:36:46.667750  2308 net.cpp:124] Setting up inception_4d/relu_3x3
I0427 12:36:46.667755  2308 net.cpp:131] Top shape: 10 288 14 14 (564480)
I0427 12:36:46.667758  2308 net.cpp:139] Memory required for data: 466887680
I0427 12:36:46.667760  2308 layer_factory.hpp:77] Creating layer inception_4d/5x5_reduce
I0427 12:36:46.667768  2308 net.cpp:86] Creating Layer inception_4d/5x5_reduce
I0427 12:36:46.667773  2308 net.cpp:408] inception_4d/5x5_reduce <- inception_4c/output_inception_4c/output_0_split_2
I0427 12:36:46.667779  2308 net.cpp:382] inception_4d/5x5_reduce -> inception_4d/5x5_reduce
I0427 12:36:46.668035  2308 net.cpp:124] Setting up inception_4d/5x5_reduce
I0427 12:36:46.668042  2308 net.cpp:131] Top shape: 10 32 14 14 (62720)
I0427 12:36:46.668045  2308 net.cpp:139] Memory required for data: 467138560
I0427 12:36:46.668051  2308 layer_factory.hpp:77] Creating layer inception_4d/relu_5x5_reduce
I0427 12:36:46.668054  2308 net.cpp:86] Creating Layer inception_4d/relu_5x5_reduce
I0427 12:36:46.668058  2308 net.cpp:408] inception_4d/relu_5x5_reduce <- inception_4d/5x5_reduce
I0427 12:36:46.668062  2308 net.cpp:369] inception_4d/relu_5x5_reduce -> inception_4d/5x5_reduce (in-place)
I0427 12:36:46.668067  2308 net.cpp:124] Setting up inception_4d/relu_5x5_reduce
I0427 12:36:46.668071  2308 net.cpp:131] Top shape: 10 32 14 14 (62720)
I0427 12:36:46.668073  2308 net.cpp:139] Memory required for data: 467389440
I0427 12:36:46.668076  2308 layer_factory.hpp:77] Creating layer inception_4d/5x5
I0427 12:36:46.668083  2308 net.cpp:86] Creating Layer inception_4d/5x5
I0427 12:36:46.668087  2308 net.cpp:408] inception_4d/5x5 <- inception_4d/5x5_reduce
I0427 12:36:46.668092  2308 net.cpp:382] inception_4d/5x5 -> inception_4d/5x5
I0427 12:36:46.668520  2308 net.cpp:124] Setting up inception_4d/5x5
I0427 12:36:46.668527  2308 net.cpp:131] Top shape: 10 64 14 14 (125440)
I0427 12:36:46.668530  2308 net.cpp:139] Memory required for data: 467891200
I0427 12:36:46.668535  2308 layer_factory.hpp:77] Creating layer inception_4d/relu_5x5
I0427 12:36:46.668540  2308 net.cpp:86] Creating Layer inception_4d/relu_5x5
I0427 12:36:46.668543  2308 net.cpp:408] inception_4d/relu_5x5 <- inception_4d/5x5
I0427 12:36:46.668548  2308 net.cpp:369] inception_4d/relu_5x5 -> inception_4d/5x5 (in-place)
I0427 12:36:46.668552  2308 net.cpp:124] Setting up inception_4d/relu_5x5
I0427 12:36:46.668557  2308 net.cpp:131] Top shape: 10 64 14 14 (125440)
I0427 12:36:46.668560  2308 net.cpp:139] Memory required for data: 468392960
I0427 12:36:46.668562  2308 layer_factory.hpp:77] Creating layer inception_4d/pool
I0427 12:36:46.668567  2308 net.cpp:86] Creating Layer inception_4d/pool
I0427 12:36:46.668570  2308 net.cpp:408] inception_4d/pool <- inception_4c/output_inception_4c/output_0_split_3
I0427 12:36:46.668575  2308 net.cpp:382] inception_4d/pool -> inception_4d/pool
I0427 12:36:46.668606  2308 net.cpp:124] Setting up inception_4d/pool
I0427 12:36:46.668611  2308 net.cpp:131] Top shape: 10 512 14 14 (1003520)
I0427 12:36:46.668613  2308 net.cpp:139] Memory required for data: 472407040
I0427 12:36:46.668617  2308 layer_factory.hpp:77] Creating layer inception_4d/pool_proj
I0427 12:36:46.668623  2308 net.cpp:86] Creating Layer inception_4d/pool_proj
I0427 12:36:46.668627  2308 net.cpp:408] inception_4d/pool_proj <- inception_4d/pool
I0427 12:36:46.668632  2308 net.cpp:382] inception_4d/pool_proj -> inception_4d/pool_proj
I0427 12:36:46.668961  2308 net.cpp:124] Setting up inception_4d/pool_proj
I0427 12:36:46.668967  2308 net.cpp:131] Top shape: 10 64 14 14 (125440)
I0427 12:36:46.668969  2308 net.cpp:139] Memory required for data: 472908800
I0427 12:36:46.668974  2308 layer_factory.hpp:77] Creating layer inception_4d/relu_pool_proj
I0427 12:36:46.668979  2308 net.cpp:86] Creating Layer inception_4d/relu_pool_proj
I0427 12:36:46.668984  2308 net.cpp:408] inception_4d/relu_pool_proj <- inception_4d/pool_proj
I0427 12:36:46.668989  2308 net.cpp:369] inception_4d/relu_pool_proj -> inception_4d/pool_proj (in-place)
I0427 12:36:46.668995  2308 net.cpp:124] Setting up inception_4d/relu_pool_proj
I0427 12:36:46.668998  2308 net.cpp:131] Top shape: 10 64 14 14 (125440)
I0427 12:36:46.669001  2308 net.cpp:139] Memory required for data: 473410560
I0427 12:36:46.669004  2308 layer_factory.hpp:77] Creating layer inception_4d/output
I0427 12:36:46.669008  2308 net.cpp:86] Creating Layer inception_4d/output
I0427 12:36:46.669011  2308 net.cpp:408] inception_4d/output <- inception_4d/1x1
I0427 12:36:46.669014  2308 net.cpp:408] inception_4d/output <- inception_4d/3x3
I0427 12:36:46.669018  2308 net.cpp:408] inception_4d/output <- inception_4d/5x5
I0427 12:36:46.669021  2308 net.cpp:408] inception_4d/output <- inception_4d/pool_proj
I0427 12:36:46.669025  2308 net.cpp:382] inception_4d/output -> inception_4d/output
I0427 12:36:46.669045  2308 net.cpp:124] Setting up inception_4d/output
I0427 12:36:46.669050  2308 net.cpp:131] Top shape: 10 528 14 14 (1034880)
I0427 12:36:46.669054  2308 net.cpp:139] Memory required for data: 477550080
I0427 12:36:46.669056  2308 layer_factory.hpp:77] Creating layer inception_4d/output_inception_4d/output_0_split
I0427 12:36:46.669062  2308 net.cpp:86] Creating Layer inception_4d/output_inception_4d/output_0_split
I0427 12:36:46.669065  2308 net.cpp:408] inception_4d/output_inception_4d/output_0_split <- inception_4d/output
I0427 12:36:46.669070  2308 net.cpp:382] inception_4d/output_inception_4d/output_0_split -> inception_4d/output_inception_4d/output_0_split_0
I0427 12:36:46.669076  2308 net.cpp:382] inception_4d/output_inception_4d/output_0_split -> inception_4d/output_inception_4d/output_0_split_1
I0427 12:36:46.669082  2308 net.cpp:382] inception_4d/output_inception_4d/output_0_split -> inception_4d/output_inception_4d/output_0_split_2
I0427 12:36:46.669087  2308 net.cpp:382] inception_4d/output_inception_4d/output_0_split -> inception_4d/output_inception_4d/output_0_split_3
I0427 12:36:46.669131  2308 net.cpp:124] Setting up inception_4d/output_inception_4d/output_0_split
I0427 12:36:46.669137  2308 net.cpp:131] Top shape: 10 528 14 14 (1034880)
I0427 12:36:46.669139  2308 net.cpp:131] Top shape: 10 528 14 14 (1034880)
I0427 12:36:46.669143  2308 net.cpp:131] Top shape: 10 528 14 14 (1034880)
I0427 12:36:46.669147  2308 net.cpp:131] Top shape: 10 528 14 14 (1034880)
I0427 12:36:46.669149  2308 net.cpp:139] Memory required for data: 494108160
I0427 12:36:46.669152  2308 layer_factory.hpp:77] Creating layer inception_4e/1x1
I0427 12:36:46.669160  2308 net.cpp:86] Creating Layer inception_4e/1x1
I0427 12:36:46.669163  2308 net.cpp:408] inception_4e/1x1 <- inception_4d/output_inception_4d/output_0_split_0
I0427 12:36:46.669168  2308 net.cpp:382] inception_4e/1x1 -> inception_4e/1x1
I0427 12:36:46.669989  2308 net.cpp:124] Setting up inception_4e/1x1
I0427 12:36:46.669996  2308 net.cpp:131] Top shape: 10 256 14 14 (501760)
I0427 12:36:46.669999  2308 net.cpp:139] Memory required for data: 496115200
I0427 12:36:46.670003  2308 layer_factory.hpp:77] Creating layer inception_4e/relu_1x1
I0427 12:36:46.670008  2308 net.cpp:86] Creating Layer inception_4e/relu_1x1
I0427 12:36:46.670011  2308 net.cpp:408] inception_4e/relu_1x1 <- inception_4e/1x1
I0427 12:36:46.670017  2308 net.cpp:369] inception_4e/relu_1x1 -> inception_4e/1x1 (in-place)
I0427 12:36:46.670022  2308 net.cpp:124] Setting up inception_4e/relu_1x1
I0427 12:36:46.670025  2308 net.cpp:131] Top shape: 10 256 14 14 (501760)
I0427 12:36:46.670028  2308 net.cpp:139] Memory required for data: 498122240
I0427 12:36:46.670030  2308 layer_factory.hpp:77] Creating layer inception_4e/3x3_reduce
I0427 12:36:46.670037  2308 net.cpp:86] Creating Layer inception_4e/3x3_reduce
I0427 12:36:46.670039  2308 net.cpp:408] inception_4e/3x3_reduce <- inception_4d/output_inception_4d/output_0_split_1
I0427 12:36:46.670048  2308 net.cpp:382] inception_4e/3x3_reduce -> inception_4e/3x3_reduce
I0427 12:36:46.670644  2308 net.cpp:124] Setting up inception_4e/3x3_reduce
I0427 12:36:46.670651  2308 net.cpp:131] Top shape: 10 160 14 14 (313600)
I0427 12:36:46.670655  2308 net.cpp:139] Memory required for data: 499376640
I0427 12:36:46.670660  2308 layer_factory.hpp:77] Creating layer inception_4e/relu_3x3_reduce
I0427 12:36:46.670665  2308 net.cpp:86] Creating Layer inception_4e/relu_3x3_reduce
I0427 12:36:46.670667  2308 net.cpp:408] inception_4e/relu_3x3_reduce <- inception_4e/3x3_reduce
I0427 12:36:46.670673  2308 net.cpp:369] inception_4e/relu_3x3_reduce -> inception_4e/3x3_reduce (in-place)
I0427 12:36:46.670678  2308 net.cpp:124] Setting up inception_4e/relu_3x3_reduce
I0427 12:36:46.670682  2308 net.cpp:131] Top shape: 10 160 14 14 (313600)
I0427 12:36:46.670686  2308 net.cpp:139] Memory required for data: 500631040
I0427 12:36:46.670688  2308 layer_factory.hpp:77] Creating layer inception_4e/3x3
I0427 12:36:46.670696  2308 net.cpp:86] Creating Layer inception_4e/3x3
I0427 12:36:46.670698  2308 net.cpp:408] inception_4e/3x3 <- inception_4e/3x3_reduce
I0427 12:36:46.670703  2308 net.cpp:382] inception_4e/3x3 -> inception_4e/3x3
I0427 12:36:46.673784  2308 net.cpp:124] Setting up inception_4e/3x3
I0427 12:36:46.673795  2308 net.cpp:131] Top shape: 10 320 14 14 (627200)
I0427 12:36:46.673799  2308 net.cpp:139] Memory required for data: 503139840
I0427 12:36:46.673804  2308 layer_factory.hpp:77] Creating layer inception_4e/relu_3x3
I0427 12:36:46.673810  2308 net.cpp:86] Creating Layer inception_4e/relu_3x3
I0427 12:36:46.673812  2308 net.cpp:408] inception_4e/relu_3x3 <- inception_4e/3x3
I0427 12:36:46.673818  2308 net.cpp:369] inception_4e/relu_3x3 -> inception_4e/3x3 (in-place)
I0427 12:36:46.673825  2308 net.cpp:124] Setting up inception_4e/relu_3x3
I0427 12:36:46.673828  2308 net.cpp:131] Top shape: 10 320 14 14 (627200)
I0427 12:36:46.673831  2308 net.cpp:139] Memory required for data: 505648640
I0427 12:36:46.673835  2308 layer_factory.hpp:77] Creating layer inception_4e/5x5_reduce
I0427 12:36:46.673843  2308 net.cpp:86] Creating Layer inception_4e/5x5_reduce
I0427 12:36:46.673846  2308 net.cpp:408] inception_4e/5x5_reduce <- inception_4d/output_inception_4d/output_0_split_2
I0427 12:36:46.673852  2308 net.cpp:382] inception_4e/5x5_reduce -> inception_4e/5x5_reduce
I0427 12:36:46.674113  2308 net.cpp:124] Setting up inception_4e/5x5_reduce
I0427 12:36:46.674119  2308 net.cpp:131] Top shape: 10 32 14 14 (62720)
I0427 12:36:46.674121  2308 net.cpp:139] Memory required for data: 505899520
I0427 12:36:46.674126  2308 layer_factory.hpp:77] Creating layer inception_4e/relu_5x5_reduce
I0427 12:36:46.674131  2308 net.cpp:86] Creating Layer inception_4e/relu_5x5_reduce
I0427 12:36:46.674134  2308 net.cpp:408] inception_4e/relu_5x5_reduce <- inception_4e/5x5_reduce
I0427 12:36:46.674139  2308 net.cpp:369] inception_4e/relu_5x5_reduce -> inception_4e/5x5_reduce (in-place)
I0427 12:36:46.674144  2308 net.cpp:124] Setting up inception_4e/relu_5x5_reduce
I0427 12:36:46.674147  2308 net.cpp:131] Top shape: 10 32 14 14 (62720)
I0427 12:36:46.674149  2308 net.cpp:139] Memory required for data: 506150400
I0427 12:36:46.674152  2308 layer_factory.hpp:77] Creating layer inception_4e/5x5
I0427 12:36:46.674160  2308 net.cpp:86] Creating Layer inception_4e/5x5
I0427 12:36:46.674163  2308 net.cpp:408] inception_4e/5x5 <- inception_4e/5x5_reduce
I0427 12:36:46.674168  2308 net.cpp:382] inception_4e/5x5 -> inception_4e/5x5
I0427 12:36:46.675499  2308 net.cpp:124] Setting up inception_4e/5x5
I0427 12:36:46.675513  2308 net.cpp:131] Top shape: 10 128 14 14 (250880)
I0427 12:36:46.675516  2308 net.cpp:139] Memory required for data: 507153920
I0427 12:36:46.675521  2308 layer_factory.hpp:77] Creating layer inception_4e/relu_5x5
I0427 12:36:46.675526  2308 net.cpp:86] Creating Layer inception_4e/relu_5x5
I0427 12:36:46.675530  2308 net.cpp:408] inception_4e/relu_5x5 <- inception_4e/5x5
I0427 12:36:46.675535  2308 net.cpp:369] inception_4e/relu_5x5 -> inception_4e/5x5 (in-place)
I0427 12:36:46.675544  2308 net.cpp:124] Setting up inception_4e/relu_5x5
I0427 12:36:46.675549  2308 net.cpp:131] Top shape: 10 128 14 14 (250880)
I0427 12:36:46.675551  2308 net.cpp:139] Memory required for data: 508157440
I0427 12:36:46.675554  2308 layer_factory.hpp:77] Creating layer inception_4e/pool
I0427 12:36:46.675559  2308 net.cpp:86] Creating Layer inception_4e/pool
I0427 12:36:46.675562  2308 net.cpp:408] inception_4e/pool <- inception_4d/output_inception_4d/output_0_split_3
I0427 12:36:46.675568  2308 net.cpp:382] inception_4e/pool -> inception_4e/pool
I0427 12:36:46.675602  2308 net.cpp:124] Setting up inception_4e/pool
I0427 12:36:46.675607  2308 net.cpp:131] Top shape: 10 528 14 14 (1034880)
I0427 12:36:46.675611  2308 net.cpp:139] Memory required for data: 512296960
I0427 12:36:46.675613  2308 layer_factory.hpp:77] Creating layer inception_4e/pool_proj
I0427 12:36:46.675621  2308 net.cpp:86] Creating Layer inception_4e/pool_proj
I0427 12:36:46.675626  2308 net.cpp:408] inception_4e/pool_proj <- inception_4e/pool
I0427 12:36:46.675631  2308 net.cpp:382] inception_4e/pool_proj -> inception_4e/pool_proj
I0427 12:36:46.676128  2308 net.cpp:124] Setting up inception_4e/pool_proj
I0427 12:36:46.676136  2308 net.cpp:131] Top shape: 10 128 14 14 (250880)
I0427 12:36:46.676138  2308 net.cpp:139] Memory required for data: 513300480
I0427 12:36:46.676143  2308 layer_factory.hpp:77] Creating layer inception_4e/relu_pool_proj
I0427 12:36:46.676148  2308 net.cpp:86] Creating Layer inception_4e/relu_pool_proj
I0427 12:36:46.676152  2308 net.cpp:408] inception_4e/relu_pool_proj <- inception_4e/pool_proj
I0427 12:36:46.676156  2308 net.cpp:369] inception_4e/relu_pool_proj -> inception_4e/pool_proj (in-place)
I0427 12:36:46.676161  2308 net.cpp:124] Setting up inception_4e/relu_pool_proj
I0427 12:36:46.676164  2308 net.cpp:131] Top shape: 10 128 14 14 (250880)
I0427 12:36:46.676167  2308 net.cpp:139] Memory required for data: 514304000
I0427 12:36:46.676170  2308 layer_factory.hpp:77] Creating layer inception_4e/output
I0427 12:36:46.676174  2308 net.cpp:86] Creating Layer inception_4e/output
I0427 12:36:46.676177  2308 net.cpp:408] inception_4e/output <- inception_4e/1x1
I0427 12:36:46.676182  2308 net.cpp:408] inception_4e/output <- inception_4e/3x3
I0427 12:36:46.676184  2308 net.cpp:408] inception_4e/output <- inception_4e/5x5
I0427 12:36:46.676188  2308 net.cpp:408] inception_4e/output <- inception_4e/pool_proj
I0427 12:36:46.676193  2308 net.cpp:382] inception_4e/output -> inception_4e/output
I0427 12:36:46.676213  2308 net.cpp:124] Setting up inception_4e/output
I0427 12:36:46.676218  2308 net.cpp:131] Top shape: 10 832 14 14 (1630720)
I0427 12:36:46.676221  2308 net.cpp:139] Memory required for data: 520826880
I0427 12:36:46.676224  2308 layer_factory.hpp:77] Creating layer pool4/3x3_s2
I0427 12:36:46.676229  2308 net.cpp:86] Creating Layer pool4/3x3_s2
I0427 12:36:46.676232  2308 net.cpp:408] pool4/3x3_s2 <- inception_4e/output
I0427 12:36:46.676237  2308 net.cpp:382] pool4/3x3_s2 -> pool4/3x3_s2
I0427 12:36:46.676265  2308 net.cpp:124] Setting up pool4/3x3_s2
I0427 12:36:46.676270  2308 net.cpp:131] Top shape: 10 832 7 7 (407680)
I0427 12:36:46.676272  2308 net.cpp:139] Memory required for data: 522457600
I0427 12:36:46.676275  2308 layer_factory.hpp:77] Creating layer pool4/3x3_s2_pool4/3x3_s2_0_split
I0427 12:36:46.676280  2308 net.cpp:86] Creating Layer pool4/3x3_s2_pool4/3x3_s2_0_split
I0427 12:36:46.676283  2308 net.cpp:408] pool4/3x3_s2_pool4/3x3_s2_0_split <- pool4/3x3_s2
I0427 12:36:46.676290  2308 net.cpp:382] pool4/3x3_s2_pool4/3x3_s2_0_split -> pool4/3x3_s2_pool4/3x3_s2_0_split_0
I0427 12:36:46.676295  2308 net.cpp:382] pool4/3x3_s2_pool4/3x3_s2_0_split -> pool4/3x3_s2_pool4/3x3_s2_0_split_1
I0427 12:36:46.676301  2308 net.cpp:382] pool4/3x3_s2_pool4/3x3_s2_0_split -> pool4/3x3_s2_pool4/3x3_s2_0_split_2
I0427 12:36:46.676306  2308 net.cpp:382] pool4/3x3_s2_pool4/3x3_s2_0_split -> pool4/3x3_s2_pool4/3x3_s2_0_split_3
I0427 12:36:46.676352  2308 net.cpp:124] Setting up pool4/3x3_s2_pool4/3x3_s2_0_split
I0427 12:36:46.676360  2308 net.cpp:131] Top shape: 10 832 7 7 (407680)
I0427 12:36:46.676364  2308 net.cpp:131] Top shape: 10 832 7 7 (407680)
I0427 12:36:46.676368  2308 net.cpp:131] Top shape: 10 832 7 7 (407680)
I0427 12:36:46.676372  2308 net.cpp:131] Top shape: 10 832 7 7 (407680)
I0427 12:36:46.676373  2308 net.cpp:139] Memory required for data: 528980480
I0427 12:36:46.676376  2308 layer_factory.hpp:77] Creating layer inception_5a/1x1
I0427 12:36:46.676384  2308 net.cpp:86] Creating Layer inception_5a/1x1
I0427 12:36:46.676388  2308 net.cpp:408] inception_5a/1x1 <- pool4/3x3_s2_pool4/3x3_s2_0_split_0
I0427 12:36:46.676393  2308 net.cpp:382] inception_5a/1x1 -> inception_5a/1x1
I0427 12:36:46.677601  2308 net.cpp:124] Setting up inception_5a/1x1
I0427 12:36:46.677608  2308 net.cpp:131] Top shape: 10 256 7 7 (125440)
I0427 12:36:46.677611  2308 net.cpp:139] Memory required for data: 529482240
I0427 12:36:46.677616  2308 layer_factory.hpp:77] Creating layer inception_5a/relu_1x1
I0427 12:36:46.677620  2308 net.cpp:86] Creating Layer inception_5a/relu_1x1
I0427 12:36:46.677624  2308 net.cpp:408] inception_5a/relu_1x1 <- inception_5a/1x1
I0427 12:36:46.677628  2308 net.cpp:369] inception_5a/relu_1x1 -> inception_5a/1x1 (in-place)
I0427 12:36:46.677634  2308 net.cpp:124] Setting up inception_5a/relu_1x1
I0427 12:36:46.677636  2308 net.cpp:131] Top shape: 10 256 7 7 (125440)
I0427 12:36:46.677639  2308 net.cpp:139] Memory required for data: 529984000
I0427 12:36:46.677642  2308 layer_factory.hpp:77] Creating layer inception_5a/3x3_reduce
I0427 12:36:46.677649  2308 net.cpp:86] Creating Layer inception_5a/3x3_reduce
I0427 12:36:46.677654  2308 net.cpp:408] inception_5a/3x3_reduce <- pool4/3x3_s2_pool4/3x3_s2_0_split_1
I0427 12:36:46.677659  2308 net.cpp:382] inception_5a/3x3_reduce -> inception_5a/3x3_reduce
I0427 12:36:46.678486  2308 net.cpp:124] Setting up inception_5a/3x3_reduce
I0427 12:36:46.678493  2308 net.cpp:131] Top shape: 10 160 7 7 (78400)
I0427 12:36:46.678495  2308 net.cpp:139] Memory required for data: 530297600
I0427 12:36:46.678500  2308 layer_factory.hpp:77] Creating layer inception_5a/relu_3x3_reduce
I0427 12:36:46.678511  2308 net.cpp:86] Creating Layer inception_5a/relu_3x3_reduce
I0427 12:36:46.678515  2308 net.cpp:408] inception_5a/relu_3x3_reduce <- inception_5a/3x3_reduce
I0427 12:36:46.678520  2308 net.cpp:369] inception_5a/relu_3x3_reduce -> inception_5a/3x3_reduce (in-place)
I0427 12:36:46.678526  2308 net.cpp:124] Setting up inception_5a/relu_3x3_reduce
I0427 12:36:46.678530  2308 net.cpp:131] Top shape: 10 160 7 7 (78400)
I0427 12:36:46.678534  2308 net.cpp:139] Memory required for data: 530611200
I0427 12:36:46.678535  2308 layer_factory.hpp:77] Creating layer inception_5a/3x3
I0427 12:36:46.678542  2308 net.cpp:86] Creating Layer inception_5a/3x3
I0427 12:36:46.678545  2308 net.cpp:408] inception_5a/3x3 <- inception_5a/3x3_reduce
I0427 12:36:46.678550  2308 net.cpp:382] inception_5a/3x3 -> inception_5a/3x3
I0427 12:36:46.681612  2308 net.cpp:124] Setting up inception_5a/3x3
I0427 12:36:46.681624  2308 net.cpp:131] Top shape: 10 320 7 7 (156800)
I0427 12:36:46.681627  2308 net.cpp:139] Memory required for data: 531238400
I0427 12:36:46.681632  2308 layer_factory.hpp:77] Creating layer inception_5a/relu_3x3
I0427 12:36:46.681638  2308 net.cpp:86] Creating Layer inception_5a/relu_3x3
I0427 12:36:46.681643  2308 net.cpp:408] inception_5a/relu_3x3 <- inception_5a/3x3
I0427 12:36:46.681648  2308 net.cpp:369] inception_5a/relu_3x3 -> inception_5a/3x3 (in-place)
I0427 12:36:46.681654  2308 net.cpp:124] Setting up inception_5a/relu_3x3
I0427 12:36:46.681658  2308 net.cpp:131] Top shape: 10 320 7 7 (156800)
I0427 12:36:46.681661  2308 net.cpp:139] Memory required for data: 531865600
I0427 12:36:46.681663  2308 layer_factory.hpp:77] Creating layer inception_5a/5x5_reduce
I0427 12:36:46.681673  2308 net.cpp:86] Creating Layer inception_5a/5x5_reduce
I0427 12:36:46.681675  2308 net.cpp:408] inception_5a/5x5_reduce <- pool4/3x3_s2_pool4/3x3_s2_0_split_2
I0427 12:36:46.681681  2308 net.cpp:382] inception_5a/5x5_reduce -> inception_5a/5x5_reduce
I0427 12:36:46.682003  2308 net.cpp:124] Setting up inception_5a/5x5_reduce
I0427 12:36:46.682009  2308 net.cpp:131] Top shape: 10 32 7 7 (15680)
I0427 12:36:46.682013  2308 net.cpp:139] Memory required for data: 531928320
I0427 12:36:46.682018  2308 layer_factory.hpp:77] Creating layer inception_5a/relu_5x5_reduce
I0427 12:36:46.682023  2308 net.cpp:86] Creating Layer inception_5a/relu_5x5_reduce
I0427 12:36:46.682026  2308 net.cpp:408] inception_5a/relu_5x5_reduce <- inception_5a/5x5_reduce
I0427 12:36:46.682031  2308 net.cpp:369] inception_5a/relu_5x5_reduce -> inception_5a/5x5_reduce (in-place)
I0427 12:36:46.682036  2308 net.cpp:124] Setting up inception_5a/relu_5x5_reduce
I0427 12:36:46.682040  2308 net.cpp:131] Top shape: 10 32 7 7 (15680)
I0427 12:36:46.682044  2308 net.cpp:139] Memory required for data: 531991040
I0427 12:36:46.682045  2308 layer_factory.hpp:77] Creating layer inception_5a/5x5
I0427 12:36:46.682054  2308 net.cpp:86] Creating Layer inception_5a/5x5
I0427 12:36:46.682056  2308 net.cpp:408] inception_5a/5x5 <- inception_5a/5x5_reduce
I0427 12:36:46.682061  2308 net.cpp:382] inception_5a/5x5 -> inception_5a/5x5
I0427 12:36:46.683393  2308 net.cpp:124] Setting up inception_5a/5x5
I0427 12:36:46.683406  2308 net.cpp:131] Top shape: 10 128 7 7 (62720)
I0427 12:36:46.683409  2308 net.cpp:139] Memory required for data: 532241920
I0427 12:36:46.683414  2308 layer_factory.hpp:77] Creating layer inception_5a/relu_5x5
I0427 12:36:46.683440  2308 net.cpp:86] Creating Layer inception_5a/relu_5x5
I0427 12:36:46.683445  2308 net.cpp:408] inception_5a/relu_5x5 <- inception_5a/5x5
I0427 12:36:46.683449  2308 net.cpp:369] inception_5a/relu_5x5 -> inception_5a/5x5 (in-place)
I0427 12:36:46.683455  2308 net.cpp:124] Setting up inception_5a/relu_5x5
I0427 12:36:46.683459  2308 net.cpp:131] Top shape: 10 128 7 7 (62720)
I0427 12:36:46.683462  2308 net.cpp:139] Memory required for data: 532492800
I0427 12:36:46.683465  2308 layer_factory.hpp:77] Creating layer inception_5a/pool
I0427 12:36:46.683470  2308 net.cpp:86] Creating Layer inception_5a/pool
I0427 12:36:46.683473  2308 net.cpp:408] inception_5a/pool <- pool4/3x3_s2_pool4/3x3_s2_0_split_3
I0427 12:36:46.683478  2308 net.cpp:382] inception_5a/pool -> inception_5a/pool
I0427 12:36:46.683508  2308 net.cpp:124] Setting up inception_5a/pool
I0427 12:36:46.683513  2308 net.cpp:131] Top shape: 10 832 7 7 (407680)
I0427 12:36:46.683516  2308 net.cpp:139] Memory required for data: 534123520
I0427 12:36:46.683519  2308 layer_factory.hpp:77] Creating layer inception_5a/pool_proj
I0427 12:36:46.683526  2308 net.cpp:86] Creating Layer inception_5a/pool_proj
I0427 12:36:46.683531  2308 net.cpp:408] inception_5a/pool_proj <- inception_5a/pool
I0427 12:36:46.683537  2308 net.cpp:382] inception_5a/pool_proj -> inception_5a/pool_proj
I0427 12:36:46.684231  2308 net.cpp:124] Setting up inception_5a/pool_proj
I0427 12:36:46.684237  2308 net.cpp:131] Top shape: 10 128 7 7 (62720)
I0427 12:36:46.684240  2308 net.cpp:139] Memory required for data: 534374400
I0427 12:36:46.684244  2308 layer_factory.hpp:77] Creating layer inception_5a/relu_pool_proj
I0427 12:36:46.684249  2308 net.cpp:86] Creating Layer inception_5a/relu_pool_proj
I0427 12:36:46.684253  2308 net.cpp:408] inception_5a/relu_pool_proj <- inception_5a/pool_proj
I0427 12:36:46.684257  2308 net.cpp:369] inception_5a/relu_pool_proj -> inception_5a/pool_proj (in-place)
I0427 12:36:46.684262  2308 net.cpp:124] Setting up inception_5a/relu_pool_proj
I0427 12:36:46.684267  2308 net.cpp:131] Top shape: 10 128 7 7 (62720)
I0427 12:36:46.684268  2308 net.cpp:139] Memory required for data: 534625280
I0427 12:36:46.684272  2308 layer_factory.hpp:77] Creating layer inception_5a/output
I0427 12:36:46.684275  2308 net.cpp:86] Creating Layer inception_5a/output
I0427 12:36:46.684279  2308 net.cpp:408] inception_5a/output <- inception_5a/1x1
I0427 12:36:46.684283  2308 net.cpp:408] inception_5a/output <- inception_5a/3x3
I0427 12:36:46.684286  2308 net.cpp:408] inception_5a/output <- inception_5a/5x5
I0427 12:36:46.684293  2308 net.cpp:408] inception_5a/output <- inception_5a/pool_proj
I0427 12:36:46.684298  2308 net.cpp:382] inception_5a/output -> inception_5a/output
I0427 12:36:46.684319  2308 net.cpp:124] Setting up inception_5a/output
I0427 12:36:46.684325  2308 net.cpp:131] Top shape: 10 832 7 7 (407680)
I0427 12:36:46.684329  2308 net.cpp:139] Memory required for data: 536256000
I0427 12:36:46.684331  2308 layer_factory.hpp:77] Creating layer inception_5a/output_inception_5a/output_0_split
I0427 12:36:46.684335  2308 net.cpp:86] Creating Layer inception_5a/output_inception_5a/output_0_split
I0427 12:36:46.684340  2308 net.cpp:408] inception_5a/output_inception_5a/output_0_split <- inception_5a/output
I0427 12:36:46.684343  2308 net.cpp:382] inception_5a/output_inception_5a/output_0_split -> inception_5a/output_inception_5a/output_0_split_0
I0427 12:36:46.684350  2308 net.cpp:382] inception_5a/output_inception_5a/output_0_split -> inception_5a/output_inception_5a/output_0_split_1
I0427 12:36:46.684356  2308 net.cpp:382] inception_5a/output_inception_5a/output_0_split -> inception_5a/output_inception_5a/output_0_split_2
I0427 12:36:46.684361  2308 net.cpp:382] inception_5a/output_inception_5a/output_0_split -> inception_5a/output_inception_5a/output_0_split_3
I0427 12:36:46.684406  2308 net.cpp:124] Setting up inception_5a/output_inception_5a/output_0_split
I0427 12:36:46.684412  2308 net.cpp:131] Top shape: 10 832 7 7 (407680)
I0427 12:36:46.684415  2308 net.cpp:131] Top shape: 10 832 7 7 (407680)
I0427 12:36:46.684419  2308 net.cpp:131] Top shape: 10 832 7 7 (407680)
I0427 12:36:46.684422  2308 net.cpp:131] Top shape: 10 832 7 7 (407680)
I0427 12:36:46.684425  2308 net.cpp:139] Memory required for data: 542778880
I0427 12:36:46.684428  2308 layer_factory.hpp:77] Creating layer inception_5b/1x1
I0427 12:36:46.684437  2308 net.cpp:86] Creating Layer inception_5b/1x1
I0427 12:36:46.684439  2308 net.cpp:408] inception_5b/1x1 <- inception_5a/output_inception_5a/output_0_split_0
I0427 12:36:46.684444  2308 net.cpp:382] inception_5b/1x1 -> inception_5b/1x1
I0427 12:36:46.686848  2308 net.cpp:124] Setting up inception_5b/1x1
I0427 12:36:46.686861  2308 net.cpp:131] Top shape: 10 384 7 7 (188160)
I0427 12:36:46.686863  2308 net.cpp:139] Memory required for data: 543531520
I0427 12:36:46.686869  2308 layer_factory.hpp:77] Creating layer inception_5b/relu_1x1
I0427 12:36:46.686875  2308 net.cpp:86] Creating Layer inception_5b/relu_1x1
I0427 12:36:46.686879  2308 net.cpp:408] inception_5b/relu_1x1 <- inception_5b/1x1
I0427 12:36:46.686884  2308 net.cpp:369] inception_5b/relu_1x1 -> inception_5b/1x1 (in-place)
I0427 12:36:46.686890  2308 net.cpp:124] Setting up inception_5b/relu_1x1
I0427 12:36:46.686894  2308 net.cpp:131] Top shape: 10 384 7 7 (188160)
I0427 12:36:46.686897  2308 net.cpp:139] Memory required for data: 544284160
I0427 12:36:46.686900  2308 layer_factory.hpp:77] Creating layer inception_5b/3x3_reduce
I0427 12:36:46.686908  2308 net.cpp:86] Creating Layer inception_5b/3x3_reduce
I0427 12:36:46.686911  2308 net.cpp:408] inception_5b/3x3_reduce <- inception_5a/output_inception_5a/output_0_split_1
I0427 12:36:46.686918  2308 net.cpp:382] inception_5b/3x3_reduce -> inception_5b/3x3_reduce
I0427 12:36:46.687877  2308 net.cpp:124] Setting up inception_5b/3x3_reduce
I0427 12:36:46.687885  2308 net.cpp:131] Top shape: 10 192 7 7 (94080)
I0427 12:36:46.687887  2308 net.cpp:139] Memory required for data: 544660480
I0427 12:36:46.687892  2308 layer_factory.hpp:77] Creating layer inception_5b/relu_3x3_reduce
I0427 12:36:46.687897  2308 net.cpp:86] Creating Layer inception_5b/relu_3x3_reduce
I0427 12:36:46.687901  2308 net.cpp:408] inception_5b/relu_3x3_reduce <- inception_5b/3x3_reduce
I0427 12:36:46.687904  2308 net.cpp:369] inception_5b/relu_3x3_reduce -> inception_5b/3x3_reduce (in-place)
I0427 12:36:46.687909  2308 net.cpp:124] Setting up inception_5b/relu_3x3_reduce
I0427 12:36:46.687913  2308 net.cpp:131] Top shape: 10 192 7 7 (94080)
I0427 12:36:46.687916  2308 net.cpp:139] Memory required for data: 545036800
I0427 12:36:46.687922  2308 layer_factory.hpp:77] Creating layer inception_5b/3x3
I0427 12:36:46.687929  2308 net.cpp:86] Creating Layer inception_5b/3x3
I0427 12:36:46.687933  2308 net.cpp:408] inception_5b/3x3 <- inception_5b/3x3_reduce
I0427 12:36:46.687938  2308 net.cpp:382] inception_5b/3x3 -> inception_5b/3x3
I0427 12:36:46.692126  2308 net.cpp:124] Setting up inception_5b/3x3
I0427 12:36:46.692139  2308 net.cpp:131] Top shape: 10 384 7 7 (188160)
I0427 12:36:46.692143  2308 net.cpp:139] Memory required for data: 545789440
I0427 12:36:46.692148  2308 layer_factory.hpp:77] Creating layer inception_5b/relu_3x3
I0427 12:36:46.692154  2308 net.cpp:86] Creating Layer inception_5b/relu_3x3
I0427 12:36:46.692158  2308 net.cpp:408] inception_5b/relu_3x3 <- inception_5b/3x3
I0427 12:36:46.692162  2308 net.cpp:369] inception_5b/relu_3x3 -> inception_5b/3x3 (in-place)
I0427 12:36:46.692168  2308 net.cpp:124] Setting up inception_5b/relu_3x3
I0427 12:36:46.692173  2308 net.cpp:131] Top shape: 10 384 7 7 (188160)
I0427 12:36:46.692175  2308 net.cpp:139] Memory required for data: 546542080
I0427 12:36:46.692178  2308 layer_factory.hpp:77] Creating layer inception_5b/5x5_reduce
I0427 12:36:46.692186  2308 net.cpp:86] Creating Layer inception_5b/5x5_reduce
I0427 12:36:46.692189  2308 net.cpp:408] inception_5b/5x5_reduce <- inception_5a/output_inception_5a/output_0_split_2
I0427 12:36:46.692196  2308 net.cpp:382] inception_5b/5x5_reduce -> inception_5b/5x5_reduce
I0427 12:36:46.692577  2308 net.cpp:124] Setting up inception_5b/5x5_reduce
I0427 12:36:46.692585  2308 net.cpp:131] Top shape: 10 48 7 7 (23520)
I0427 12:36:46.692589  2308 net.cpp:139] Memory required for data: 546636160
I0427 12:36:46.692594  2308 layer_factory.hpp:77] Creating layer inception_5b/relu_5x5_reduce
I0427 12:36:46.692597  2308 net.cpp:86] Creating Layer inception_5b/relu_5x5_reduce
I0427 12:36:46.692601  2308 net.cpp:408] inception_5b/relu_5x5_reduce <- inception_5b/5x5_reduce
I0427 12:36:46.692606  2308 net.cpp:369] inception_5b/relu_5x5_reduce -> inception_5b/5x5_reduce (in-place)
I0427 12:36:46.692611  2308 net.cpp:124] Setting up inception_5b/relu_5x5_reduce
I0427 12:36:46.692615  2308 net.cpp:131] Top shape: 10 48 7 7 (23520)
I0427 12:36:46.692618  2308 net.cpp:139] Memory required for data: 546730240
I0427 12:36:46.692621  2308 layer_factory.hpp:77] Creating layer inception_5b/5x5
I0427 12:36:46.692627  2308 net.cpp:86] Creating Layer inception_5b/5x5
I0427 12:36:46.692631  2308 net.cpp:408] inception_5b/5x5 <- inception_5b/5x5_reduce
I0427 12:36:46.692636  2308 net.cpp:382] inception_5b/5x5 -> inception_5b/5x5
I0427 12:36:46.693560  2308 net.cpp:124] Setting up inception_5b/5x5
I0427 12:36:46.693567  2308 net.cpp:131] Top shape: 10 128 7 7 (62720)
I0427 12:36:46.693570  2308 net.cpp:139] Memory required for data: 546981120
I0427 12:36:46.693575  2308 layer_factory.hpp:77] Creating layer inception_5b/relu_5x5
I0427 12:36:46.693580  2308 net.cpp:86] Creating Layer inception_5b/relu_5x5
I0427 12:36:46.693583  2308 net.cpp:408] inception_5b/relu_5x5 <- inception_5b/5x5
I0427 12:36:46.693588  2308 net.cpp:369] inception_5b/relu_5x5 -> inception_5b/5x5 (in-place)
I0427 12:36:46.693593  2308 net.cpp:124] Setting up inception_5b/relu_5x5
I0427 12:36:46.693596  2308 net.cpp:131] Top shape: 10 128 7 7 (62720)
I0427 12:36:46.693598  2308 net.cpp:139] Memory required for data: 547232000
I0427 12:36:46.693601  2308 layer_factory.hpp:77] Creating layer inception_5b/pool
I0427 12:36:46.693608  2308 net.cpp:86] Creating Layer inception_5b/pool
I0427 12:36:46.693611  2308 net.cpp:408] inception_5b/pool <- inception_5a/output_inception_5a/output_0_split_3
I0427 12:36:46.693615  2308 net.cpp:382] inception_5b/pool -> inception_5b/pool
I0427 12:36:46.693647  2308 net.cpp:124] Setting up inception_5b/pool
I0427 12:36:46.693653  2308 net.cpp:131] Top shape: 10 832 7 7 (407680)
I0427 12:36:46.693656  2308 net.cpp:139] Memory required for data: 548862720
I0427 12:36:46.693660  2308 layer_factory.hpp:77] Creating layer inception_5b/pool_proj
I0427 12:36:46.693670  2308 net.cpp:86] Creating Layer inception_5b/pool_proj
I0427 12:36:46.693675  2308 net.cpp:408] inception_5b/pool_proj <- inception_5b/pool
I0427 12:36:46.693681  2308 net.cpp:382] inception_5b/pool_proj -> inception_5b/pool_proj
I0427 12:36:46.694372  2308 net.cpp:124] Setting up inception_5b/pool_proj
I0427 12:36:46.694380  2308 net.cpp:131] Top shape: 10 128 7 7 (62720)
I0427 12:36:46.694382  2308 net.cpp:139] Memory required for data: 549113600
I0427 12:36:46.694387  2308 layer_factory.hpp:77] Creating layer inception_5b/relu_pool_proj
I0427 12:36:46.694392  2308 net.cpp:86] Creating Layer inception_5b/relu_pool_proj
I0427 12:36:46.694396  2308 net.cpp:408] inception_5b/relu_pool_proj <- inception_5b/pool_proj
I0427 12:36:46.694401  2308 net.cpp:369] inception_5b/relu_pool_proj -> inception_5b/pool_proj (in-place)
I0427 12:36:46.694404  2308 net.cpp:124] Setting up inception_5b/relu_pool_proj
I0427 12:36:46.694408  2308 net.cpp:131] Top shape: 10 128 7 7 (62720)
I0427 12:36:46.694411  2308 net.cpp:139] Memory required for data: 549364480
I0427 12:36:46.694414  2308 layer_factory.hpp:77] Creating layer inception_5b/output
I0427 12:36:46.694419  2308 net.cpp:86] Creating Layer inception_5b/output
I0427 12:36:46.694422  2308 net.cpp:408] inception_5b/output <- inception_5b/1x1
I0427 12:36:46.694425  2308 net.cpp:408] inception_5b/output <- inception_5b/3x3
I0427 12:36:46.694428  2308 net.cpp:408] inception_5b/output <- inception_5b/5x5
I0427 12:36:46.694432  2308 net.cpp:408] inception_5b/output <- inception_5b/pool_proj
I0427 12:36:46.694437  2308 net.cpp:382] inception_5b/output -> inception_5b/output
I0427 12:36:46.694458  2308 net.cpp:124] Setting up inception_5b/output
I0427 12:36:46.694463  2308 net.cpp:131] Top shape: 10 1024 7 7 (501760)
I0427 12:36:46.694465  2308 net.cpp:139] Memory required for data: 551371520
I0427 12:36:46.694468  2308 layer_factory.hpp:77] Creating layer pool5/7x7_s1
I0427 12:36:46.694473  2308 net.cpp:86] Creating Layer pool5/7x7_s1
I0427 12:36:46.694476  2308 net.cpp:408] pool5/7x7_s1 <- inception_5b/output
I0427 12:36:46.694480  2308 net.cpp:382] pool5/7x7_s1 -> pool5/7x7_s1
I0427 12:36:46.694499  2308 net.cpp:124] Setting up pool5/7x7_s1
I0427 12:36:46.694511  2308 net.cpp:131] Top shape: 10 1024 1 1 (10240)
I0427 12:36:46.694515  2308 net.cpp:139] Memory required for data: 551412480
I0427 12:36:46.694519  2308 layer_factory.hpp:77] Creating layer pool5/drop_7x7_s1
I0427 12:36:46.694525  2308 net.cpp:86] Creating Layer pool5/drop_7x7_s1
I0427 12:36:46.694528  2308 net.cpp:408] pool5/drop_7x7_s1 <- pool5/7x7_s1
I0427 12:36:46.694532  2308 net.cpp:369] pool5/drop_7x7_s1 -> pool5/7x7_s1 (in-place)
I0427 12:36:46.694552  2308 net.cpp:124] Setting up pool5/drop_7x7_s1
I0427 12:36:46.694557  2308 net.cpp:131] Top shape: 10 1024 1 1 (10240)
I0427 12:36:46.694561  2308 net.cpp:139] Memory required for data: 551453440
I0427 12:36:46.694563  2308 layer_factory.hpp:77] Creating layer loss3/classifier-bird
I0427 12:36:46.694569  2308 net.cpp:86] Creating Layer loss3/classifier-bird
I0427 12:36:46.694572  2308 net.cpp:408] loss3/classifier-bird <- pool5/7x7_s1
I0427 12:36:46.694578  2308 net.cpp:382] loss3/classifier-bird -> loss3/classifier-bird
I0427 12:36:46.694682  2308 net.cpp:124] Setting up loss3/classifier-bird
I0427 12:36:46.694689  2308 net.cpp:131] Top shape: 10 4 (40)
I0427 12:36:46.694691  2308 net.cpp:139] Memory required for data: 551453600
I0427 12:36:46.694695  2308 layer_factory.hpp:77] Creating layer prob
I0427 12:36:46.694701  2308 net.cpp:86] Creating Layer prob
I0427 12:36:46.694705  2308 net.cpp:408] prob <- loss3/classifier-bird
I0427 12:36:46.694708  2308 net.cpp:382] prob -> prob
I0427 12:36:46.694753  2308 net.cpp:124] Setting up prob
I0427 12:36:46.694758  2308 net.cpp:131] Top shape: 10 4 (40)
I0427 12:36:46.694761  2308 net.cpp:139] Memory required for data: 551453760
I0427 12:36:46.694764  2308 net.cpp:202] prob does not need backward computation.
I0427 12:36:46.694767  2308 net.cpp:202] loss3/classifier-bird does not need backward computation.
I0427 12:36:46.694774  2308 net.cpp:202] pool5/drop_7x7_s1 does not need backward computation.
I0427 12:36:46.694777  2308 net.cpp:202] pool5/7x7_s1 does not need backward computation.
…
